#[version = "0.0.5"]
def @main(%images: Tensor[(1, 3, 640, 640), float32], outputs=["output0"]) -> Tensor[(1, 8400, 84), float32] {
  %25 = dl.quantize(%images, output_scales=[0.00784313f], output_zero_points=[127]) /* fake_quant_0 */ /* ty=Tensor[(1, 3, 640, 640), uint8] */;
  %26 = fn (%FunctionVar_87_0: Tensor[(1, 3, 640, 640), uint8], %FunctionVar_87_1: Tensor[(32, 3, 3, 3), uint8], %FunctionVar_87_2: Tensor[(32), int32], PartitionedFromPattern="Tuple_dl.quantized_conv2d_", Composite="ds1:0|te1:1|aso1:0|aso2:0|quantize:0", TuAttrs=relay.attrs.TuAttrs(0x55aaebb308)) -> Tensor[(1, 32, 320, 320), uint8] {
    %24 = (%FunctionVar_87_0, %FunctionVar_87_1, %FunctionVar_87_2, meta[relay.Constant][116] /* ty=Tensor[(32), float32] */, meta[relay.Constant][117] /* ty=Tensor[(32), int32] */, meta[relay.Constant][118] /* ty=Tensor[(32), int32] */, meta[relay.Constant][119] /* ty=Tensor[(32), int32] */, meta[relay.Constant][120] /* ty=Tensor[(32), int32] */);
    dl.quantized_conv2d(%24, strides=[2, 2], kernel_size=[3, 3], bias_layout="", out_layout="NCHW", out_dtype="uint8", pad_width=[[0, 0], [0, 0], [1, 1], [1, 1]], lhs_scales=[0.00784313f], lhs_zero_points=[127], rhs_scales=[… rhs_zero_points=[155, 155, 128, 165, 135, 101, 96, 121, 137, 151, 178, 111, 127, 221, 58, 114, 149, 157, 97, 179, 132, 95, 112, 119, 131, 99, 130, 138, 88, 129, 131, 126], scales=[2.09219f], zero_points=[121]) /* ty=Tensor[(1, 32, 320, 320), uint8] */
  };
  %27 = %26(%25, meta[relay.Constant][121] /* ty=Tensor[(32, 3, 3, 3), uint8] */, meta[relay.Constant][122] /* ty=Tensor[(32), int32] */, strides=[2, 2], kernel_size=[3, 3], pad_value=127f, pad_width=[[0, 0], [0, 0], [1, 1], [1, 1]], lhs_scales=[0.00784313f], lhs_zero_points=[127], rhs_scales=[… rhs_zero_points=[155, 155, 128, 165, 135, 101, 96, 121, 137, 151, 178, 111, 127, 221, 58, 114, 149, 157, 97, 179, 132, 95, 112, 119, 131, 99, 130, 138, 88, 129, 131, 126], scales=[2.09219f], zero_points=[121], stage0=0, stage1=0, attrs_type_key="relay.attrs.TuAttrs") /* ty=Tensor[(1, 32, 320, 320), uint8] */;
  %28 = dl.dequantize(%27, input_scales=[2.09219f], input_zero_points=[121]) /* ty=Tensor[(1, 32, 320, 320), float32] */;
  %29 = sigmoid(%28) /* /model.0/act/Sigmoid_output_0 */ /* ty=Tensor[(1, 32, 320, 320), float32] */;
  %30 = multiply(%28, %29) /* /model.0/act/Mul_output_0 */ /* ty=Tensor[(1, 32, 320, 320), float32] */;
  %31 = dl.quantize(%30, output_scales=[1.09991f], output_zero_points=[0]) /* fake_quant_3 */ /* ty=Tensor[(1, 32, 320, 320), uint8] */;
  %32 = fn (%FunctionVar_86_0: Tensor[(1, 32, 320, 320), uint8], %FunctionVar_86_1: Tensor[(64, 32, 3, 3), uint8], %FunctionVar_86_2: Tensor[(64), int32], PartitionedFromPattern="Tuple_dl.quantized_conv2d_", Composite="ds1:0|te1:1|aso1:0|aso2:0|quantize:0", TuAttrs=relay.attrs.TuAttrs(0x55aad0d478)) -> Tensor[(1, 64, 160, 160), uint8] {
    %23 = (%FunctionVar_86_0, %FunctionVar_86_1, %FunctionVar_86_2, meta[relay.Constant][111] /* ty=Tensor[(64), float32] */, meta[relay.Constant][112] /* ty=Tensor[(64), int32] */, meta[relay.Constant][113] /* ty=Tensor[(64), int32] */, meta[relay.Constant][114] /* ty=Tensor[(64), int32] */, meta[relay.Constant][115] /* ty=Tensor[(64), int32] */);
    dl.quantized_conv2d(%23, strides=[2, 2], kernel_size=[3, 3], bias_layout="", out_layout="NCHW", out_dtype="uint8", pad_width=[[0, 0], [0, 0], [1, 1], [1, 1]], lhs_scales=[1.09991f], lhs_zero_points=[0], rhs_scales=[… rhs_zero_points=[178, 117, 177, 133, 100, 189, 181, 147, 114, 195, 118, 124, 133, 157, 173, 132, 124, 144, 131, 121, 69, 99, 150, 191, 153, 126, 135, 117, 126, 176, 138, 128, 127, 127, 126, 158, 121, 133, 109, 139, 133, 172, 141, 142, 170, 127, 134, 129, 175, 142, 154, 161, 137, 146, 81, 128, 150, 121, 108, 165, 123, 138, 132, 50], scales=[1.69145f], zero_points=[153]) /* ty=Tensor[(1, 64, 160, 160), uint8] */
  };
  %33 = %32(%31, meta[relay.Constant][123] /* ty=Tensor[(64, 32, 3, 3), uint8] */, meta[relay.Constant][124] /* ty=Tensor[(64), int32] */, strides=[2, 2], kernel_size=[3, 3], pad_width=[[0, 0], [0, 0], [1, 1], [1, 1]], lhs_scales=[1.09991f], lhs_zero_points=[0], rhs_scales=[… rhs_zero_points=[178, 117, 177, 133, 100, 189, 181, 147, 114, 195, 118, 124, 133, 157, 173, 132, 124, 144, 131, 121, 69, 99, 150, 191, 153, 126, 135, 117, 126, 176, 138, 128, 127, 127, 126, 158, 121, 133, 109, 139, 133, 172, 141, 142, 170, 127, 134, 129, 175, 142, 154, 161, 137, 146, 81, 128, 150, 121, 108, 165, 123, 138, 132, 50], scales=[1.69145f], zero_points=[153], stage0=0, stage1=0, attrs_type_key="relay.attrs.TuAttrs") /* ty=Tensor[(1, 64, 160, 160), uint8] */;
  %34 = dl.dequantize(%33, input_scales=[1.69145f], input_zero_points=[153]) /* ty=Tensor[(1, 64, 160, 160), float32] */;
  %35 = sigmoid(%34) /* /model.1/act/Sigmoid_output_0 */ /* ty=Tensor[(1, 64, 160, 160), float32] */;
  %36 = multiply(%34, %35) /* /model.1/act/Mul_output_0 */ /* ty=Tensor[(1, 64, 160, 160), float32] */;
  %37 = dl.quantize(%36, output_scales=[0.678248f], output_zero_points=[0]) /* fake_quant_6 */ /* ty=Tensor[(1, 64, 160, 160), uint8] */;
  %38 = fn (%FunctionVar_85_0: Tensor[(1, 64, 160, 160), uint8], %FunctionVar_85_1: Tensor[(64, 64, 1, 1), uint8], %FunctionVar_85_2: Tensor[(64), int32], PartitionedFromPattern="Tuple_dl.quantized_conv2d_", Composite="ds1:0|te1:1|aso1:0|aso2:0|quantize:0", TuAttrs=relay.attrs.TuAttrs(0x55a73d7688)) -> Tensor[(1, 64, 160, 160), uint8] {
    %22 = (%FunctionVar_85_0, %FunctionVar_85_1, %FunctionVar_85_2, meta[relay.Constant][106] /* ty=Tensor[(64), float32] */, meta[relay.Constant][107] /* ty=Tensor[(64), int32] */, meta[relay.Constant][108] /* ty=Tensor[(64), int32] */, meta[relay.Constant][109] /* ty=Tensor[(64), int32] */, meta[relay.Constant][110] /* ty=Tensor[(64), int32] */);
    dl.quantized_conv2d(%22, kernel_size=[1, 1], bias_layout="", out_layout="NCHW", out_dtype="uint8", pad_width=[[0, 0], [0, 0], [0, 0], [0, 0]], lhs_scales=[0.678248f], lhs_zero_points=[0], rhs_scales=[… rhs_zero_points=[113, 126, 171, 117, 150, 177, 160, 126, 134, 129, 106, 166, 167, 136, 173, 77, 120, 231, 143, 148, 153, 170, 128, 133, 170, 184, 171, 143, 158, 161, 179, 164, 118, 146, 165, 150, 186, 145, 185, 155, 183, 174, 103, 187, 95, 176, 108, 192, 122, 184, 105, 210, 169, 125, 209, 205, 195, 184, 170, 211, 161, 207, 176, 126], scales=[0.488364f], zero_points=[175]) /* ty=Tensor[(1, 64, 160, 160), uint8] */
  };
  %39 = %38(%37, meta[relay.Constant][125] /* ty=Tensor[(64, 64, 1, 1), uint8] */, meta[relay.Constant][126] /* ty=Tensor[(64), int32] */, kernel_size=[1, 1], lhs_scales=[0.678248f], lhs_zero_points=[0], rhs_scales=[… rhs_zero_points=[113, 126, 171, 117, 150, 177, 160, 126, 134, 129, 106, 166, 167, 136, 173, 77, 120, 231, 143, 148, 153, 170, 128, 133, 170, 184, 171, 143, 158, 161, 179, 164, 118, 146, 165, 150, 186, 145, 185, 155, 183, 174, 103, 187, 95, 176, 108, 192, 122, 184, 105, 210, 169, 125, 209, 205, 195, 184, 170, 211, 161, 207, 176, 126], scales=[0.488364f], zero_points=[175], stage0=0, stage1=0, attrs_type_key="relay.attrs.TuAttrs") /* ty=Tensor[(1, 64, 160, 160), uint8] */;
  %40 = dl.dequantize(%39, input_scales=[0.488364f], input_zero_points=[175]) /* ty=Tensor[(1, 64, 160, 160), float32] */;
  %41 = sigmoid(%40) /* /model.2/cv1/act/Sigmoid_output_0 */ /* ty=Tensor[(1, 64, 160, 160), float32] */;
  %42 = multiply(%40, %41) /* /model.2/cv1/act/Mul_output_0 */ /* ty=Tensor[(1, 64, 160, 160), float32] */;
  %43 = fn (%FunctionVar_10_0: Tensor[(1, 64, 160, 160), float32], PartitionedFromPattern="split_", Composite="ds1:0|te1:0|aso1:0|aso2:0|quantize:0", TuAttrs=relay.attrs.TuAttrs(0x55a9c051d8)) -> (Tensor[(1, 32, 160, 160), float32], Tensor[(1, 32, 160, 160), float32]) {
    split(%FunctionVar_10_0, indices_or_sections=[32], axis=1) /* /model.2/Split_output_0 */ /* ty=(Tensor[(1, 32, 160, 160), float32], Tensor[(1, 32, 160, 160), float32]) */
  };
  %44 = %43(%42, indices_or_sections=[32], axis=1, stage5=0, attrs_type_key="relay.attrs.TuAttrs") /* ty=(Tensor[(1, 32, 160, 160), float32], Tensor[(1, 32, 160, 160), float32]) */;
  %47 = %44.1;
  %48 = dl.quantize(%47, output_scales=[0.104687f], output_zero_points=[3]) /* fake_quant_9 */ /* ty=Tensor[(1, 32, 160, 160), uint8] */;
  %49 = fn (%FunctionVar_84_0: Tensor[(1, 32, 160, 160), uint8], %FunctionVar_84_1: Tensor[(16, 32, 3, 3), uint8], %FunctionVar_84_2: Tensor[(16), int32], PartitionedFromPattern="Tuple_dl.quantized_conv2d_", Composite="ds1:0|te1:1|aso1:0|aso2:0|quantize:0", TuAttrs=relay.attrs.TuAttrs(0x55adc2fb28)) -> Tensor[(1, 16, 160, 160), uint8] {
    %46 = (%FunctionVar_84_0, %FunctionVar_84_1, %FunctionVar_84_2, meta[relay.Constant][132] /* ty=Tensor[(16), float32] */, meta[relay.Constant][133] /* ty=Tensor[(16), int32] */, meta[relay.Constant][134] /* ty=Tensor[(16), int32] */, meta[relay.Constant][135] /* ty=Tensor[(16), int32] */, meta[relay.Constant][136] /* ty=Tensor[(16), int32] */);
    dl.quantized_conv2d(%46, kernel_size=[3, 3], bias_layout="", out_layout="NCHW", out_dtype="uint8", pad_width=[[0, 0], [0, 0], [1, 1], [1, 1]], lhs_scales=[0.104687f], lhs_zero_points=[3], rhs_scales=[… rhs_zero_points=[123, 155, 113, 115, 131, 147, 124, 134, 126, 166, 105, 163, 136, 105, 124, 115], scales=[0.142729f], zero_points=[131]) /* ty=Tensor[(1, 16, 160, 160), uint8] */
  };
  %50 = %49(%48, meta[relay.Constant][137] /* ty=Tensor[(16, 32, 3, 3), uint8] */, meta[relay.Constant][138] /* ty=Tensor[(16), int32] */, kernel_size=[3, 3], pad_value=3f, pad_width=[[0, 0], [0, 0], [1, 1], [1, 1]], lhs_scales=[0.104687f], lhs_zero_points=[3], rhs_scales=[… rhs_zero_points=[123, 155, 113, 115, 131, 147, 124, 134, 126, 166, 105, 163, 136, 105, 124, 115], scales=[0.142729f], zero_points=[131], stage0=0, stage1=0, attrs_type_key="relay.attrs.TuAttrs") /* ty=Tensor[(1, 16, 160, 160), uint8] */;
  %51 = dl.dequantize(%50, input_scales=[0.142729f], input_zero_points=[131]) /* ty=Tensor[(1, 16, 160, 160), float32] */;
  %52 = sigmoid(%51) /* /model.2/m.0/cv1/act/Sigmoid_output_0 */ /* ty=Tensor[(1, 16, 160, 160), float32] */;
  %53 = multiply(%51, %52) /* /model.2/m.0/cv1/act/Mul_output_0 */ /* ty=Tensor[(1, 16, 160, 160), float32] */;
  %54 = dl.quantize(%53, output_scales=[0.0703915f], output_zero_points=[4]) /* fake_quant_12 */ /* ty=Tensor[(1, 16, 160, 160), uint8] */;
  %55 = fn (%FunctionVar_83_0: Tensor[(1, 16, 160, 160), uint8], %FunctionVar_83_1: Tensor[(32, 16, 3, 3), uint8], %FunctionVar_83_2: Tensor[(32), int32], PartitionedFromPattern="Tuple_dl.quantized_conv2d_", Composite="ds1:0|te1:1|aso1:0|aso2:0|quantize:0", TuAttrs=relay.attrs.TuAttrs(0x55aafa6be8)) -> Tensor[(1, 32, 160, 160), uint8] {
    %45 = (%FunctionVar_83_0, %FunctionVar_83_1, %FunctionVar_83_2, meta[relay.Constant][127] /* ty=Tensor[(32), float32] */, meta[relay.Constant][128] /* ty=Tensor[(32), int32] */, meta[relay.Constant][129] /* ty=Tensor[(32), int32] */, meta[relay.Constant][130] /* ty=Tensor[(32), int32] */, meta[relay.Constant][131] /* ty=Tensor[(32), int32] */);
    dl.quantized_conv2d(%45, kernel_size=[3, 3], bias_layout="", out_layout="NCHW", out_dtype="uint8", pad_width=[[0, 0], [0, 0], [1, 1], [1, 1]], lhs_scales=[0.0703915f], lhs_zero_points=[4], rhs_scales=[… rhs_zero_points=[197, 116, 94, 135, 116, 154, 82, 111, 136, 105, 112, 124, 100, 126, 148, 132, 135, 116, 143, 163, 142, 141, 165, 147, 73, 101, 161, 152, 128, 130, 189, 135], scales=[0.175751f], zero_points=[160]) /* ty=Tensor[(1, 32, 160, 160), uint8] */
  };
  %56 = %55(%54, meta[relay.Constant][139] /* ty=Tensor[(32, 16, 3, 3), uint8] */, meta[relay.Constant][140] /* ty=Tensor[(32), int32] */, kernel_size=[3, 3], pad_value=4f, pad_width=[[0, 0], [0, 0], [1, 1], [1, 1]], lhs_scales=[0.0703915f], lhs_zero_points=[4], rhs_scales=[… rhs_zero_points=[197, 116, 94, 135, 116, 154, 82, 111, 136, 105, 112, 124, 100, 126, 148, 132, 135, 116, 143, 163, 142, 141, 165, 147, 73, 101, 161, 152, 128, 130, 189, 135], scales=[0.175751f], zero_points=[160], stage0=0, stage1=0, attrs_type_key="relay.attrs.TuAttrs") /* ty=Tensor[(1, 32, 160, 160), uint8] */;
  %57 = dl.dequantize(%56, input_scales=[0.175751f], input_zero_points=[160]) /* ty=Tensor[(1, 32, 160, 160), float32] */;
  %58 = sigmoid(%57) /* /model.2/m.0/cv2/act/Sigmoid_output_0 */ /* ty=Tensor[(1, 32, 160, 160), float32] */;
  %59 = multiply(%57, %58) /* /model.2/m.0/cv2/act/Mul_output_0 */ /* ty=Tensor[(1, 32, 160, 160), float32] */;
  %60 = %44.0;
  %61 = add(%47, %59) /* /model.2/m.0/Add_output_0 */ /* ty=Tensor[(1, 32, 160, 160), float32] */;
  %62 = (%60, %47, %61);
  %63 = concatenate(%62, axis=1) /* /model.2/Concat_output_0 */ /* ty=Tensor[(1, 96, 160, 160), float32] */;
  %64 = dl.quantize(%63, output_scales=[0.156112f], output_zero_points=[4]) /* fake_quant_15 */ /* ty=Tensor[(1, 96, 160, 160), uint8] */;
  %65 = fn (%FunctionVar_82_0: Tensor[(1, 96, 160, 160), uint8], %FunctionVar_82_1: Tensor[(128, 96, 1, 1), uint8], %FunctionVar_82_2: Tensor[(128), int32], PartitionedFromPattern="Tuple_dl.quantized_conv2d_", Composite="ds1:0|te1:1|aso1:0|aso2:0|quantize:0", TuAttrs=relay.attrs.TuAttrs(0x55ab04c1b8)) -> Tensor[(1, 128, 160, 160), uint8] {
    %21 = (%FunctionVar_82_0, %FunctionVar_82_1, %FunctionVar_82_2, meta[relay.Constant][101] /* ty=Tensor[(128), float32] */, meta[relay.Constant][102] /* ty=Tensor[(128), int32] */, meta[relay.Constant][103] /* ty=Tensor[(128), int32] */, meta[relay.Constant][104] /* ty=Tensor[(128), int32] */, meta[relay.Constant][105] /* ty=Tensor[(128), int32] */);
    dl.quantized_conv2d(%21, kernel_size=[1, 1], bias_layout="", out_layout="NCHW", out_dtype="uint8", pad_width=[[0, 0], [0, 0], [0, 0], [0, 0]], lhs_scales=[0.156112f], lhs_zero_points=[4], rhs_scales=[… rhs_zero_points=[95, 102, 146, 122, 154, 175, 154, 153, 140, 54, 171, 150, 168, 148, 94, 141, 124, 172, 139, 129, 141, 136, 123, 154, 153, 48, 150, 167, 146, 132, 127, 151, 121, 89, 103, 151, 136, 106, 139, 132, 120, 138, 160, 133, 132, 129, 162, 132, 139, 160, 128, 144, 123, 156, 158, 115, 141, 164, 160, 113, 156, 159, 126, 101, 131, 141, 148, 112, 74, 150, 120, 172, 136, 126, 179, 108, 152, 145, 150, 134, 152, 128, 138, 143, 150, 172, 146, 165, 134, 158, 115, 146, 155, 99, 126, 122, 150, 127, 190, 170, 178, 184, 115, 135, 163, 152, 179, 135, 137, 130, 156, 139, 112, 111, 136, 126, 136, 126, 162, 171, 130, 110, 154, 146, 113, 138, 180, 107], scales=[0.294575f], zero_points=[200]) /* ty=Tensor[(1, 128, 160, 160), uint8] */
  };
  %66 = %65(%64, meta[relay.Constant][141] /* ty=Tensor[(128, 96, 1, 1), uint8] */, meta[relay.Constant][142] /* ty=Tensor[(128), int32] */, kernel_size=[1, 1], lhs_scales=[0.156112f], lhs_zero_points=[4], rhs_scales=[… rhs_zero_points=[95, 102, 146, 122, 154, 175, 154, 153, 140, 54, 171, 150, 168, 148, 94, 141, 124, 172, 139, 129, 141, 136, 123, 154, 153, 48, 150, 167, 146, 132, 127, 151, 121, 89, 103, 151, 136, 106, 139, 132, 120, 138, 160, 133, 132, 129, 162, 132, 139, 160, 128, 144, 123, 156, 158, 115, 141, 164, 160, 113, 156, 159, 126, 101, 131, 141, 148, 112, 74, 150, 120, 172, 136, 126, 179, 108, 152, 145, 150, 134, 152, 128, 138, 143, 150, 172, 146, 165, 134, 158, 115, 146, 155, 99, 126, 122, 150, 127, 190, 170, 178, 184, 115, 135, 163, 152, 179, 135, 137, 130, 156, 139, 112, 111, 136, 126, 136, 126, 162, 171, 130, 110, 154, 146, 113, 138, 180, 107], scales=[0.294575f], zero_points=[200], stage0=0, stage1=0, attrs_type_key="relay.attrs.TuAttrs") /* ty=Tensor[(1, 128, 160, 160), uint8] */;
  %67 = dl.dequantize(%66, input_scales=[0.294575f], input_zero_points=[200]) /* ty=Tensor[(1, 128, 160, 160), float32] */;
  %68 = sigmoid(%67) /* /model.2/cv2/act/Sigmoid_output_0 */ /* ty=Tensor[(1, 128, 160, 160), float32] */;
  %69 = multiply(%67, %68) /* /model.2/cv2/act/Mul_output_0 */ /* ty=Tensor[(1, 128, 160, 160), float32] */;
  %70 = dl.quantize(%69, output_scales=[0.0644309f], output_zero_points=[4]) /* fake_quant_18 */ /* ty=Tensor[(1, 128, 160, 160), uint8] */;
  %71 = fn (%FunctionVar_81_0: Tensor[(1, 128, 160, 160), uint8], %FunctionVar_81_1: Tensor[(128, 128, 3, 3), uint8], %FunctionVar_81_2: Tensor[(128), int32], PartitionedFromPattern="Tuple_dl.quantized_conv2d_", Composite="ds1:0|te1:1|aso1:0|aso2:0|quantize:0", TuAttrs=relay.attrs.TuAttrs(0x55aae0dde8)) -> Tensor[(1, 128, 80, 80), uint8] {
    %20 = (%FunctionVar_81_0, %FunctionVar_81_1, %FunctionVar_81_2, meta[relay.Constant][96] /* ty=Tensor[(128), float32] */, meta[relay.Constant][97] /* ty=Tensor[(128), int32] */, meta[relay.Constant][98] /* ty=Tensor[(128), int32] */, meta[relay.Constant][99] /* ty=Tensor[(128), int32] */, meta[relay.Constant][100] /* ty=Tensor[(128), int32] */);
    dl.quantized_conv2d(%20, strides=[2, 2], kernel_size=[3, 3], bias_layout="", out_layout="NCHW", out_dtype="uint8", pad_width=[[0, 0], [0, 0], [1, 1], [1, 1]], lhs_scales=[0.0644309f], lhs_zero_points=[4], rhs_scales=[… rhs_zero_points=[139, 142, 157, 151, 154, 120, 102, 150, 169, 124, 138, 154, 156, 179, 156, 139, 132, 132, 182, 140, 175, 146, 135, 127, 151, 131, 100, 116, 121, 189, 116, 122, 146, 136, 114, 179, 180, 126, 118, 142, 116, 161, 143, 132, 144, 151, 124, 140, 146, 129, 155, 118, 156, 127, 138, 118, 166, 164, 137, 160, 136, 142, 124, 177, 179, 90, 152, 134, 147, 180, 150, 116, 134, 138, 159, 149, 189, 147, 146, 150, 135, 73, 184, 129, 123, 120, 155, 136, 153, 144, 141, 129, 154, 142, 158, 166, 163, 147, 119, 127, 140, 124, 108, 136, 157, 136, 140, 106, 142, 131, 127, 130, 162, 144, 148, 134, 113, 147, 152, 156, 129, 137, 118, 105, 132, 113, 148, 135], scales=[0.0948229f], zero_points=[182]) /* ty=Tensor[(1, 128, 80, 80), uint8] */
  };
  %72 = %71(%70, meta[relay.Constant][143] /* ty=Tensor[(128, 128, 3, 3), uint8] */, meta[relay.Constant][144] /* ty=Tensor[(128), int32] */, strides=[2, 2], kernel_size=[3, 3], pad_value=4f, pad_width=[[0, 0], [0, 0], [1, 1], [1, 1]], lhs_scales=[0.0644309f], lhs_zero_points=[4], rhs_scales=[… rhs_zero_points=[139, 142, 157, 151, 154, 120, 102, 150, 169, 124, 138, 154, 156, 179, 156, 139, 132, 132, 182, 140, 175, 146, 135, 127, 151, 131, 100, 116, 121, 189, 116, 122, 146, 136, 114, 179, 180, 126, 118, 142, 116, 161, 143, 132, 144, 151, 124, 140, 146, 129, 155, 118, 156, 127, 138, 118, 166, 164, 137, 160, 136, 142, 124, 177, 179, 90, 152, 134, 147, 180, 150, 116, 134, 138, 159, 149, 189, 147, 146, 150, 135, 73, 184, 129, 123, 120, 155, 136, 153, 144, 141, 129, 154, 142, 158, 166, 163, 147, 119, 127, 140, 124, 108, 136, 157, 136, 140, 106, 142, 131, 127, 130, 162, 144, 148, 134, 113, 147, 152, 156, 129, 137, 118, 105, 132, 113, 148, 135], scales=[0.0948229f], zero_points=[182], stage0=0, stage1=0, attrs_type_key="relay.attrs.TuAttrs") /* ty=Tensor[(1, 128, 80, 80), uint8] */;
  %73 = dl.dequantize(%72, input_scales=[0.0948229f], input_zero_points=[182]) /* ty=Tensor[(1, 128, 80, 80), float32] */;
  %74 = sigmoid(%73) /* /model.3/act/Sigmoid_output_0 */ /* ty=Tensor[(1, 128, 80, 80), float32] */;
  %75 = multiply(%73, %74) /* /model.3/act/Mul_output_0 */ /* ty=Tensor[(1, 128, 80, 80), float32] */;
  %76 = dl.quantize(%75, output_scales=[0.0283322f], output_zero_points=[10]) /* fake_quant_21 */ /* ty=Tensor[(1, 128, 80, 80), uint8] */;
  %77 = fn (%FunctionVar_80_0: Tensor[(1, 128, 80, 80), uint8], %FunctionVar_80_1: Tensor[(128, 128, 1, 1), uint8], %FunctionVar_80_2: Tensor[(128), int32], PartitionedFromPattern="Tuple_dl.quantized_conv2d_", Composite="ds1:0|te1:1|aso1:0|aso2:0|quantize:0", TuAttrs=relay.attrs.TuAttrs(0x55a9647848)) -> Tensor[(1, 128, 80, 80), uint8] {
    %19 = (%FunctionVar_80_0, %FunctionVar_80_1, %FunctionVar_80_2, meta[relay.Constant][91] /* ty=Tensor[(128), float32] */, meta[relay.Constant][92] /* ty=Tensor[(128), int32] */, meta[relay.Constant][93] /* ty=Tensor[(128), int32] */, meta[relay.Constant][94] /* ty=Tensor[(128), int32] */, meta[relay.Constant][95] /* ty=Tensor[(128), int32] */);
    dl.quantized_conv2d(%19, kernel_size=[1, 1], bias_layout="", out_layout="NCHW", out_dtype="uint8", pad_width=[[0, 0], [0, 0], [0, 0], [0, 0]], lhs_scales=[0.0283322f], lhs_zero_points=[10], rhs_scales=[… rhs_zero_points=[198, 120, 189, 132, 177, 155, 113, 199, 186, 110, 142, 128, 191, 117, 149, 115, 163, 109, 210, 147, 122, 175, 139, 94, 93, 134, 142, 131, 176, 119, 148, 110, 165, 96, 162, 146, 115, 131, 126, 164, 135, 150, 164, 144, 180, 107, 178, 111, 156, 171, 171, 122, 111, 119, 138, 151, 120, 151, 131, 142, 180, 118, 197, 97, 119, 134, 132, 126, 136, 154, 154, 106, 133, 77, 113, 157, 134, 122, 93, 123, 203, 153, 149, 123, 130, 110, 157, 112, 129, 141, 121, 147, 156, 125, 119, 140, 146, 131, 139, 187, 99, 139, 160, 166, 125, 179, 121, 95, 141, 146, 132, 142, 177, 153, 115, 126, 116, 136, 109, 90, 143, 151, 200, 126, 163, 166, 144, 177], scales=[0.0675718f], zero_points=[171]) /* ty=Tensor[(1, 128, 80, 80), uint8] */
  };
  %78 = %77(%76, meta[relay.Constant][145] /* ty=Tensor[(128, 128, 1, 1), uint8] */, meta[relay.Constant][146] /* ty=Tensor[(128), int32] */, kernel_size=[1, 1], lhs_scales=[0.0283322f], lhs_zero_points=[10], rhs_scales=[… rhs_zero_points=[198, 120, 189, 132, 177, 155, 113, 199, 186, 110, 142, 128, 191, 117, 149, 115, 163, 109, 210, 147, 122, 175, 139, 94, 93, 134, 142, 131, 176, 119, 148, 110, 165, 96, 162, 146, 115, 131, 126, 164, 135, 150, 164, 144, 180, 107, 178, 111, 156, 171, 171, 122, 111, 119, 138, 151, 120, 151, 131, 142, 180, 118, 197, 97, 119, 134, 132, 126, 136, 154, 154, 106, 133, 77, 113, 157, 134, 122, 93, 123, 203, 153, 149, 123, 130, 110, 157, 112, 129, 141, 121, 147, 156, 125, 119, 140, 146, 131, 139, 187, 99, 139, 160, 166, 125, 179, 121, 95, 141, 146, 132, 142, 177, 153, 115, 126, 116, 136, 109, 90, 143, 151, 200, 126, 163, 166, 144, 177], scales=[0.0675718f], zero_points=[171], stage0=0, stage1=0, attrs_type_key="relay.attrs.TuAttrs") /* ty=Tensor[(1, 128, 80, 80), uint8] */;
  %79 = dl.dequantize(%78, input_scales=[0.0675718f], input_zero_points=[171]) /* ty=Tensor[(1, 128, 80, 80), float32] */;
  %80 = sigmoid(%79) /* /model.4/cv1/act/Sigmoid_output_0 */ /* ty=Tensor[(1, 128, 80, 80), float32] */;
  %81 = multiply(%79, %80) /* /model.4/cv1/act/Mul_output_0 */ /* ty=Tensor[(1, 128, 80, 80), float32] */;
  %82 = fn (%FunctionVar_9_0: Tensor[(1, 128, 80, 80), float32], PartitionedFromPattern="split_", Composite="ds1:0|te1:0|aso1:0|aso2:0|quantize:0", TuAttrs=relay.attrs.TuAttrs(0x55aaf11958)) -> (Tensor[(1, 64, 80, 80), float32], Tensor[(1, 64, 80, 80), float32]) {
    split(%FunctionVar_9_0, indices_or_sections=[64], axis=1) /* /model.4/Split_output_0 */ /* ty=(Tensor[(1, 64, 80, 80), float32], Tensor[(1, 64, 80, 80), float32]) */
  };
  %83 = %82(%81, indices_or_sections=[64], axis=1, stage5=0, attrs_type_key="relay.attrs.TuAttrs") /* ty=(Tensor[(1, 64, 80, 80), float32], Tensor[(1, 64, 80, 80), float32]) */;
  %86 = %83.1;
  %87 = dl.quantize(%86, output_scales=[0.0138693f], output_zero_points=[20]) /* fake_quant_24 */ /* ty=Tensor[(1, 64, 80, 80), uint8] */;
  %88 = fn (%FunctionVar_79_0: Tensor[(1, 64, 80, 80), uint8], %FunctionVar_79_1: Tensor[(32, 64, 3, 3), uint8], %FunctionVar_79_2: Tensor[(32), int32], PartitionedFromPattern="Tuple_dl.quantized_conv2d_", Composite="ds1:0|te1:1|aso1:0|aso2:0|quantize:0", TuAttrs=relay.attrs.TuAttrs(0x55ab02d658)) -> Tensor[(1, 32, 80, 80), uint8] {
    %85 = (%FunctionVar_79_0, %FunctionVar_79_1, %FunctionVar_79_2, meta[relay.Constant][152] /* ty=Tensor[(32), float32] */, meta[relay.Constant][153] /* ty=Tensor[(32), int32] */, meta[relay.Constant][154] /* ty=Tensor[(32), int32] */, meta[relay.Constant][155] /* ty=Tensor[(32), int32] */, meta[relay.Constant][156] /* ty=Tensor[(32), int32] */);
    dl.quantized_conv2d(%85, kernel_size=[3, 3], bias_layout="", out_layout="NCHW", out_dtype="uint8", pad_width=[[0, 0], [0, 0], [1, 1], [1, 1]], lhs_scales=[0.0138693f], lhs_zero_points=[20], rhs_scales=[… rhs_zero_points=[155, 134, 133, 138, 154, 148, 125, 133, 138, 135, 137, 171, 158, 141, 143, 170, 139, 125, 157, 160, 166, 131, 156, 135, 176, 122, 145, 136, 151, 162, 146, 172], scales=[0.0271007f], zero_points=[140]) /* ty=Tensor[(1, 32, 80, 80), uint8] */
  };
  %89 = %88(%87, meta[relay.Constant][157] /* ty=Tensor[(32, 64, 3, 3), uint8] */, meta[relay.Constant][158] /* ty=Tensor[(32), int32] */, kernel_size=[3, 3], pad_value=20f, pad_width=[[0, 0], [0, 0], [1, 1], [1, 1]], lhs_scales=[0.0138693f], lhs_zero_points=[20], rhs_scales=[… rhs_zero_points=[155, 134, 133, 138, 154, 148, 125, 133, 138, 135, 137, 171, 158, 141, 143, 170, 139, 125, 157, 160, 166, 131, 156, 135, 176, 122, 145, 136, 151, 162, 146, 172], scales=[0.0271007f], zero_points=[140], stage0=0, stage1=0, attrs_type_key="relay.attrs.TuAttrs") /* ty=Tensor[(1, 32, 80, 80), uint8] */;
  %90 = dl.dequantize(%89, input_scales=[0.0271007f], input_zero_points=[140]) /* ty=Tensor[(1, 32, 80, 80), float32] */;
  %91 = sigmoid(%90) /* /model.4/m.0/cv1/act/Sigmoid_output_0 */ /* ty=Tensor[(1, 32, 80, 80), float32] */;
  %92 = multiply(%90, %91) /* /model.4/m.0/cv1/act/Mul_output_0 */ /* ty=Tensor[(1, 32, 80, 80), float32] */;
  %93 = dl.quantize(%92, output_scales=[0.0127459f], output_zero_points=[22]) /* fake_quant_27 */ /* ty=Tensor[(1, 32, 80, 80), uint8] */;
  %94 = fn (%FunctionVar_78_0: Tensor[(1, 32, 80, 80), uint8], %FunctionVar_78_1: Tensor[(64, 32, 3, 3), uint8], %FunctionVar_78_2: Tensor[(64), int32], PartitionedFromPattern="Tuple_dl.quantized_conv2d_", Composite="ds1:0|te1:1|aso1:0|aso2:0|quantize:0", TuAttrs=relay.attrs.TuAttrs(0x55aaf889d8)) -> Tensor[(1, 64, 80, 80), uint8] {
    %84 = (%FunctionVar_78_0, %FunctionVar_78_1, %FunctionVar_78_2, meta[relay.Constant][147] /* ty=Tensor[(64), float32] */, meta[relay.Constant][148] /* ty=Tensor[(64), int32] */, meta[relay.Constant][149] /* ty=Tensor[(64), int32] */, meta[relay.Constant][150] /* ty=Tensor[(64), int32] */, meta[relay.Constant][151] /* ty=Tensor[(64), int32] */);
    dl.quantized_conv2d(%84, kernel_size=[3, 3], bias_layout="", out_layout="NCHW", out_dtype="uint8", pad_width=[[0, 0], [0, 0], [1, 1], [1, 1]], lhs_scales=[0.0127459f], lhs_zero_points=[22], rhs_scales=[… rhs_zero_points=[122, 107, 122, 132, 121, 153, 115, 121, 129, 145, 170, 104, 110, 116, 130, 109, 128, 141, 128, 118, 147, 106, 105, 124, 113, 180, 126, 166, 114, 162, 142, 97, 143, 138, 147, 112, 127, 107, 149, 157, 118, 134, 107, 146, 101, 143, 153, 121, 114, 136, 87, 144, 109, 115, 130, 143, 107, 127, 144, 145, 143, 140, 175, 138], scales=[0.0380351f], zero_points=[140]) /* ty=Tensor[(1, 64, 80, 80), uint8] */
  };
  %95 = %94(%93, meta[relay.Constant][159] /* ty=Tensor[(64, 32, 3, 3), uint8] */, meta[relay.Constant][160] /* ty=Tensor[(64), int32] */, kernel_size=[3, 3], pad_value=22f, pad_width=[[0, 0], [0, 0], [1, 1], [1, 1]], lhs_scales=[0.0127459f], lhs_zero_points=[22], rhs_scales=[… rhs_zero_points=[122, 107, 122, 132, 121, 153, 115, 121, 129, 145, 170, 104, 110, 116, 130, 109, 128, 141, 128, 118, 147, 106, 105, 124, 113, 180, 126, 166, 114, 162, 142, 97, 143, 138, 147, 112, 127, 107, 149, 157, 118, 134, 107, 146, 101, 143, 153, 121, 114, 136, 87, 144, 109, 115, 130, 143, 107, 127, 144, 145, 143, 140, 175, 138], scales=[0.0380351f], zero_points=[140], stage0=0, stage1=0, attrs_type_key="relay.attrs.TuAttrs") /* ty=Tensor[(1, 64, 80, 80), uint8] */;
  %96 = dl.dequantize(%95, input_scales=[0.0380351f], input_zero_points=[140]) /* ty=Tensor[(1, 64, 80, 80), float32] */;
  %97 = sigmoid(%96) /* /model.4/m.0/cv2/act/Sigmoid_output_0 */ /* ty=Tensor[(1, 64, 80, 80), float32] */;
  %98 = multiply(%96, %97) /* /model.4/m.0/cv2/act/Mul_output_0 */ /* ty=Tensor[(1, 64, 80, 80), float32] */;
  %99 = %83.0;
  %100 = add(%86, %98) /* /model.4/m.0/Add_output_0 */ /* ty=Tensor[(1, 64, 80, 80), float32] */;
  %101 = (%99, %86, %100);
  %102 = concatenate(%101, axis=1) /* /model.4/Concat_output_0 */ /* ty=Tensor[(1, 192, 80, 80), float32] */;
  %103 = dl.quantize(%102, output_scales=[0.0252872f], output_zero_points=[22]) /* fake_quant_30 */ /* ty=Tensor[(1, 192, 80, 80), uint8] */;
  %104 = fn (%FunctionVar_77_0: Tensor[(1, 192, 80, 80), uint8], %FunctionVar_77_1: Tensor[(256, 192, 1, 1), uint8], %FunctionVar_77_2: Tensor[(256), int32], PartitionedFromPattern="Tuple_dl.quantized_conv2d_", Composite="ds1:0|te1:1|aso1:0|aso2:0|quantize:0", TuAttrs=relay.attrs.TuAttrs(0x55add12c48)) -> Tensor[(1, 256, 80, 80), uint8] {
    %18 = (%FunctionVar_77_0, %FunctionVar_77_1, %FunctionVar_77_2, meta[relay.Constant][86] /* ty=Tensor[(256), float32] */, meta[relay.Constant][87] /* ty=Tensor[(256), int32] */, meta[relay.Constant][88] /* ty=Tensor[(256), int32] */, meta[relay.Constant][89] /* ty=Tensor[(256), int32] */, meta[relay.Constant][90] /* ty=Tensor[(256), int32] */);
    dl.quantized_conv2d(%18, kernel_size=[1, 1], bias_layout="", out_layout="NCHW", out_dtype="uint8", pad_width=[[0, 0], [0, 0], [0, 0], [0, 0]], lhs_scales=[0.0252872f], lhs_zero_points=[22], rhs_scales=[… rhs_zero_points=[122, 85, 133, 147, 108, 170, 128, 123, 98, 131, 127, 116, 137, 119, 142, 81, 135, 137, 120, 125, 101, 121, 207, 112, 142, 107, 158, 157, 153, 130, 152, 82, 131, 113, 161, 136, 92, 142, 159, 101, 146, 127, 147, 140, 110, 142, 157, 149, 147, 116, 145, 159, 137, 128, 141, 130, 101, 142, 159, 101, 122, 178, 149, 123, 184, 103, 103, 129, 129, 138, 133, 142, 125, 121, 144, 101, 100, 142, 121, 139, 109, 132, 163, 143, 103, 169, 158, 180, 140, 156, 97, 177, 161, 160, 128, 175, 169, 151, 161, 73, 139, 179, 111, 128, 152, 132, 115, 114, 137, 113, 108, 152, 129, 136, 119, 115, 108, 90, 175, 133, 105, 172, 141, 145, 111, 134, 107, 156, 130, 156, 137, 109, 120, 160, 140, 118, 109, 175, 126, 118, 121, 130, 143, 110, 103, 154, 127, 141, 145, 104, 159, 140, 100, 127, 124, 158, 188, 151, 139, 65, 132, 125, 128, 138, 122, 160, 153, 86, 155, 128, 85, 153, 135, 123, 148, 119, 137, 68, 139, 105, 128, 132, 164, 171, 148, 142, 125, 134, 131, 79, 146, 113, 138, 151, 148, 177, 120, 126, 136, 109, 146, 123, 174, 104, 130, 144, 117, 122, 141, 140, 128, 112, 108, 141, 142, 126, 138, 115, 118, 112, 149, 129, 151, 137, 148, 142, 107, 136, 165, 146, 143, 104, 83, 174, 111, 173, 156, 130, 130, 101, 164, 144, 166, 194, 134, 163, 150, 132, 168, 152, 145, 126, 185, 151, 146, 128], scales=[0.0425981f], zero_points=[187]) /* ty=Tensor[(1, 256, 80, 80), uint8] */
  };
  %105 = %104(%103, meta[relay.Constant][161] /* ty=Tensor[(256, 192, 1, 1), uint8] */, meta[relay.Constant][162] /* ty=Tensor[(256), int32] */, kernel_size=[1, 1], lhs_scales=[0.0252872f], lhs_zero_points=[22], rhs_scales=[… rhs_zero_points=[122, 85, 133, 147, 108, 170, 128, 123, 98, 131, 127, 116, 137, 119, 142, 81, 135, 137, 120, 125, 101, 121, 207, 112, 142, 107, 158, 157, 153, 130, 152, 82, 131, 113, 161, 136, 92, 142, 159, 101, 146, 127, 147, 140, 110, 142, 157, 149, 147, 116, 145, 159, 137, 128, 141, 130, 101, 142, 159, 101, 122, 178, 149, 123, 184, 103, 103, 129, 129, 138, 133, 142, 125, 121, 144, 101, 100, 142, 121, 139, 109, 132, 163, 143, 103, 169, 158, 180, 140, 156, 97, 177, 161, 160, 128, 175, 169, 151, 161, 73, 139, 179, 111, 128, 152, 132, 115, 114, 137, 113, 108, 152, 129, 136, 119, 115, 108, 90, 175, 133, 105, 172, 141, 145, 111, 134, 107, 156, 130, 156, 137, 109, 120, 160, 140, 118, 109, 175, 126, 118, 121, 130, 143, 110, 103, 154, 127, 141, 145, 104, 159, 140, 100, 127, 124, 158, 188, 151, 139, 65, 132, 125, 128, 138, 122, 160, 153, 86, 155, 128, 85, 153, 135, 123, 148, 119, 137, 68, 139, 105, 128, 132, 164, 171, 148, 142, 125, 134, 131, 79, 146, 113, 138, 151, 148, 177, 120, 126, 136, 109, 146, 123, 174, 104, 130, 144, 117, 122, 141, 140, 128, 112, 108, 141, 142, 126, 138, 115, 118, 112, 149, 129, 151, 137, 148, 142, 107, 136, 165, 146, 143, 104, 83, 174, 111, 173, 156, 130, 130, 101, 164, 144, 166, 194, 134, 163, 150, 132, 168, 152, 145, 126, 185, 151, 146, 128], scales=[0.0425981f], zero_points=[187], stage0=0, stage1=0, attrs_type_key="relay.attrs.TuAttrs") /* ty=Tensor[(1, 256, 80, 80), uint8] */;
  %106 = dl.dequantize(%105, input_scales=[0.0425981f], input_zero_points=[187]) /* ty=Tensor[(1, 256, 80, 80), float32] */;
  %107 = sigmoid(%106) /* /model.4/cv2/act/Sigmoid_output_0 */ /* ty=Tensor[(1, 256, 80, 80), float32] */;
  %108 = multiply(%106, %107) /* /model.4/cv2/act/Mul_output_0 */ /* ty=Tensor[(1, 256, 80, 80), float32] */;
  %109 = dl.quantize(%108, output_scales=[0.0118357f], output_zero_points=[24]) /* fake_quant_33 */ /* ty=Tensor[(1, 256, 80, 80), uint8] */;
  %110 = fn (%FunctionVar_76_0: Tensor[(1, 256, 80, 80), uint8], %FunctionVar_76_1: Tensor[(256, 256, 3, 3), uint8], %FunctionVar_76_2: Tensor[(256), int32], PartitionedFromPattern="Tuple_dl.quantized_conv2d_", Composite="ds1:0|te1:1|aso1:0|aso2:0|quantize:0", TuAttrs=relay.attrs.TuAttrs(0x55ab0ba6a8)) -> Tensor[(1, 256, 40, 40), uint8] {
    %17 = (%FunctionVar_76_0, %FunctionVar_76_1, %FunctionVar_76_2, meta[relay.Constant][81] /* ty=Tensor[(256), float32] */, meta[relay.Constant][82] /* ty=Tensor[(256), int32] */, meta[relay.Constant][83] /* ty=Tensor[(256), int32] */, meta[relay.Constant][84] /* ty=Tensor[(256), int32] */, meta[relay.Constant][85] /* ty=Tensor[(256), int32] */);
    dl.quantized_conv2d(%17, strides=[2, 2], kernel_size=[3, 3], bias_layout="", out_layout="NCHW", out_dtype="uint8", pad_width=[[0, 0], [0, 0], [1, 1], [1, 1]], lhs_scales=[0.0118357f], lhs_zero_points=[24], rhs_scales=[… rhs_zero_points=[117, 136, 129, 124, 112, 155, 169, 128, 104, 123, 102, 142, 129, 116, 123, 128, 89, 76, 156, 154, 150, 100, 115, 111, 138, 117, 115, 145, 91, 116, 102, 118, 122, 114, 122, 132, 113, 99, 172, 110, 87, 172, 143, 152, 172, 107, 113, 128, 136, 141, 136, 132, 126, 117, 125, 97, 160, 138, 128, 122, 133, 124, 120, 90, 131, 130, 153, 191, 136, 150, 182, 135, 163, 76, 152, 116, 138, 137, 125, 124, 148, 136, 98, 119, 135, 138, 114, 151, 99, 116, 138, 123, 137, 159, 104, 123, 107, 147, 102, 115, 134, 138, 141, 104, 95, 120, 97, 122, 130, 145, 132, 156, 111, 129, 121, 135, 155, 110, 128, 142, 121, 120, 126, 146, 110, 111, 147, 117, 131, 120, 123, 125, 148, 160, 109, 132, 152, 139, 154, 160, 110, 92, 141, 156, 126, 144, 166, 151, 106, 114, 149, 125, 146, 131, 145, 126, 111, 136, 114, 157, 114, 161, 111, 85, 155, 180, 124, 124, 134, 179, 128, 123, 149, 124, 145, 86, 164, 121, 125, 138, 102, 136, 153, 126, 116, 157, 113, 98, 104, 128, 95, 101, 138, 107, 111, 141, 125, 110, 142, 120, 107, 156, 118, 119, 121, 113, 122, 121, 120, 94, 126, 115, 125, 131, 132, 170, 92, 147, 79, 114, 111, 142, 119, 179, 154, 140, 76, 147, 138, 130, 124, 118, 127, 101, 124, 94, 110, 110, 119, 140, 155, 144, 144, 139, 181, 96, 114, 150, 159, 128, 136, 86, 172, 123, 97, 145], scales=[0.0363865f], zero_points=[170]) /* ty=Tensor[(1, 256, 40, 40), uint8] */
  };
  %111 = %110(%109, meta[relay.Constant][163] /* ty=Tensor[(256, 256, 3, 3), uint8] */, meta[relay.Constant][164] /* ty=Tensor[(256), int32] */, strides=[2, 2], kernel_size=[3, 3], pad_value=24f, pad_width=[[0, 0], [0, 0], [1, 1], [1, 1]], lhs_scales=[0.0118357f], lhs_zero_points=[24], rhs_scales=[… rhs_zero_points=[117, 136, 129, 124, 112, 155, 169, 128, 104, 123, 102, 142, 129, 116, 123, 128, 89, 76, 156, 154, 150, 100, 115, 111, 138, 117, 115, 145, 91, 116, 102, 118, 122, 114, 122, 132, 113, 99, 172, 110, 87, 172, 143, 152, 172, 107, 113, 128, 136, 141, 136, 132, 126, 117, 125, 97, 160, 138, 128, 122, 133, 124, 120, 90, 131, 130, 153, 191, 136, 150, 182, 135, 163, 76, 152, 116, 138, 137, 125, 124, 148, 136, 98, 119, 135, 138, 114, 151, 99, 116, 138, 123, 137, 159, 104, 123, 107, 147, 102, 115, 134, 138, 141, 104, 95, 120, 97, 122, 130, 145, 132, 156, 111, 129, 121, 135, 155, 110, 128, 142, 121, 120, 126, 146, 110, 111, 147, 117, 131, 120, 123, 125, 148, 160, 109, 132, 152, 139, 154, 160, 110, 92, 141, 156, 126, 144, 166, 151, 106, 114, 149, 125, 146, 131, 145, 126, 111, 136, 114, 157, 114, 161, 111, 85, 155, 180, 124, 124, 134, 179, 128, 123, 149, 124, 145, 86, 164, 121, 125, 138, 102, 136, 153, 126, 116, 157, 113, 98, 104, 128, 95, 101, 138, 107, 111, 141, 125, 110, 142, 120, 107, 156, 118, 119, 121, 113, 122, 121, 120, 94, 126, 115, 125, 131, 132, 170, 92, 147, 79, 114, 111, 142, 119, 179, 154, 140, 76, 147, 138, 130, 124, 118, 127, 101, 124, 94, 110, 110, 119, 140, 155, 144, 144, 139, 181, 96, 114, 150, 159, 128, 136, 86, 172, 123, 97, 145], scales=[0.0363865f], zero_points=[170], stage0=0, stage1=0, attrs_type_key="relay.attrs.TuAttrs") /* ty=Tensor[(1, 256, 40, 40), uint8] */;
  %112 = dl.dequantize(%111, input_scales=[0.0363865f], input_zero_points=[170]) /* ty=Tensor[(1, 256, 40, 40), float32] */;
  %113 = sigmoid(%112) /* /model.5/act/Sigmoid_output_0 */ /* ty=Tensor[(1, 256, 40, 40), float32] */;
  %114 = multiply(%112, %113) /* /model.5/act/Mul_output_0 */ /* ty=Tensor[(1, 256, 40, 40), float32] */;
  %115 = dl.quantize(%114, output_scales=[0.0126799f], output_zero_points=[22]) /* fake_quant_36 */ /* ty=Tensor[(1, 256, 40, 40), uint8] */;
  %116 = fn (%FunctionVar_75_0: Tensor[(1, 256, 40, 40), uint8], %FunctionVar_75_1: Tensor[(256, 256, 1, 1), uint8], %FunctionVar_75_2: Tensor[(256), int32], PartitionedFromPattern="Tuple_dl.quantized_conv2d_", Composite="ds1:0|te1:1|aso1:0|aso2:0|quantize:0", TuAttrs=relay.attrs.TuAttrs(0x55adc8a948)) -> Tensor[(1, 256, 40, 40), uint8] {
    %16 = (%FunctionVar_75_0, %FunctionVar_75_1, %FunctionVar_75_2, meta[relay.Constant][76] /* ty=Tensor[(256), float32] */, meta[relay.Constant][77] /* ty=Tensor[(256), int32] */, meta[relay.Constant][78] /* ty=Tensor[(256), int32] */, meta[relay.Constant][79] /* ty=Tensor[(256), int32] */, meta[relay.Constant][80] /* ty=Tensor[(256), int32] */);
    dl.quantized_conv2d(%16, kernel_size=[1, 1], bias_layout="", out_layout="NCHW", out_dtype="uint8", pad_width=[[0, 0], [0, 0], [0, 0], [0, 0]], lhs_scales=[0.0126799f], lhs_zero_points=[22], rhs_scales=[… rhs_zero_points=[108, 134, 166, 127, 137, 110, 126, 147, 157, 109, 150, 133, 163, 116, 152, 114, 136, 155, 135, 105, 125, 124, 198, 137, 100, 185, 99, 131, 72, 113, 114, 135, 101, 127, 128, 134, 130, 136, 158, 148, 145, 185, 124, 100, 138, 132, 152, 126, 150, 122, 170, 135, 109, 98, 112, 144, 115, 184, 133, 125, 154, 143, 166, 121, 95, 168, 149, 159, 158, 116, 165, 155, 94, 151, 163, 114, 166, 116, 113, 143, 146, 130, 102, 102, 170, 94, 123, 127, 121, 159, 104, 136, 115, 107, 134, 168, 94, 132, 164, 130, 161, 128, 122, 99, 160, 121, 146, 135, 130, 115, 160, 101, 173, 132, 180, 128, 133, 167, 146, 104, 148, 147, 178, 145, 148, 112, 142, 118, 106, 127, 135, 150, 112, 117, 132, 155, 93, 129, 125, 144, 144, 122, 139, 146, 126, 146, 181, 135, 109, 161, 97, 148, 140, 115, 156, 117, 154, 81, 141, 167, 154, 133, 148, 160, 161, 145, 92, 112, 118, 127, 181, 133, 176, 166, 134, 154, 130, 169, 128, 129, 142, 88, 132, 70, 171, 172, 113, 123, 131, 130, 127, 129, 87, 106, 146, 109, 110, 129, 111, 141, 139, 111, 161, 99, 102, 137, 144, 135, 126, 142, 99, 150, 144, 102, 130, 120, 122, 135, 144, 101, 118, 110, 142, 138, 113, 146, 118, 152, 105, 158, 136, 117, 107, 163, 145, 139, 119, 150, 142, 132, 150, 151, 157, 172, 117, 146, 141, 111, 133, 175, 207, 179, 123, 103, 145, 99], scales=[0.0347035f], zero_points=[148]) /* ty=Tensor[(1, 256, 40, 40), uint8] */
  };
  %117 = %116(%115, meta[relay.Constant][165] /* ty=Tensor[(256, 256, 1, 1), uint8] */, meta[relay.Constant][166] /* ty=Tensor[(256), int32] */, kernel_size=[1, 1], lhs_scales=[0.0126799f], lhs_zero_points=[22], rhs_scales=[… rhs_zero_points=[108, 134, 166, 127, 137, 110, 126, 147, 157, 109, 150, 133, 163, 116, 152, 114, 136, 155, 135, 105, 125, 124, 198, 137, 100, 185, 99, 131, 72, 113, 114, 135, 101, 127, 128, 134, 130, 136, 158, 148, 145, 185, 124, 100, 138, 132, 152, 126, 150, 122, 170, 135, 109, 98, 112, 144, 115, 184, 133, 125, 154, 143, 166, 121, 95, 168, 149, 159, 158, 116, 165, 155, 94, 151, 163, 114, 166, 116, 113, 143, 146, 130, 102, 102, 170, 94, 123, 127, 121, 159, 104, 136, 115, 107, 134, 168, 94, 132, 164, 130, 161, 128, 122, 99, 160, 121, 146, 135, 130, 115, 160, 101, 173, 132, 180, 128, 133, 167, 146, 104, 148, 147, 178, 145, 148, 112, 142, 118, 106, 127, 135, 150, 112, 117, 132, 155, 93, 129, 125, 144, 144, 122, 139, 146, 126, 146, 181, 135, 109, 161, 97, 148, 140, 115, 156, 117, 154, 81, 141, 167, 154, 133, 148, 160, 161, 145, 92, 112, 118, 127, 181, 133, 176, 166, 134, 154, 130, 169, 128, 129, 142, 88, 132, 70, 171, 172, 113, 123, 131, 130, 127, 129, 87, 106, 146, 109, 110, 129, 111, 141, 139, 111, 161, 99, 102, 137, 144, 135, 126, 142, 99, 150, 144, 102, 130, 120, 122, 135, 144, 101, 118, 110, 142, 138, 113, 146, 118, 152, 105, 158, 136, 117, 107, 163, 145, 139, 119, 150, 142, 132, 150, 151, 157, 172, 117, 146, 141, 111, 133, 175, 207, 179, 123, 103, 145, 99], scales=[0.0347035f], zero_points=[148], stage0=0, stage1=0, attrs_type_key="relay.attrs.TuAttrs") /* ty=Tensor[(1, 256, 40, 40), uint8] */;
  %118 = dl.dequantize(%117, input_scales=[0.0347035f], input_zero_points=[148]) /* ty=Tensor[(1, 256, 40, 40), float32] */;
  %119 = sigmoid(%118) /* /model.6/cv1/act/Sigmoid_output_0 */ /* ty=Tensor[(1, 256, 40, 40), float32] */;
  %120 = multiply(%118, %119) /* /model.6/cv1/act/Mul_output_0 */ /* ty=Tensor[(1, 256, 40, 40), float32] */;
  %121 = fn (%FunctionVar_8_0: Tensor[(1, 256, 40, 40), float32], PartitionedFromPattern="split_", Composite="ds1:0|te1:0|aso1:0|aso2:0|quantize:0", TuAttrs=relay.attrs.TuAttrs(0x55a962dc28)) -> (Tensor[(1, 128, 40, 40), float32], Tensor[(1, 128, 40, 40), float32]) {
    split(%FunctionVar_8_0, indices_or_sections=[128], axis=1) /* /model.6/Split_output_0 */ /* ty=(Tensor[(1, 128, 40, 40), float32], Tensor[(1, 128, 40, 40), float32]) */
  };
  %122 = %121(%120, indices_or_sections=[128], axis=1, stage5=0, attrs_type_key="relay.attrs.TuAttrs") /* ty=(Tensor[(1, 128, 40, 40), float32], Tensor[(1, 128, 40, 40), float32]) */;
  %125 = %122.1;
  %126 = dl.quantize(%125, output_scales=[0.0152381f], output_zero_points=[18]) /* fake_quant_39 */ /* ty=Tensor[(1, 128, 40, 40), uint8] */;
  %127 = fn (%FunctionVar_74_0: Tensor[(1, 128, 40, 40), uint8], %FunctionVar_74_1: Tensor[(64, 128, 1, 1), uint8], %FunctionVar_74_2: Tensor[(64), int32], PartitionedFromPattern="Tuple_dl.quantized_conv2d_", Composite="ds1:0|te1:1|aso1:0|aso2:0|quantize:0", TuAttrs=relay.attrs.TuAttrs(0x55a9927d78)) -> Tensor[(1, 64, 40, 40), uint8] {
    %124 = (%FunctionVar_74_0, %FunctionVar_74_1, %FunctionVar_74_2, meta[relay.Constant][172] /* ty=Tensor[(64), float32] */, meta[relay.Constant][173] /* ty=Tensor[(64), int32] */, meta[relay.Constant][174] /* ty=Tensor[(64), int32] */, meta[relay.Constant][175] /* ty=Tensor[(64), int32] */, meta[relay.Constant][176] /* ty=Tensor[(64), int32] */);
    dl.quantized_conv2d(%124, kernel_size=[1, 1], bias_layout="", out_layout="NCHW", out_dtype="uint8", pad_width=[[0, 0], [0, 0], [0, 0], [0, 0]], lhs_scales=[0.0152381f], lhs_zero_points=[18], rhs_scales=[… rhs_zero_points=[130, 109, 155, 129, 108, 114, 134, 113, 181, 119, 153, 132, 126, 139, 121, 194, 163, 118, 137, 148, 110, 127, 131, 183, 124, 156, 152, 137, 198, 145, 147, 153, 157, 129, 160, 131, 123, 121, 154, 141, 142, 124, 134, 87, 109, 142, 128, 121, 140, 130, 140, 170, 153, 131, 90, 145, 173, 143, 138, 124, 146, 114, 147, 126], scales=[0.016769f], zero_points=[146]) /* ty=Tensor[(1, 64, 40, 40), uint8] */
  };
  %128 = %127(%126, meta[relay.Constant][177] /* ty=Tensor[(64, 128, 1, 1), uint8] */, meta[relay.Constant][178] /* ty=Tensor[(64), int32] */, kernel_size=[1, 1], lhs_scales=[0.0152381f], lhs_zero_points=[18], rhs_scales=[… rhs_zero_points=[130, 109, 155, 129, 108, 114, 134, 113, 181, 119, 153, 132, 126, 139, 121, 194, 163, 118, 137, 148, 110, 127, 131, 183, 124, 156, 152, 137, 198, 145, 147, 153, 157, 129, 160, 131, 123, 121, 154, 141, 142, 124, 134, 87, 109, 142, 128, 121, 140, 130, 140, 170, 153, 131, 90, 145, 173, 143, 138, 124, 146, 114, 147, 126], scales=[0.016769f], zero_points=[146], stage0=0, stage1=0, attrs_type_key="relay.attrs.TuAttrs") /* ty=Tensor[(1, 64, 40, 40), uint8] */;
  %129 = dl.dequantize(%128, input_scales=[0.016769f], input_zero_points=[146]) /* ty=Tensor[(1, 64, 40, 40), float32] */;
  %130 = sigmoid(%129) /* /model.6/m.0/cv1/act/Sigmoid_output_0 */ /* ty=Tensor[(1, 64, 40, 40), float32] */;
  %133 = multiply(%129, %130) /* /model.6/m.0/cv1/act/Mul_output_0 */ /* ty=Tensor[(1, 64, 40, 40), float32] */;
  %134 = dl.quantize(%133, output_scales=[0.00728809f], output_zero_points=[38]) /* fake_quant_42 */ /* ty=Tensor[(1, 64, 40, 40), uint8] */;
  %135 = fn (%FunctionVar_73_0: Tensor[(1, 64, 40, 40), uint8], %FunctionVar_73_1: Tensor[(64, 64, 3, 3), uint8], %FunctionVar_73_2: Tensor[(64), int32], PartitionedFromPattern="Tuple_dl.quantized_conv2d_", Composite="ds1:0|te1:1|aso1:0|aso2:0|quantize:0", TuAttrs=relay.attrs.TuAttrs(0x55aae4b118)) -> Tensor[(1, 64, 40, 40), uint8] {
    %132 = (%FunctionVar_73_0, %FunctionVar_73_1, %FunctionVar_73_2, meta[relay.Constant][184] /* ty=Tensor[(64), float32] */, meta[relay.Constant][185] /* ty=Tensor[(64), int32] */, meta[relay.Constant][186] /* ty=Tensor[(64), int32] */, meta[relay.Constant][187] /* ty=Tensor[(64), int32] */, meta[relay.Constant][188] /* ty=Tensor[(64), int32] */);
    dl.quantized_conv2d(%132, kernel_size=[3, 3], bias_layout="", out_layout="NCHW", out_dtype="uint8", pad_width=[[0, 0], [0, 0], [1, 1], [1, 1]], lhs_scales=[0.00728809f], lhs_zero_points=[38], rhs_scales=[… rhs_zero_points=[146, 137, 138, 150, 145, 120, 126, 141, 133, 134, 130, 117, 137, 131, 137, 135, 159, 184, 157, 117, 125, 114, 101, 123, 127, 141, 145, 101, 146, 151, 122, 143, 128, 140, 134, 137, 134, 141, 114, 150, 128, 128, 124, 140, 173, 101, 128, 147, 149, 171, 165, 121, 166, 154, 145, 166, 137, 205, 138, 138, 117, 147, 142, 110], scales=[0.0234573f], zero_points=[170]) /* ty=Tensor[(1, 64, 40, 40), uint8] */
  };
  %136 = %135(%134, meta[relay.Constant][189] /* ty=Tensor[(64, 64, 3, 3), uint8] */, meta[relay.Constant][190] /* ty=Tensor[(64), int32] */, kernel_size=[3, 3], pad_value=38f, pad_width=[[0, 0], [0, 0], [1, 1], [1, 1]], lhs_scales=[0.00728809f], lhs_zero_points=[38], rhs_scales=[… rhs_zero_points=[146, 137, 138, 150, 145, 120, 126, 141, 133, 134, 130, 117, 137, 131, 137, 135, 159, 184, 157, 117, 125, 114, 101, 123, 127, 141, 145, 101, 146, 151, 122, 143, 128, 140, 134, 137, 134, 141, 114, 150, 128, 128, 124, 140, 173, 101, 128, 147, 149, 171, 165, 121, 166, 154, 145, 166, 137, 205, 138, 138, 117, 147, 142, 110], scales=[0.0234573f], zero_points=[170], stage0=0, stage1=0, attrs_type_key="relay.attrs.TuAttrs") /* ty=Tensor[(1, 64, 40, 40), uint8] */;
  %137 = dl.dequantize(%136, input_scales=[0.0234573f], input_zero_points=[170]) /* ty=Tensor[(1, 64, 40, 40), float32] */;
  %138 = sigmoid(%137) /* /model.6/m.0/m/m.0/cv1/act/Sigmoid_output_0 */ /* ty=Tensor[(1, 64, 40, 40), float32] */;
  %139 = multiply(%137, %138) /* /model.6/m.0/m/m.0/cv1/act/Mul_output_0 */ /* ty=Tensor[(1, 64, 40, 40), float32] */;
  %140 = dl.quantize(%139, output_scales=[0.00800891f], output_zero_points=[35]) /* fake_quant_45 */ /* ty=Tensor[(1, 64, 40, 40), uint8] */;
  %141 = fn (%FunctionVar_72_0: Tensor[(1, 64, 40, 40), uint8], %FunctionVar_72_1: Tensor[(64, 64, 3, 3), uint8], %FunctionVar_72_2: Tensor[(64), int32], PartitionedFromPattern="Tuple_dl.quantized_conv2d_", Composite="ds1:0|te1:1|aso1:0|aso2:0|quantize:0", TuAttrs=relay.attrs.TuAttrs(0x55aaf66578)) -> Tensor[(1, 64, 40, 40), uint8] {
    %131 = (%FunctionVar_72_0, %FunctionVar_72_1, %FunctionVar_72_2, meta[relay.Constant][179] /* ty=Tensor[(64), float32] */, meta[relay.Constant][180] /* ty=Tensor[(64), int32] */, meta[relay.Constant][181] /* ty=Tensor[(64), int32] */, meta[relay.Constant][182] /* ty=Tensor[(64), int32] */, meta[relay.Constant][183] /* ty=Tensor[(64), int32] */);
    dl.quantized_conv2d(%131, kernel_size=[3, 3], bias_layout="", out_layout="NCHW", out_dtype="uint8", pad_width=[[0, 0], [0, 0], [1, 1], [1, 1]], lhs_scales=[0.00800891f], lhs_zero_points=[35], rhs_scales=[… rhs_zero_points=[104, 134, 118, 116, 118, 120, 123, 102, 138, 127, 141, 112, 139, 145, 136, 173, 116, 127, 135, 115, 110, 159, 116, 151, 135, 122, 99, 113, 129, 125, 111, 115, 114, 126, 117, 112, 135, 121, 125, 154, 99, 133, 117, 132, 140, 115, 97, 131, 126, 161, 105, 133, 130, 147, 131, 154, 129, 103, 112, 127, 132, 142, 114, 101], scales=[0.0165919f], zero_points=[147]) /* ty=Tensor[(1, 64, 40, 40), uint8] */
  };
  %142 = %141(%140, meta[relay.Constant][191] /* ty=Tensor[(64, 64, 3, 3), uint8] */, meta[relay.Constant][192] /* ty=Tensor[(64), int32] */, kernel_size=[3, 3], pad_value=35f, pad_width=[[0, 0], [0, 0], [1, 1], [1, 1]], lhs_scales=[0.00800891f], lhs_zero_points=[35], rhs_scales=[… rhs_zero_points=[104, 134, 118, 116, 118, 120, 123, 102, 138, 127, 141, 112, 139, 145, 136, 173, 116, 127, 135, 115, 110, 159, 116, 151, 135, 122, 99, 113, 129, 125, 111, 115, 114, 126, 117, 112, 135, 121, 125, 154, 99, 133, 117, 132, 140, 115, 97, 131, 126, 161, 105, 133, 130, 147, 131, 154, 129, 103, 112, 127, 132, 142, 114, 101], scales=[0.0165919f], zero_points=[147], stage0=0, stage1=0, attrs_type_key="relay.attrs.TuAttrs") /* ty=Tensor[(1, 64, 40, 40), uint8] */;
  %143 = dl.dequantize(%142, input_scales=[0.0165919f], input_zero_points=[147]) /* ty=Tensor[(1, 64, 40, 40), float32] */;
  %144 = sigmoid(%143) /* /model.6/m.0/m/m.0/cv2/act/Sigmoid_output_0 */ /* ty=Tensor[(1, 64, 40, 40), float32] */;
  %145 = multiply(%143, %144) /* /model.6/m.0/m/m.0/cv2/act/Mul_output_0 */ /* ty=Tensor[(1, 64, 40, 40), float32] */;
  %148 = add(%133, %145) /* /model.6/m.0/m/m.0/Add_output_0 */ /* ty=Tensor[(1, 64, 40, 40), float32] */;
  %149 = dl.quantize(%148, output_scales=[0.00898826f], output_zero_points=[62]) /* fake_quant_48 */ /* ty=Tensor[(1, 64, 40, 40), uint8] */;
  %150 = fn (%FunctionVar_71_0: Tensor[(1, 64, 40, 40), uint8], %FunctionVar_71_1: Tensor[(64, 64, 3, 3), uint8], %FunctionVar_71_2: Tensor[(64), int32], PartitionedFromPattern="Tuple_dl.quantized_conv2d_", Composite="ds1:0|te1:1|aso1:0|aso2:0|quantize:0", TuAttrs=relay.attrs.TuAttrs(0x55ad96f308)) -> Tensor[(1, 64, 40, 40), uint8] {
    %147 = (%FunctionVar_71_0, %FunctionVar_71_1, %FunctionVar_71_2, meta[relay.Constant][198] /* ty=Tensor[(64), float32] */, meta[relay.Constant][199] /* ty=Tensor[(64), int32] */, meta[relay.Constant][200] /* ty=Tensor[(64), int32] */, meta[relay.Constant][201] /* ty=Tensor[(64), int32] */, meta[relay.Constant][202] /* ty=Tensor[(64), int32] */);
    dl.quantized_conv2d(%147, kernel_size=[3, 3], bias_layout="", out_layout="NCHW", out_dtype="uint8", pad_width=[[0, 0], [0, 0], [1, 1], [1, 1]], lhs_scales=[0.00898826f], lhs_zero_points=[62], rhs_scales=[… rhs_zero_points=[135, 125, 139, 107, 119, 105, 178, 152, 116, 117, 132, 146, 132, 116, 150, 117, 133, 148, 141, 138, 132, 122, 111, 113, 126, 142, 145, 139, 141, 159, 119, 144, 168, 107, 120, 97, 152, 113, 137, 127, 123, 119, 131, 128, 128, 120, 112, 114, 96, 136, 162, 137, 118, 117, 147, 118, 151, 138, 139, 117, 105, 127, 125, 123], scales=[0.0178855f], zero_points=[160]) /* ty=Tensor[(1, 64, 40, 40), uint8] */
  };
  %151 = %150(%149, meta[relay.Constant][203] /* ty=Tensor[(64, 64, 3, 3), uint8] */, meta[relay.Constant][204] /* ty=Tensor[(64), int32] */, kernel_size=[3, 3], pad_value=62f, pad_width=[[0, 0], [0, 0], [1, 1], [1, 1]], lhs_scales=[0.00898826f], lhs_zero_points=[62], rhs_scales=[… rhs_zero_points=[135, 125, 139, 107, 119, 105, 178, 152, 116, 117, 132, 146, 132, 116, 150, 117, 133, 148, 141, 138, 132, 122, 111, 113, 126, 142, 145, 139, 141, 159, 119, 144, 168, 107, 120, 97, 152, 113, 137, 127, 123, 119, 131, 128, 128, 120, 112, 114, 96, 136, 162, 137, 118, 117, 147, 118, 151, 138, 139, 117, 105, 127, 125, 123], scales=[0.0178855f], zero_points=[160], stage0=0, stage1=0, attrs_type_key="relay.attrs.TuAttrs") /* ty=Tensor[(1, 64, 40, 40), uint8] */;
  %152 = dl.dequantize(%151, input_scales=[0.0178855f], input_zero_points=[160]) /* ty=Tensor[(1, 64, 40, 40), float32] */;
  %153 = sigmoid(%152) /* /model.6/m.0/m/m.1/cv1/act/Sigmoid_output_0 */ /* ty=Tensor[(1, 64, 40, 40), float32] */;
  %154 = multiply(%152, %153) /* /model.6/m.0/m/m.1/cv1/act/Mul_output_0 */ /* ty=Tensor[(1, 64, 40, 40), float32] */;
  %155 = dl.quantize(%154, output_scales=[0.00670348f], output_zero_points=[42]) /* fake_quant_51 */ /* ty=Tensor[(1, 64, 40, 40), uint8] */;
  %156 = fn (%FunctionVar_70_0: Tensor[(1, 64, 40, 40), uint8], %FunctionVar_70_1: Tensor[(64, 64, 3, 3), uint8], %FunctionVar_70_2: Tensor[(64), int32], PartitionedFromPattern="Tuple_dl.quantized_conv2d_", Composite="ds1:0|te1:1|aso1:0|aso2:0|quantize:0", TuAttrs=relay.attrs.TuAttrs(0x55aa61e148)) -> Tensor[(1, 64, 40, 40), uint8] {
    %146 = (%FunctionVar_70_0, %FunctionVar_70_1, %FunctionVar_70_2, meta[relay.Constant][193] /* ty=Tensor[(64), float32] */, meta[relay.Constant][194] /* ty=Tensor[(64), int32] */, meta[relay.Constant][195] /* ty=Tensor[(64), int32] */, meta[relay.Constant][196] /* ty=Tensor[(64), int32] */, meta[relay.Constant][197] /* ty=Tensor[(64), int32] */);
    dl.quantized_conv2d(%146, kernel_size=[3, 3], bias_layout="", out_layout="NCHW", out_dtype="uint8", pad_width=[[0, 0], [0, 0], [1, 1], [1, 1]], lhs_scales=[0.00670348f], lhs_zero_points=[42], rhs_scales=[… rhs_zero_points=[100, 119, 127, 140, 137, 105, 128, 112, 139, 111, 86, 108, 127, 113, 132, 144, 129, 125, 161, 106, 108, 126, 111, 130, 116, 130, 164, 145, 117, 114, 114, 122, 137, 143, 106, 144, 148, 116, 133, 128, 116, 99, 118, 117, 110, 133, 139, 103, 135, 117, 130, 137, 100, 100, 160, 97, 118, 127, 125, 128, 108, 88, 95, 99], scales=[0.0267072f], zero_points=[118]) /* ty=Tensor[(1, 64, 40, 40), uint8] */
  };
  %157 = %156(%155, meta[relay.Constant][205] /* ty=Tensor[(64, 64, 3, 3), uint8] */, meta[relay.Constant][206] /* ty=Tensor[(64), int32] */, kernel_size=[3, 3], pad_value=42f, pad_width=[[0, 0], [0, 0], [1, 1], [1, 1]], lhs_scales=[0.00670348f], lhs_zero_points=[42], rhs_scales=[… rhs_zero_points=[100, 119, 127, 140, 137, 105, 128, 112, 139, 111, 86, 108, 127, 113, 132, 144, 129, 125, 161, 106, 108, 126, 111, 130, 116, 130, 164, 145, 117, 114, 114, 122, 137, 143, 106, 144, 148, 116, 133, 128, 116, 99, 118, 117, 110, 133, 139, 103, 135, 117, 130, 137, 100, 100, 160, 97, 118, 127, 125, 128, 108, 88, 95, 99], scales=[0.0267072f], zero_points=[118], stage0=0, stage1=0, attrs_type_key="relay.attrs.TuAttrs") /* ty=Tensor[(1, 64, 40, 40), uint8] */;
  %158 = dl.dequantize(%157, input_scales=[0.0267072f], input_zero_points=[118]) /* ty=Tensor[(1, 64, 40, 40), float32] */;
  %159 = sigmoid(%158) /* /model.6/m.0/m/m.1/cv2/act/Sigmoid_output_0 */ /* ty=Tensor[(1, 64, 40, 40), float32] */;
  %160 = multiply(%158, %159) /* /model.6/m.0/m/m.1/cv2/act/Mul_output_0 */ /* ty=Tensor[(1, 64, 40, 40), float32] */;
  %162 = fn (%FunctionVar_69_0: Tensor[(1, 128, 40, 40), uint8], %FunctionVar_69_1: Tensor[(64, 128, 1, 1), uint8], %FunctionVar_69_2: Tensor[(64), int32], PartitionedFromPattern="Tuple_dl.quantized_conv2d_", Composite="ds1:0|te1:1|aso1:0|aso2:0|quantize:0", TuAttrs=relay.attrs.TuAttrs(0x55aae44438)) -> Tensor[(1, 64, 40, 40), uint8] {
    %161 = (%FunctionVar_69_0, %FunctionVar_69_1, %FunctionVar_69_2, meta[relay.Constant][207] /* ty=Tensor[(64), float32] */, meta[relay.Constant][208] /* ty=Tensor[(64), int32] */, meta[relay.Constant][209] /* ty=Tensor[(64), int32] */, meta[relay.Constant][210] /* ty=Tensor[(64), int32] */, meta[relay.Constant][211] /* ty=Tensor[(64), int32] */);
    dl.quantized_conv2d(%161, kernel_size=[1, 1], bias_layout="", out_layout="NCHW", out_dtype="uint8", pad_width=[[0, 0], [0, 0], [0, 0], [0, 0]], lhs_scales=[0.0152381f], lhs_zero_points=[18], rhs_scales=[… rhs_zero_points=[116, 115, 152, 87, 167, 111, 130, 127, 147, 131, 107, 152, 109, 134, 130, 146, 123, 128, 84, 176, 88, 156, 138, 119, 106, 152, 135, 89, 87, 125, 115, 114, 136, 124, 122, 118, 109, 138, 117, 116, 125, 114, 139, 120, 112, 130, 133, 100, 152, 142, 139, 140, 111, 119, 122, 155, 105, 163, 134, 162, 121, 145, 121, 126], scales=[0.0282712f], zero_points=[114]) /* ty=Tensor[(1, 64, 40, 40), uint8] */
  };
  %163 = %162(%126, meta[relay.Constant][212] /* ty=Tensor[(64, 128, 1, 1), uint8] */, meta[relay.Constant][213] /* ty=Tensor[(64), int32] */, kernel_size=[1, 1], lhs_scales=[0.0152381f], lhs_zero_points=[18], rhs_scales=[… rhs_zero_points=[116, 115, 152, 87, 167, 111, 130, 127, 147, 131, 107, 152, 109, 134, 130, 146, 123, 128, 84, 176, 88, 156, 138, 119, 106, 152, 135, 89, 87, 125, 115, 114, 136, 124, 122, 118, 109, 138, 117, 116, 125, 114, 139, 120, 112, 130, 133, 100, 152, 142, 139, 140, 111, 119, 122, 155, 105, 163, 134, 162, 121, 145, 121, 126], scales=[0.0282712f], zero_points=[114], stage0=0, stage1=0, attrs_type_key="relay.attrs.TuAttrs") /* ty=Tensor[(1, 64, 40, 40), uint8] */;
  %164 = dl.dequantize(%163, input_scales=[0.0282712f], input_zero_points=[114]) /* ty=Tensor[(1, 64, 40, 40), float32] */;
  %165 = sigmoid(%164) /* /model.6/m.0/cv2/act/Sigmoid_output_0 */ /* ty=Tensor[(1, 64, 40, 40), float32] */;
  %166 = add(%148, %160) /* /model.6/m.0/m/m.1/Add_output_0 */ /* ty=Tensor[(1, 64, 40, 40), float32] */;
  %167 = multiply(%164, %165) /* /model.6/m.0/cv2/act/Mul_output_0 */ /* ty=Tensor[(1, 64, 40, 40), float32] */;
  %168 = (%166, %167);
  %169 = concatenate(%168, axis=1) /* /model.6/m.0/Concat_output_0 */ /* ty=Tensor[(1, 128, 40, 40), float32] */;
  %170 = dl.quantize(%169, output_scales=[0.019312f], output_zero_points=[43]) /* fake_quant_57 */ /* ty=Tensor[(1, 128, 40, 40), uint8] */;
  %171 = fn (%FunctionVar_68_0: Tensor[(1, 128, 40, 40), uint8], %FunctionVar_68_1: Tensor[(128, 128, 1, 1), uint8], %FunctionVar_68_2: Tensor[(128), int32], PartitionedFromPattern="Tuple_dl.quantized_conv2d_", Composite="ds1:0|te1:1|aso1:0|aso2:0|quantize:0", TuAttrs=relay.attrs.TuAttrs(0x55ab02b808)) -> Tensor[(1, 128, 40, 40), uint8] {
    %123 = (%FunctionVar_68_0, %FunctionVar_68_1, %FunctionVar_68_2, meta[relay.Constant][167] /* ty=Tensor[(128), float32] */, meta[relay.Constant][168] /* ty=Tensor[(128), int32] */, meta[relay.Constant][169] /* ty=Tensor[(128), int32] */, meta[relay.Constant][170] /* ty=Tensor[(128), int32] */, meta[relay.Constant][171] /* ty=Tensor[(128), int32] */);
    dl.quantized_conv2d(%123, kernel_size=[1, 1], bias_layout="", out_layout="NCHW", out_dtype="uint8", pad_width=[[0, 0], [0, 0], [0, 0], [0, 0]], lhs_scales=[0.019312f], lhs_zero_points=[43], rhs_scales=[… rhs_zero_points=[132, 91, 132, 137, 117, 144, 161, 159, 134, 144, 174, 109, 119, 138, 135, 135, 124, 172, 107, 115, 126, 176, 109, 116, 130, 125, 85, 113, 173, 124, 117, 148, 125, 150, 110, 138, 165, 115, 149, 134, 159, 92, 126, 131, 130, 155, 127, 157, 153, 157, 150, 127, 148, 127, 157, 136, 164, 128, 157, 107, 109, 107, 203, 133, 123, 111, 170, 113, 161, 119, 100, 152, 115, 115, 130, 141, 175, 154, 140, 123, 125, 108, 185, 173, 148, 152, 165, 108, 145, 139, 150, 116, 125, 110, 143, 118, 141, 127, 146, 118, 92, 143, 136, 119, 129, 152, 134, 114, 126, 102, 132, 136, 166, 123, 109, 124, 117, 135, 117, 132, 100, 170, 141, 123, 113, 135, 137, 125], scales=[0.0257221f], zero_points=[142]) /* ty=Tensor[(1, 128, 40, 40), uint8] */
  };
  %172 = %171(%170, meta[relay.Constant][214] /* ty=Tensor[(128, 128, 1, 1), uint8] */, meta[relay.Constant][215] /* ty=Tensor[(128), int32] */, kernel_size=[1, 1], lhs_scales=[0.019312f], lhs_zero_points=[43], rhs_scales=[… rhs_zero_points=[132, 91, 132, 137, 117, 144, 161, 159, 134, 144, 174, 109, 119, 138, 135, 135, 124, 172, 107, 115, 126, 176, 109, 116, 130, 125, 85, 113, 173, 124, 117, 148, 125, 150, 110, 138, 165, 115, 149, 134, 159, 92, 126, 131, 130, 155, 127, 157, 153, 157, 150, 127, 148, 127, 157, 136, 164, 128, 157, 107, 109, 107, 203, 133, 123, 111, 170, 113, 161, 119, 100, 152, 115, 115, 130, 141, 175, 154, 140, 123, 125, 108, 185, 173, 148, 152, 165, 108, 145, 139, 150, 116, 125, 110, 143, 118, 141, 127, 146, 118, 92, 143, 136, 119, 129, 152, 134, 114, 126, 102, 132, 136, 166, 123, 109, 124, 117, 135, 117, 132, 100, 170, 141, 123, 113, 135, 137, 125], scales=[0.0257221f], zero_points=[142], stage0=0, stage1=0, attrs_type_key="relay.attrs.TuAttrs") /* ty=Tensor[(1, 128, 40, 40), uint8] */;
  %173 = dl.dequantize(%172, input_scales=[0.0257221f], input_zero_points=[142]) /* ty=Tensor[(1, 128, 40, 40), float32] */;
  %174 = sigmoid(%173) /* /model.6/m.0/cv3/act/Sigmoid_output_0 */ /* ty=Tensor[(1, 128, 40, 40), float32] */;
  %175 = %122.0;
  %176 = multiply(%173, %174) /* /model.6/m.0/cv3/act/Mul_output_0 */ /* ty=Tensor[(1, 128, 40, 40), float32] */;
  %177 = (%175, %125, %176);
  %178 = concatenate(%177, axis=1) /* /model.6/Concat_output_0 */ /* ty=Tensor[(1, 384, 40, 40), float32] */;
  %179 = dl.quantize(%178, output_scales=[0.0152381f], output_zero_points=[18]) /* fake_quant_60 */ /* ty=Tensor[(1, 384, 40, 40), uint8] */;
  %180 = fn (%FunctionVar_67_0: Tensor[(1, 384, 40, 40), uint8], %FunctionVar_67_1: Tensor[(256, 384, 1, 1), uint8], %FunctionVar_67_2: Tensor[(256), int32], PartitionedFromPattern="Tuple_dl.quantized_conv2d_", Composite="ds1:0|te1:1|aso1:0|aso2:0|quantize:0", TuAttrs=relay.attrs.TuAttrs(0x55aafad7f8)) -> Tensor[(1, 256, 40, 40), uint8] {
    %15 = (%FunctionVar_67_0, %FunctionVar_67_1, %FunctionVar_67_2, meta[relay.Constant][71] /* ty=Tensor[(256), float32] */, meta[relay.Constant][72] /* ty=Tensor[(256), int32] */, meta[relay.Constant][73] /* ty=Tensor[(256), int32] */, meta[relay.Constant][74] /* ty=Tensor[(256), int32] */, meta[relay.Constant][75] /* ty=Tensor[(256), int32] */);
    dl.quantized_conv2d(%15, kernel_size=[1, 1], bias_layout="", out_layout="NCHW", out_dtype="uint8", pad_width=[[0, 0], [0, 0], [0, 0], [0, 0]], lhs_scales=[0.0152381f], lhs_zero_points=[18], rhs_scales=[… rhs_zero_points=[100, 103, 133, 111, 122, 130, 97, 117, 106, 174, 111, 125, 129, 137, 160, 128, 104, 140, 133, 119, 182, 132, 116, 163, 147, 100, 121, 128, 93, 114, 95, 138, 139, 99, 137, 95, 148, 133, 128, 126, 159, 134, 118, 131, 99, 142, 108, 96, 149, 85, 132, 87, 101, 102, 130, 143, 132, 152, 107, 158, 131, 127, 115, 119, 122, 122, 116, 162, 108, 142, 118, 142, 137, 133, 135, 134, 145, 135, 170, 145, 154, 117, 136, 123, 117, 177, 171, 137, 144, 134, 144, 124, 119, 136, 119, 118, 147, 141, 136, 149, 123, 121, 117, 114, 100, 109, 113, 149, 129, 138, 126, 155, 104, 165, 115, 117, 114, 170, 121, 146, 132, 154, 115, 171, 129, 99, 92, 171, 132, 111, 178, 159, 140, 133, 113, 188, 137, 101, 103, 134, 104, 132, 122, 153, 95, 134, 128, 97, 105, 137, 121, 117, 117, 101, 120, 130, 105, 141, 162, 118, 116, 122, 115, 125, 99, 128, 141, 111, 125, 102, 124, 124, 125, 154, 82, 137, 130, 135, 110, 108, 149, 119, 74, 118, 128, 72, 122, 131, 124, 109, 146, 147, 140, 129, 141, 100, 124, 120, 100, 140, 138, 163, 136, 119, 151, 125, 110, 86, 115, 141, 124, 123, 120, 100, 129, 129, 136, 120, 145, 124, 69, 157, 143, 141, 152, 135, 133, 164, 132, 116, 93, 158, 135, 137, 126, 133, 152, 127, 127, 114, 127, 105, 137, 102, 109, 127, 131, 93, 138, 117, 139, 139, 99, 112, 102, 123], scales=[0.0325333f], zero_points=[149]) /* ty=Tensor[(1, 256, 40, 40), uint8] */
  };
  %181 = %180(%179, meta[relay.Constant][216] /* ty=Tensor[(256, 384, 1, 1), uint8] */, meta[relay.Constant][217] /* ty=Tensor[(256), int32] */, kernel_size=[1, 1], lhs_scales=[0.0152381f], lhs_zero_points=[18], rhs_scales=[… rhs_zero_points=[100, 103, 133, 111, 122, 130, 97, 117, 106, 174, 111, 125, 129, 137, 160, 128, 104, 140, 133, 119, 182, 132, 116, 163, 147, 100, 121, 128, 93, 114, 95, 138, 139, 99, 137, 95, 148, 133, 128, 126, 159, 134, 118, 131, 99, 142, 108, 96, 149, 85, 132, 87, 101, 102, 130, 143, 132, 152, 107, 158, 131, 127, 115, 119, 122, 122, 116, 162, 108, 142, 118, 142, 137, 133, 135, 134, 145, 135, 170, 145, 154, 117, 136, 123, 117, 177, 171, 137, 144, 134, 144, 124, 119, 136, 119, 118, 147, 141, 136, 149, 123, 121, 117, 114, 100, 109, 113, 149, 129, 138, 126, 155, 104, 165, 115, 117, 114, 170, 121, 146, 132, 154, 115, 171, 129, 99, 92, 171, 132, 111, 178, 159, 140, 133, 113, 188, 137, 101, 103, 134, 104, 132, 122, 153, 95, 134, 128, 97, 105, 137, 121, 117, 117, 101, 120, 130, 105, 141, 162, 118, 116, 122, 115, 125, 99, 128, 141, 111, 125, 102, 124, 124, 125, 154, 82, 137, 130, 135, 110, 108, 149, 119, 74, 118, 128, 72, 122, 131, 124, 109, 146, 147, 140, 129, 141, 100, 124, 120, 100, 140, 138, 163, 136, 119, 151, 125, 110, 86, 115, 141, 124, 123, 120, 100, 129, 129, 136, 120, 145, 124, 69, 157, 143, 141, 152, 135, 133, 164, 132, 116, 93, 158, 135, 137, 126, 133, 152, 127, 127, 114, 127, 105, 137, 102, 109, 127, 131, 93, 138, 117, 139, 139, 99, 112, 102, 123], scales=[0.0325333f], zero_points=[149], stage0=0, stage1=0, attrs_type_key="relay.attrs.TuAttrs") /* ty=Tensor[(1, 256, 40, 40), uint8] */;
  %182 = dl.dequantize(%181, input_scales=[0.0325333f], input_zero_points=[149]) /* ty=Tensor[(1, 256, 40, 40), float32] */;
  %183 = sigmoid(%182) /* /model.6/cv2/act/Sigmoid_output_0 */ /* ty=Tensor[(1, 256, 40, 40), float32] */;
  %184 = multiply(%182, %183) /* /model.6/cv2/act/Mul_output_0 */ /* ty=Tensor[(1, 256, 40, 40), float32] */;
  %185 = dl.quantize(%184, output_scales=[0.0142482f], output_zero_points=[20]) /* fake_quant_63 */ /* ty=Tensor[(1, 256, 40, 40), uint8] */;
  %186 = fn (%FunctionVar_66_0: Tensor[(1, 256, 40, 40), uint8], %FunctionVar_66_1: Tensor[(512, 256, 3, 3), uint8], %FunctionVar_66_2: Tensor[(512), int32], PartitionedFromPattern="Tuple_dl.quantized_conv2d_", Composite="ds1:0|te1:1|aso1:0|aso2:0|quantize:0", TuAttrs=relay.attrs.TuAttrs(0x55a95bba08)) -> Tensor[(1, 512, 20, 20), uint8] {
    %14 = (%FunctionVar_66_0, %FunctionVar_66_1, %FunctionVar_66_2, meta[relay.Constant][66] /* ty=Tensor[(512), float32] */, meta[relay.Constant][67] /* ty=Tensor[(512), int32] */, meta[relay.Constant][68] /* ty=Tensor[(512), int32] */, meta[relay.Constant][69] /* ty=Tensor[(512), int32] */, meta[relay.Constant][70] /* ty=Tensor[(512), int32] */);
    dl.quantized_conv2d(%14, strides=[2, 2], kernel_size=[3, 3], bias_layout="", out_layout="NCHW", out_dtype="uint8", pad_width=[[0, 0], [0, 0], [1, 1], [1, 1]], lhs_scales=[0.0142482f], lhs_zero_points=[20], rhs_scales=[… rhs_zero_points=[122, 123, 131, 131, 125, 95, 145, 104, 126, 111, 106, 124, 141, 97, 107, 118, 108, 100, 83, 126, 168, 120, 101, 106, 110, 90, 73, 113, 99, 129, 87, 127, 108, 111, 127, 134, 144, 74, 95, 125, 94, 117, 131, 121, 116, 115, 157, 113, 119, 110, 104, 68, 76, 124, 131, 109, 99, 118, 99, 118, 111, 125, 115, 135, 126, 110, 116, 125, 138, 133, 192, 108, 134, 131, 102, 122, 104, 96, 134, 137, 124, 121, 152, 120, 91, 123, 109, 119, 122, 96, 90, 120, 102, 137, 118, 101, 99, 121, 101, 94, 114, 126, 134, 136, 128, 124, 125, 114, 125, 156, 108, 129, 84, 151, 100, 86, 103, 117, 104, 98, 133, 155, 122, 117, 99, 94, 134, 77, 91, 107, 96, 136, 130, 91, 118, 108, 101, 93, 115, 108, 137, 128, 86, 125, 70, 121, 113, 124, 113, 98, 95, 123, 109, 116, 177, 136, 123, 136, 128, 154, 105, 105, 113, 116, 76, 96, 101, 121, 85, 115, 125, 114, 118, 148, 120, 102, 104, 104, 88, 85, 100, 114, 99, 101, 112, 90, 126, 98, 123, 122, 112, 132, 99, 113, 100, 170, 128, 129, 120, 134, 112, 119, 117, 100, 127, 121, 100, 156, 138, 127, 142, 162, 114, 119, 121, 140, 126, 99, 117, 134, 119, 99, 98, 123, 125, 99, 120, 104, 128, 105, 116, 132, 138, 137, 120, 112, 122, 93, 108, 119, 74, 111, 96, 143, 147, 159, 118, 88, 88, 117, 122, 130, 119, 112, 105, 134, 105, 113, 105, 90, 124, 131, 119, 110, 96, 122, 138, 99, 121, 104, 74, 105, 117, 128, 84, 88, 128, 125, 123, 77, 127, 153, 133, 119, 109, 139, 82, 97, 91, 109, 109, 138, 123, 114, 130, 88, 71, 131, 105, 141, 146, 126, 139, 112, 117, 87, 109, 106, 110, 104, 98, 146, 108, 145, 106, 90, 137, 139, 113, 132, 107, 108, 103, 120, 85, 148, 139, 93, 109, 135, 134, 112, 101, 123, 128, 114, 90, 141, 129, 102, 123, 101, 124, 90, 98, 134, 93, 119, 111, 117, 130, 142, 77, 158, 121, 101, 111, 120, 123, 174, 145, 197, 119, 55, 144, 105, 122, 86, 121, 124, 111, 104, 92, 75, 136, 92, 182, 133, 113, 113, 86, 70, 130, 124, 148, 81, 113, 126, 133, 77, 124, 125, 114, 102, 138, 105, 118, 97, 148, 126, 130, 129, 132, 114, 127, 131, 126, 136, 109, 120, 123, 107, 109, 50, 111, 121, 128, 120, 96, 89, 95, 118, 120, 137, 101, 125, 103, 132, 102, 135, 149, 124, 131, 161, 140, 106, 114, 121, 126, 104, 93, 135, 117, 121, 137, 124, 94, 80, 96, 136, 123, 134, 94, 115, 124, 68, 136, 116, 124, 79, 102, 108, 92, 157, 146, 125, 133, 157, 121, 82, 130, 85, 112, 98, 106, 105, 100, 132, 117, 144, 113, 77, 102, 126, 88, 159, 99, 109, 106, 132, 87, 111, 87, 112, 127, 138, 109, 74, 112, 82, 147, 117, 139, 106, 111, 113, 142, 106, 105, 128, 113, 152], scales=[0.0307825f], zero_points=[133]) /* ty=Tensor[(1, 512, 20, 20), uint8] */
  };
  %187 = %186(%185, meta[relay.Constant][218] /* ty=Tensor[(512, 256, 3, 3), uint8] */, meta[relay.Constant][219] /* ty=Tensor[(512), int32] */, strides=[2, 2], kernel_size=[3, 3], pad_value=20f, pad_width=[[0, 0], [0, 0], [1, 1], [1, 1]], lhs_scales=[0.0142482f], lhs_zero_points=[20], rhs_scales=[… rhs_zero_points=[122, 123, 131, 131, 125, 95, 145, 104, 126, 111, 106, 124, 141, 97, 107, 118, 108, 100, 83, 126, 168, 120, 101, 106, 110, 90, 73, 113, 99, 129, 87, 127, 108, 111, 127, 134, 144, 74, 95, 125, 94, 117, 131, 121, 116, 115, 157, 113, 119, 110, 104, 68, 76, 124, 131, 109, 99, 118, 99, 118, 111, 125, 115, 135, 126, 110, 116, 125, 138, 133, 192, 108, 134, 131, 102, 122, 104, 96, 134, 137, 124, 121, 152, 120, 91, 123, 109, 119, 122, 96, 90, 120, 102, 137, 118, 101, 99, 121, 101, 94, 114, 126, 134, 136, 128, 124, 125, 114, 125, 156, 108, 129, 84, 151, 100, 86, 103, 117, 104, 98, 133, 155, 122, 117, 99, 94, 134, 77, 91, 107, 96, 136, 130, 91, 118, 108, 101, 93, 115, 108, 137, 128, 86, 125, 70, 121, 113, 124, 113, 98, 95, 123, 109, 116, 177, 136, 123, 136, 128, 154, 105, 105, 113, 116, 76, 96, 101, 121, 85, 115, 125, 114, 118, 148, 120, 102, 104, 104, 88, 85, 100, 114, 99, 101, 112, 90, 126, 98, 123, 122, 112, 132, 99, 113, 100, 170, 128, 129, 120, 134, 112, 119, 117, 100, 127, 121, 100, 156, 138, 127, 142, 162, 114, 119, 121, 140, 126, 99, 117, 134, 119, 99, 98, 123, 125, 99, 120, 104, 128, 105, 116, 132, 138, 137, 120, 112, 122, 93, 108, 119, 74, 111, 96, 143, 147, 159, 118, 88, 88, 117, 122, 130, 119, 112, 105, 134, 105, 113, 105, 90, 124, 131, 119, 110, 96, 122, 138, 99, 121, 104, 74, 105, 117, 128, 84, 88, 128, 125, 123, 77, 127, 153, 133, 119, 109, 139, 82, 97, 91, 109, 109, 138, 123, 114, 130, 88, 71, 131, 105, 141, 146, 126, 139, 112, 117, 87, 109, 106, 110, 104, 98, 146, 108, 145, 106, 90, 137, 139, 113, 132, 107, 108, 103, 120, 85, 148, 139, 93, 109, 135, 134, 112, 101, 123, 128, 114, 90, 141, 129, 102, 123, 101, 124, 90, 98, 134, 93, 119, 111, 117, 130, 142, 77, 158, 121, 101, 111, 120, 123, 174, 145, 197, 119, 55, 144, 105, 122, 86, 121, 124, 111, 104, 92, 75, 136, 92, 182, 133, 113, 113, 86, 70, 130, 124, 148, 81, 113, 126, 133, 77, 124, 125, 114, 102, 138, 105, 118, 97, 148, 126, 130, 129, 132, 114, 127, 131, 126, 136, 109, 120, 123, 107, 109, 50, 111, 121, 128, 120, 96, 89, 95, 118, 120, 137, 101, 125, 103, 132, 102, 135, 149, 124, 131, 161, 140, 106, 114, 121, 126, 104, 93, 135, 117, 121, 137, 124, 94, 80, 96, 136, 123, 134, 94, 115, 124, 68, 136, 116, 124, 79, 102, 108, 92, 157, 146, 125, 133, 157, 121, 82, 130, 85, 112, 98, 106, 105, 100, 132, 117, 144, 113, 77, 102, 126, 88, 159, 99, 109, 106, 132, 87, 111, 87, 112, 127, 138, 109, 74, 112, 82, 147, 117, 139, 106, 111, 113, 142, 106, 105, 128, 113, 152], scales=[0.0307825f], zero_points=[133], stage0=0, stage1=0, attrs_type_key="relay.attrs.TuAttrs") /* ty=Tensor[(1, 512, 20, 20), uint8] */;
  %188 = dl.dequantize(%187, input_scales=[0.0307825f], input_zero_points=[133]) /* ty=Tensor[(1, 512, 20, 20), float32] */;
  %189 = sigmoid(%188) /* /model.7/act/Sigmoid_output_0 */ /* ty=Tensor[(1, 512, 20, 20), float32] */;
  %190 = multiply(%188, %189) /* /model.7/act/Mul_output_0 */ /* ty=Tensor[(1, 512, 20, 20), float32] */;
  %191 = dl.quantize(%190, output_scales=[0.0154209f], output_zero_points=[18]) /* fake_quant_66 */ /* ty=Tensor[(1, 512, 20, 20), uint8] */;
  %192 = fn (%FunctionVar_65_0: Tensor[(1, 512, 20, 20), uint8], %FunctionVar_65_1: Tensor[(512, 512, 1, 1), uint8], %FunctionVar_65_2: Tensor[(512), int32], PartitionedFromPattern="Tuple_dl.quantized_conv2d_", Composite="ds1:0|te1:1|aso1:0|aso2:0|quantize:0", TuAttrs=relay.attrs.TuAttrs(0x55a7b17d98)) -> Tensor[(1, 512, 20, 20), uint8] {
    %13 = (%FunctionVar_65_0, %FunctionVar_65_1, %FunctionVar_65_2, meta[relay.Constant][61] /* ty=Tensor[(512), float32] */, meta[relay.Constant][62] /* ty=Tensor[(512), int32] */, meta[relay.Constant][63] /* ty=Tensor[(512), int32] */, meta[relay.Constant][64] /* ty=Tensor[(512), int32] */, meta[relay.Constant][65] /* ty=Tensor[(512), int32] */);
    dl.quantized_conv2d(%13, kernel_size=[1, 1], bias_layout="", out_layout="NCHW", out_dtype="uint8", pad_width=[[0, 0], [0, 0], [0, 0], [0, 0]], lhs_scales=[0.0154209f], lhs_zero_points=[18], rhs_scales=[… rhs_zero_points=[104, 108, 96, 122, 130, 118, 139, 136, 169, 98, 106, 126, 111, 158, 102, 133, 123, 123, 121, 151, 132, 113, 122, 139, 122, 118, 166, 122, 111, 110, 153, 113, 126, 143, 131, 98, 140, 100, 140, 150, 108, 130, 113, 126, 108, 137, 106, 131, 130, 154, 115, 102, 144, 152, 110, 106, 134, 155, 115, 126, 123, 121, 133, 108, 122, 114, 121, 91, 147, 157, 121, 108, 125, 152, 100, 115, 123, 132, 159, 131, 117, 111, 157, 121, 148, 120, 112, 94, 127, 113, 115, 116, 83, 124, 127, 147, 125, 97, 96, 138, 132, 132, 138, 108, 156, 96, 112, 101, 107, 126, 121, 113, 124, 154, 146, 129, 127, 142, 121, 121, 120, 98, 117, 100, 143, 89, 100, 167, 107, 133, 108, 129, 138, 153, 140, 119, 140, 95, 97, 112, 130, 107, 151, 114, 108, 136, 128, 132, 119, 114, 128, 111, 139, 99, 115, 149, 121, 131, 117, 135, 119, 177, 118, 126, 104, 124, 155, 122, 104, 116, 125, 126, 119, 120, 108, 118, 129, 119, 131, 164, 124, 111, 127, 122, 134, 147, 143, 117, 148, 126, 126, 86, 122, 133, 126, 134, 123, 100, 140, 127, 113, 127, 150, 132, 106, 115, 107, 119, 128, 128, 110, 122, 130, 96, 138, 128, 115, 124, 148, 101, 139, 122, 111, 120, 151, 142, 125, 141, 124, 153, 133, 131, 107, 111, 117, 119, 140, 138, 134, 138, 140, 163, 105, 92, 88, 133, 117, 156, 124, 169, 114, 123, 104, 106, 102, 123, 114, 103, 122, 116, 131, 88, 99, 101, 109, 96, 103, 92, 102, 130, 111, 100, 107, 113, 115, 124, 146, 123, 120, 103, 130, 127, 106, 121, 127, 91, 131, 153, 120, 105, 126, 125, 75, 146, 76, 51, 118, 139, 141, 102, 109, 120, 103, 101, 130, 113, 135, 82, 126, 110, 103, 150, 95, 72, 119, 105, 171, 88, 114, 114, 111, 105, 125, 113, 99, 124, 102, 126, 115, 105, 138, 100, 96, 137, 113, 68, 110, 136, 106, 111, 151, 52, 83, 90, 127, 79, 140, 77, 127, 131, 83, 120, 104, 106, 106, 116, 119, 111, 97, 125, 113, 95, 119, 106, 160, 124, 120, 130, 111, 117, 128, 107, 102, 119, 153, 138, 124, 130, 172, 143, 138, 116, 101, 102, 134, 114, 129, 113, 92, 118, 116, 109, 101, 132, 108, 133, 92, 109, 118, 100, 83, 108, 129, 90, 121, 106, 134, 93, 114, 124, 84, 122, 168, 134, 96, 91, 104, 96, 158, 134, 123, 107, 116, 99, 171, 103, 105, 126, 103, 103, 110, 125, 104, 120, 111, 130, 86, 121, 59, 114, 97, 79, 125, 115, 92, 122, 106, 213, 119, 99, 105, 96, 112, 99, 106, 120, 103, 132, 97, 112, 105, 59, 93, 103, 110, 110, 129, 109, 162, 107, 122, 99, 100, 148, 95, 109, 84, 112, 104, 115, 134, 139, 103, 118, 114, 129, 98, 131, 89, 114, 105, 84, 105, 111, 110, 95, 124, 103, 100, 114, 118, 149, 118, 101, 79, 106, 96, 135, 108, 120, 88, 182], scales=[0.0403526f], zero_points=[135]) /* ty=Tensor[(1, 512, 20, 20), uint8] */
  };
  %193 = %192(%191, meta[relay.Constant][220] /* ty=Tensor[(512, 512, 1, 1), uint8] */, meta[relay.Constant][221] /* ty=Tensor[(512), int32] */, kernel_size=[1, 1], lhs_scales=[0.0154209f], lhs_zero_points=[18], rhs_scales=[… rhs_zero_points=[104, 108, 96, 122, 130, 118, 139, 136, 169, 98, 106, 126, 111, 158, 102, 133, 123, 123, 121, 151, 132, 113, 122, 139, 122, 118, 166, 122, 111, 110, 153, 113, 126, 143, 131, 98, 140, 100, 140, 150, 108, 130, 113, 126, 108, 137, 106, 131, 130, 154, 115, 102, 144, 152, 110, 106, 134, 155, 115, 126, 123, 121, 133, 108, 122, 114, 121, 91, 147, 157, 121, 108, 125, 152, 100, 115, 123, 132, 159, 131, 117, 111, 157, 121, 148, 120, 112, 94, 127, 113, 115, 116, 83, 124, 127, 147, 125, 97, 96, 138, 132, 132, 138, 108, 156, 96, 112, 101, 107, 126, 121, 113, 124, 154, 146, 129, 127, 142, 121, 121, 120, 98, 117, 100, 143, 89, 100, 167, 107, 133, 108, 129, 138, 153, 140, 119, 140, 95, 97, 112, 130, 107, 151, 114, 108, 136, 128, 132, 119, 114, 128, 111, 139, 99, 115, 149, 121, 131, 117, 135, 119, 177, 118, 126, 104, 124, 155, 122, 104, 116, 125, 126, 119, 120, 108, 118, 129, 119, 131, 164, 124, 111, 127, 122, 134, 147, 143, 117, 148, 126, 126, 86, 122, 133, 126, 134, 123, 100, 140, 127, 113, 127, 150, 132, 106, 115, 107, 119, 128, 128, 110, 122, 130, 96, 138, 128, 115, 124, 148, 101, 139, 122, 111, 120, 151, 142, 125, 141, 124, 153, 133, 131, 107, 111, 117, 119, 140, 138, 134, 138, 140, 163, 105, 92, 88, 133, 117, 156, 124, 169, 114, 123, 104, 106, 102, 123, 114, 103, 122, 116, 131, 88, 99, 101, 109, 96, 103, 92, 102, 130, 111, 100, 107, 113, 115, 124, 146, 123, 120, 103, 130, 127, 106, 121, 127, 91, 131, 153, 120, 105, 126, 125, 75, 146, 76, 51, 118, 139, 141, 102, 109, 120, 103, 101, 130, 113, 135, 82, 126, 110, 103, 150, 95, 72, 119, 105, 171, 88, 114, 114, 111, 105, 125, 113, 99, 124, 102, 126, 115, 105, 138, 100, 96, 137, 113, 68, 110, 136, 106, 111, 151, 52, 83, 90, 127, 79, 140, 77, 127, 131, 83, 120, 104, 106, 106, 116, 119, 111, 97, 125, 113, 95, 119, 106, 160, 124, 120, 130, 111, 117, 128, 107, 102, 119, 153, 138, 124, 130, 172, 143, 138, 116, 101, 102, 134, 114, 129, 113, 92, 118, 116, 109, 101, 132, 108, 133, 92, 109, 118, 100, 83, 108, 129, 90, 121, 106, 134, 93, 114, 124, 84, 122, 168, 134, 96, 91, 104, 96, 158, 134, 123, 107, 116, 99, 171, 103, 105, 126, 103, 103, 110, 125, 104, 120, 111, 130, 86, 121, 59, 114, 97, 79, 125, 115, 92, 122, 106, 213, 119, 99, 105, 96, 112, 99, 106, 120, 103, 132, 97, 112, 105, 59, 93, 103, 110, 110, 129, 109, 162, 107, 122, 99, 100, 148, 95, 109, 84, 112, 104, 115, 134, 139, 103, 118, 114, 129, 98, 131, 89, 114, 105, 84, 105, 111, 110, 95, 124, 103, 100, 114, 118, 149, 118, 101, 79, 106, 96, 135, 108, 120, 88, 182], scales=[0.0403526f], zero_points=[135], stage0=0, stage1=0, attrs_type_key="relay.attrs.TuAttrs") /* ty=Tensor[(1, 512, 20, 20), uint8] */;
  %194 = dl.dequantize(%193, input_scales=[0.0403526f], input_zero_points=[135]) /* ty=Tensor[(1, 512, 20, 20), float32] */;
  %195 = sigmoid(%194) /* /model.8/cv1/act/Sigmoid_output_0 */ /* ty=Tensor[(1, 512, 20, 20), float32] */;
  %196 = multiply(%194, %195) /* /model.8/cv1/act/Mul_output_0 */ /* ty=Tensor[(1, 512, 20, 20), float32] */;
  %197 = fn (%FunctionVar_7_0: Tensor[(1, 512, 20, 20), float32], PartitionedFromPattern="split_", Composite="ds1:0|te1:0|aso1:0|aso2:0|quantize:0", TuAttrs=relay.attrs.TuAttrs(0x55a95595d8)) -> (Tensor[(1, 256, 20, 20), float32], Tensor[(1, 256, 20, 20), float32]) {
    split(%FunctionVar_7_0, indices_or_sections=[256], axis=1) /* /model.8/Split_output_0 */ /* ty=(Tensor[(1, 256, 20, 20), float32], Tensor[(1, 256, 20, 20), float32]) */
  };
  %198 = %197(%196, indices_or_sections=[256], axis=1, stage5=0, attrs_type_key="relay.attrs.TuAttrs") /* ty=(Tensor[(1, 256, 20, 20), float32], Tensor[(1, 256, 20, 20), float32]) */;
  %201 = %198.1;
  %202 = dl.quantize(%201, output_scales=[0.0139003f], output_zero_points=[20]) /* fake_quant_69 */ /* ty=Tensor[(1, 256, 20, 20), uint8] */;
  %203 = fn (%FunctionVar_64_0: Tensor[(1, 256, 20, 20), uint8], %FunctionVar_64_1: Tensor[(128, 256, 1, 1), uint8], %FunctionVar_64_2: Tensor[(128), int32], PartitionedFromPattern="Tuple_dl.quantized_conv2d_", Composite="ds1:0|te1:1|aso1:0|aso2:0|quantize:0", TuAttrs=relay.attrs.TuAttrs(0x55a9544ff8)) -> Tensor[(1, 128, 20, 20), uint8] {
    %200 = (%FunctionVar_64_0, %FunctionVar_64_1, %FunctionVar_64_2, meta[relay.Constant][227] /* ty=Tensor[(128), float32] */, meta[relay.Constant][228] /* ty=Tensor[(128), int32] */, meta[relay.Constant][229] /* ty=Tensor[(128), int32] */, meta[relay.Constant][230] /* ty=Tensor[(128), int32] */, meta[relay.Constant][231] /* ty=Tensor[(128), int32] */);
    dl.quantized_conv2d(%200, kernel_size=[1, 1], bias_layout="", out_layout="NCHW", out_dtype="uint8", pad_width=[[0, 0], [0, 0], [0, 0], [0, 0]], lhs_scales=[0.0139003f], lhs_zero_points=[20], rhs_scales=[… rhs_zero_points=[105, 114, 78, 116, 128, 113, 116, 109, 130, 131, 136, 126, 121, 128, 136, 117, 144, 132, 100, 157, 127, 96, 141, 98, 98, 136, 115, 195, 92, 82, 129, 97, 115, 97, 124, 128, 155, 80, 133, 132, 113, 85, 105, 130, 150, 115, 110, 160, 147, 98, 112, 105, 89, 152, 128, 104, 138, 154, 125, 156, 100, 197, 92, 122, 114, 129, 144, 128, 84, 122, 115, 139, 89, 125, 165, 123, 102, 104, 83, 128, 52, 160, 133, 138, 132, 126, 106, 170, 117, 99, 112, 121, 89, 104, 89, 137, 114, 111, 105, 103, 122, 132, 89, 151, 126, 120, 128, 112, 92, 113, 113, 113, 128, 81, 122, 151, 136, 121, 110, 103, 135, 117, 115, 102, 105, 119, 97, 89], scales=[0.0222871f], zero_points=[118]) /* ty=Tensor[(1, 128, 20, 20), uint8] */
  };
  %204 = %203(%202, meta[relay.Constant][232] /* ty=Tensor[(128, 256, 1, 1), uint8] */, meta[relay.Constant][233] /* ty=Tensor[(128), int32] */, kernel_size=[1, 1], lhs_scales=[0.0139003f], lhs_zero_points=[20], rhs_scales=[… rhs_zero_points=[105, 114, 78, 116, 128, 113, 116, 109, 130, 131, 136, 126, 121, 128, 136, 117, 144, 132, 100, 157, 127, 96, 141, 98, 98, 136, 115, 195, 92, 82, 129, 97, 115, 97, 124, 128, 155, 80, 133, 132, 113, 85, 105, 130, 150, 115, 110, 160, 147, 98, 112, 105, 89, 152, 128, 104, 138, 154, 125, 156, 100, 197, 92, 122, 114, 129, 144, 128, 84, 122, 115, 139, 89, 125, 165, 123, 102, 104, 83, 128, 52, 160, 133, 138, 132, 126, 106, 170, 117, 99, 112, 121, 89, 104, 89, 137, 114, 111, 105, 103, 122, 132, 89, 151, 126, 120, 128, 112, 92, 113, 113, 113, 128, 81, 122, 151, 136, 121, 110, 103, 135, 117, 115, 102, 105, 119, 97, 89], scales=[0.0222871f], zero_points=[118], stage0=0, stage1=0, attrs_type_key="relay.attrs.TuAttrs") /* ty=Tensor[(1, 128, 20, 20), uint8] */;
  %205 = dl.dequantize(%204, input_scales=[0.0222871f], input_zero_points=[118]) /* ty=Tensor[(1, 128, 20, 20), float32] */;
  %206 = sigmoid(%205) /* /model.8/m.0/cv1/act/Sigmoid_output_0 */ /* ty=Tensor[(1, 128, 20, 20), float32] */;
  %209 = multiply(%205, %206) /* /model.8/m.0/cv1/act/Mul_output_0 */ /* ty=Tensor[(1, 128, 20, 20), float32] */;
  %210 = dl.quantize(%209, output_scales=[0.0125023f], output_zero_points=[22]) /* fake_quant_72 */ /* ty=Tensor[(1, 128, 20, 20), uint8] */;
  %211 = fn (%FunctionVar_63_0: Tensor[(1, 128, 20, 20), uint8], %FunctionVar_63_1: Tensor[(128, 128, 3, 3), uint8], %FunctionVar_63_2: Tensor[(128), int32], PartitionedFromPattern="Tuple_dl.quantized_conv2d_", Composite="ds1:0|te1:1|aso1:0|aso2:0|quantize:0", TuAttrs=relay.attrs.TuAttrs(0x55aaed3a88)) -> Tensor[(1, 128, 20, 20), uint8] {
    %208 = (%FunctionVar_63_0, %FunctionVar_63_1, %FunctionVar_63_2, meta[relay.Constant][239] /* ty=Tensor[(128), float32] */, meta[relay.Constant][240] /* ty=Tensor[(128), int32] */, meta[relay.Constant][241] /* ty=Tensor[(128), int32] */, meta[relay.Constant][242] /* ty=Tensor[(128), int32] */, meta[relay.Constant][243] /* ty=Tensor[(128), int32] */);
    dl.quantized_conv2d(%208, kernel_size=[3, 3], bias_layout="", out_layout="NCHW", out_dtype="uint8", pad_width=[[0, 0], [0, 0], [1, 1], [1, 1]], lhs_scales=[0.0125023f], lhs_zero_points=[22], rhs_scales=[… rhs_zero_points=[120, 119, 109, 117, 145, 102, 149, 129, 129, 130, 145, 132, 112, 85, 103, 132, 146, 103, 183, 132, 128, 135, 164, 148, 100, 127, 136, 97, 129, 96, 89, 125, 121, 128, 136, 113, 98, 153, 105, 152, 106, 120, 133, 66, 124, 142, 101, 132, 127, 123, 75, 119, 123, 144, 93, 130, 95, 112, 90, 96, 142, 134, 123, 134, 128, 122, 117, 128, 125, 120, 129, 131, 141, 101, 116, 136, 109, 126, 96, 127, 114, 120, 128, 120, 134, 141, 126, 102, 117, 120, 123, 109, 130, 143, 166, 132, 112, 100, 144, 98, 126, 131, 113, 123, 106, 132, 134, 120, 151, 106, 111, 93, 122, 165, 160, 143, 138, 132, 151, 117, 115, 124, 132, 108, 125, 98, 94, 150], scales=[0.0307355f], zero_points=[155]) /* ty=Tensor[(1, 128, 20, 20), uint8] */
  };
  %212 = %211(%210, meta[relay.Constant][244] /* ty=Tensor[(128, 128, 3, 3), uint8] */, meta[relay.Constant][245] /* ty=Tensor[(128), int32] */, kernel_size=[3, 3], pad_value=22f, pad_width=[[0, 0], [0, 0], [1, 1], [1, 1]], lhs_scales=[0.0125023f], lhs_zero_points=[22], rhs_scales=[… rhs_zero_points=[120, 119, 109, 117, 145, 102, 149, 129, 129, 130, 145, 132, 112, 85, 103, 132, 146, 103, 183, 132, 128, 135, 164, 148, 100, 127, 136, 97, 129, 96, 89, 125, 121, 128, 136, 113, 98, 153, 105, 152, 106, 120, 133, 66, 124, 142, 101, 132, 127, 123, 75, 119, 123, 144, 93, 130, 95, 112, 90, 96, 142, 134, 123, 134, 128, 122, 117, 128, 125, 120, 129, 131, 141, 101, 116, 136, 109, 126, 96, 127, 114, 120, 128, 120, 134, 141, 126, 102, 117, 120, 123, 109, 130, 143, 166, 132, 112, 100, 144, 98, 126, 131, 113, 123, 106, 132, 134, 120, 151, 106, 111, 93, 122, 165, 160, 143, 138, 132, 151, 117, 115, 124, 132, 108, 125, 98, 94, 150], scales=[0.0307355f], zero_points=[155], stage0=0, stage1=0, attrs_type_key="relay.attrs.TuAttrs") /* ty=Tensor[(1, 128, 20, 20), uint8] */;
  %213 = dl.dequantize(%212, input_scales=[0.0307355f], input_zero_points=[155]) /* ty=Tensor[(1, 128, 20, 20), float32] */;
  %214 = sigmoid(%213) /* /model.8/m.0/m/m.0/cv1/act/Sigmoid_output_0 */ /* ty=Tensor[(1, 128, 20, 20), float32] */;
  %215 = multiply(%213, %214) /* /model.8/m.0/m/m.0/cv1/act/Mul_output_0 */ /* ty=Tensor[(1, 128, 20, 20), float32] */;
  %216 = dl.quantize(%215, output_scales=[0.0125746f], output_zero_points=[22]) /* fake_quant_75 */ /* ty=Tensor[(1, 128, 20, 20), uint8] */;
  %217 = fn (%FunctionVar_62_0: Tensor[(1, 128, 20, 20), uint8], %FunctionVar_62_1: Tensor[(128, 128, 3, 3), uint8], %FunctionVar_62_2: Tensor[(128), int32], PartitionedFromPattern="Tuple_dl.quantized_conv2d_", Composite="ds1:0|te1:1|aso1:0|aso2:0|quantize:0", TuAttrs=relay.attrs.TuAttrs(0x55a963ac48)) -> Tensor[(1, 128, 20, 20), uint8] {
    %207 = (%FunctionVar_62_0, %FunctionVar_62_1, %FunctionVar_62_2, meta[relay.Constant][234] /* ty=Tensor[(128), float32] */, meta[relay.Constant][235] /* ty=Tensor[(128), int32] */, meta[relay.Constant][236] /* ty=Tensor[(128), int32] */, meta[relay.Constant][237] /* ty=Tensor[(128), int32] */, meta[relay.Constant][238] /* ty=Tensor[(128), int32] */);
    dl.quantized_conv2d(%207, kernel_size=[3, 3], bias_layout="", out_layout="NCHW", out_dtype="uint8", pad_width=[[0, 0], [0, 0], [1, 1], [1, 1]], lhs_scales=[0.0125746f], lhs_zero_points=[22], rhs_scales=[… rhs_zero_points=[159, 146, 124, 105, 142, 116, 112, 136, 114, 103, 104, 119, 89, 178, 103, 95, 110, 101, 122, 118, 110, 128, 134, 101, 128, 109, 149, 116, 125, 146, 132, 88, 103, 100, 119, 107, 105, 107, 111, 104, 122, 95, 120, 88, 133, 120, 144, 74, 118, 103, 128, 114, 100, 85, 116, 131, 117, 133, 133, 83, 100, 118, 95, 109, 127, 94, 109, 115, 171, 114, 118, 111, 130, 119, 128, 111, 111, 127, 116, 81, 129, 119, 61, 107, 126, 91, 93, 107, 96, 131, 125, 94, 114, 94, 99, 88, 123, 122, 112, 108, 108, 130, 150, 104, 107, 124, 131, 151, 133, 122, 132, 120, 98, 131, 116, 87, 122, 128, 132, 98, 105, 127, 83, 108, 109, 110, 112, 106], scales=[0.0245676f], zero_points=[142]) /* ty=Tensor[(1, 128, 20, 20), uint8] */
  };
  %218 = %217(%216, meta[relay.Constant][246] /* ty=Tensor[(128, 128, 3, 3), uint8] */, meta[relay.Constant][247] /* ty=Tensor[(128), int32] */, kernel_size=[3, 3], pad_value=22f, pad_width=[[0, 0], [0, 0], [1, 1], [1, 1]], lhs_scales=[0.0125746f], lhs_zero_points=[22], rhs_scales=[… rhs_zero_points=[159, 146, 124, 105, 142, 116, 112, 136, 114, 103, 104, 119, 89, 178, 103, 95, 110, 101, 122, 118, 110, 128, 134, 101, 128, 109, 149, 116, 125, 146, 132, 88, 103, 100, 119, 107, 105, 107, 111, 104, 122, 95, 120, 88, 133, 120, 144, 74, 118, 103, 128, 114, 100, 85, 116, 131, 117, 133, 133, 83, 100, 118, 95, 109, 127, 94, 109, 115, 171, 114, 118, 111, 130, 119, 128, 111, 111, 127, 116, 81, 129, 119, 61, 107, 126, 91, 93, 107, 96, 131, 125, 94, 114, 94, 99, 88, 123, 122, 112, 108, 108, 130, 150, 104, 107, 124, 131, 151, 133, 122, 132, 120, 98, 131, 116, 87, 122, 128, 132, 98, 105, 127, 83, 108, 109, 110, 112, 106], scales=[0.0245676f], zero_points=[142], stage0=0, stage1=0, attrs_type_key="relay.attrs.TuAttrs") /* ty=Tensor[(1, 128, 20, 20), uint8] */;
  %219 = dl.dequantize(%218, input_scales=[0.0245676f], input_zero_points=[142]) /* ty=Tensor[(1, 128, 20, 20), float32] */;
  %220 = sigmoid(%219) /* /model.8/m.0/m/m.0/cv2/act/Sigmoid_output_0 */ /* ty=Tensor[(1, 128, 20, 20), float32] */;
  %221 = multiply(%219, %220) /* /model.8/m.0/m/m.0/cv2/act/Mul_output_0 */ /* ty=Tensor[(1, 128, 20, 20), float32] */;
  %224 = add(%209, %221) /* /model.8/m.0/m/m.0/Add_output_0 */ /* ty=Tensor[(1, 128, 20, 20), float32] */;
  %225 = dl.quantize(%224, output_scales=[0.0143736f], output_zero_points=[39]) /* fake_quant_78 */ /* ty=Tensor[(1, 128, 20, 20), uint8] */;
  %226 = fn (%FunctionVar_61_0: Tensor[(1, 128, 20, 20), uint8], %FunctionVar_61_1: Tensor[(128, 128, 3, 3), uint8], %FunctionVar_61_2: Tensor[(128), int32], PartitionedFromPattern="Tuple_dl.quantized_conv2d_", Composite="ds1:0|te1:1|aso1:0|aso2:0|quantize:0", TuAttrs=relay.attrs.TuAttrs(0x55a955afa8)) -> Tensor[(1, 128, 20, 20), uint8] {
    %223 = (%FunctionVar_61_0, %FunctionVar_61_1, %FunctionVar_61_2, meta[relay.Constant][253] /* ty=Tensor[(128), float32] */, meta[relay.Constant][254] /* ty=Tensor[(128), int32] */, meta[relay.Constant][255] /* ty=Tensor[(128), int32] */, meta[relay.Constant][256] /* ty=Tensor[(128), int32] */, meta[relay.Constant][257] /* ty=Tensor[(128), int32] */);
    dl.quantized_conv2d(%223, kernel_size=[3, 3], bias_layout="", out_layout="NCHW", out_dtype="uint8", pad_width=[[0, 0], [0, 0], [1, 1], [1, 1]], lhs_scales=[0.0143736f], lhs_zero_points=[39], rhs_scales=[… rhs_zero_points=[153, 117, 118, 127, 133, 95, 96, 76, 98, 142, 114, 135, 154, 100, 78, 119, 135, 134, 104, 106, 154, 128, 127, 132, 119, 133, 63, 90, 125, 133, 122, 125, 123, 149, 115, 125, 110, 140, 115, 106, 130, 114, 147, 138, 144, 134, 177, 132, 114, 173, 134, 116, 125, 121, 95, 105, 130, 125, 117, 179, 106, 130, 112, 120, 89, 124, 105, 90, 101, 107, 203, 136, 75, 126, 169, 160, 98, 124, 103, 128, 68, 90, 121, 94, 124, 115, 129, 121, 106, 125, 92, 112, 131, 134, 184, 121, 138, 130, 103, 105, 83, 101, 108, 123, 136, 101, 84, 132, 124, 119, 156, 149, 134, 121, 125, 117, 125, 125, 119, 111, 107, 107, 103, 133, 124, 123, 114, 121], scales=[0.0260649f], zero_points=[133]) /* ty=Tensor[(1, 128, 20, 20), uint8] */
  };
  %227 = %226(%225, meta[relay.Constant][258] /* ty=Tensor[(128, 128, 3, 3), uint8] */, meta[relay.Constant][259] /* ty=Tensor[(128), int32] */, kernel_size=[3, 3], pad_value=39f, pad_width=[[0, 0], [0, 0], [1, 1], [1, 1]], lhs_scales=[0.0143736f], lhs_zero_points=[39], rhs_scales=[… rhs_zero_points=[153, 117, 118, 127, 133, 95, 96, 76, 98, 142, 114, 135, 154, 100, 78, 119, 135, 134, 104, 106, 154, 128, 127, 132, 119, 133, 63, 90, 125, 133, 122, 125, 123, 149, 115, 125, 110, 140, 115, 106, 130, 114, 147, 138, 144, 134, 177, 132, 114, 173, 134, 116, 125, 121, 95, 105, 130, 125, 117, 179, 106, 130, 112, 120, 89, 124, 105, 90, 101, 107, 203, 136, 75, 126, 169, 160, 98, 124, 103, 128, 68, 90, 121, 94, 124, 115, 129, 121, 106, 125, 92, 112, 131, 134, 184, 121, 138, 130, 103, 105, 83, 101, 108, 123, 136, 101, 84, 132, 124, 119, 156, 149, 134, 121, 125, 117, 125, 125, 119, 111, 107, 107, 103, 133, 124, 123, 114, 121], scales=[0.0260649f], zero_points=[133], stage0=0, stage1=0, attrs_type_key="relay.attrs.TuAttrs") /* ty=Tensor[(1, 128, 20, 20), uint8] */;
  %228 = dl.dequantize(%227, input_scales=[0.0260649f], input_zero_points=[133]) /* ty=Tensor[(1, 128, 20, 20), float32] */;
  %229 = sigmoid(%228) /* /model.8/m.0/m/m.1/cv1/act/Sigmoid_output_0 */ /* ty=Tensor[(1, 128, 20, 20), float32] */;
  %230 = multiply(%228, %229) /* /model.8/m.0/m/m.1/cv1/act/Mul_output_0 */ /* ty=Tensor[(1, 128, 20, 20), float32] */;
  %231 = dl.quantize(%230, output_scales=[0.0131152f], output_zero_points=[21]) /* fake_quant_81 */ /* ty=Tensor[(1, 128, 20, 20), uint8] */;
  %232 = fn (%FunctionVar_60_0: Tensor[(1, 128, 20, 20), uint8], %FunctionVar_60_1: Tensor[(128, 128, 3, 3), uint8], %FunctionVar_60_2: Tensor[(128), int32], PartitionedFromPattern="Tuple_dl.quantized_conv2d_", Composite="ds1:0|te1:1|aso1:0|aso2:0|quantize:0", TuAttrs=relay.attrs.TuAttrs(0x55aae49c18)) -> Tensor[(1, 128, 20, 20), uint8] {
    %222 = (%FunctionVar_60_0, %FunctionVar_60_1, %FunctionVar_60_2, meta[relay.Constant][248] /* ty=Tensor[(128), float32] */, meta[relay.Constant][249] /* ty=Tensor[(128), int32] */, meta[relay.Constant][250] /* ty=Tensor[(128), int32] */, meta[relay.Constant][251] /* ty=Tensor[(128), int32] */, meta[relay.Constant][252] /* ty=Tensor[(128), int32] */);
    dl.quantized_conv2d(%222, kernel_size=[3, 3], bias_layout="", out_layout="NCHW", out_dtype="uint8", pad_width=[[0, 0], [0, 0], [1, 1], [1, 1]], lhs_scales=[0.0131152f], lhs_zero_points=[21], rhs_scales=[… rhs_zero_points=[130, 120, 124, 113, 128, 102, 110, 117, 134, 115, 102, 120, 98, 132, 153, 120, 115, 138, 109, 110, 130, 110, 122, 128, 144, 94, 130, 116, 101, 167, 119, 94, 119, 84, 85, 151, 112, 112, 116, 131, 97, 170, 118, 82, 81, 101, 128, 105, 114, 64, 131, 116, 127, 89, 133, 142, 109, 98, 104, 113, 97, 132, 137, 118, 140, 105, 119, 108, 164, 108, 117, 101, 123, 135, 152, 122, 101, 116, 74, 121, 128, 146, 80, 142, 139, 118, 105, 127, 124, 80, 129, 134, 98, 100, 120, 161, 87, 123, 132, 113, 94, 123, 139, 119, 96, 121, 126, 184, 142, 107, 141, 135, 111, 124, 132, 77, 109, 122, 122, 66, 101, 84, 88, 108, 121, 140, 117, 135], scales=[0.0463728f], zero_points=[106]) /* ty=Tensor[(1, 128, 20, 20), uint8] */
  };
  %233 = %232(%231, meta[relay.Constant][260] /* ty=Tensor[(128, 128, 3, 3), uint8] */, meta[relay.Constant][261] /* ty=Tensor[(128), int32] */, kernel_size=[3, 3], pad_value=21f, pad_width=[[0, 0], [0, 0], [1, 1], [1, 1]], lhs_scales=[0.0131152f], lhs_zero_points=[21], rhs_scales=[… rhs_zero_points=[130, 120, 124, 113, 128, 102, 110, 117, 134, 115, 102, 120, 98, 132, 153, 120, 115, 138, 109, 110, 130, 110, 122, 128, 144, 94, 130, 116, 101, 167, 119, 94, 119, 84, 85, 151, 112, 112, 116, 131, 97, 170, 118, 82, 81, 101, 128, 105, 114, 64, 131, 116, 127, 89, 133, 142, 109, 98, 104, 113, 97, 132, 137, 118, 140, 105, 119, 108, 164, 108, 117, 101, 123, 135, 152, 122, 101, 116, 74, 121, 128, 146, 80, 142, 139, 118, 105, 127, 124, 80, 129, 134, 98, 100, 120, 161, 87, 123, 132, 113, 94, 123, 139, 119, 96, 121, 126, 184, 142, 107, 141, 135, 111, 124, 132, 77, 109, 122, 122, 66, 101, 84, 88, 108, 121, 140, 117, 135], scales=[0.0463728f], zero_points=[106], stage0=0, stage1=0, attrs_type_key="relay.attrs.TuAttrs") /* ty=Tensor[(1, 128, 20, 20), uint8] */;
  %234 = dl.dequantize(%233, input_scales=[0.0463728f], input_zero_points=[106]) /* ty=Tensor[(1, 128, 20, 20), float32] */;
  %235 = sigmoid(%234) /* /model.8/m.0/m/m.1/cv2/act/Sigmoid_output_0 */ /* ty=Tensor[(1, 128, 20, 20), float32] */;
  %236 = multiply(%234, %235) /* /model.8/m.0/m/m.1/cv2/act/Mul_output_0 */ /* ty=Tensor[(1, 128, 20, 20), float32] */;
  %238 = fn (%FunctionVar_59_0: Tensor[(1, 256, 20, 20), uint8], %FunctionVar_59_1: Tensor[(128, 256, 1, 1), uint8], %FunctionVar_59_2: Tensor[(128), int32], PartitionedFromPattern="Tuple_dl.quantized_conv2d_", Composite="ds1:0|te1:1|aso1:0|aso2:0|quantize:0", TuAttrs=relay.attrs.TuAttrs(0x55a97110f8)) -> Tensor[(1, 128, 20, 20), uint8] {
    %237 = (%FunctionVar_59_0, %FunctionVar_59_1, %FunctionVar_59_2, meta[relay.Constant][262] /* ty=Tensor[(128), float32] */, meta[relay.Constant][263] /* ty=Tensor[(128), int32] */, meta[relay.Constant][264] /* ty=Tensor[(128), int32] */, meta[relay.Constant][265] /* ty=Tensor[(128), int32] */, meta[relay.Constant][266] /* ty=Tensor[(128), int32] */);
    dl.quantized_conv2d(%237, kernel_size=[1, 1], bias_layout="", out_layout="NCHW", out_dtype="uint8", pad_width=[[0, 0], [0, 0], [0, 0], [0, 0]], lhs_scales=[0.0139003f], lhs_zero_points=[20], rhs_scales=[… rhs_zero_points=[124, 107, 95, 91, 95, 90, 118, 109, 92, 120, 71, 107, 114, 141, 97, 138, 109, 105, 99, 76, 109, 87, 119, 85, 95, 114, 103, 106, 112, 132, 89, 117, 100, 102, 73, 107, 129, 79, 86, 130, 103, 118, 91, 119, 94, 92, 108, 98, 82, 94, 94, 101, 105, 104, 78, 113, 80, 105, 115, 86, 97, 86, 91, 98, 115, 87, 96, 108, 81, 122, 101, 82, 89, 85, 122, 104, 114, 116, 112, 108, 126, 128, 96, 124, 97, 99, 120, 96, 113, 115, 109, 113, 75, 100, 101, 107, 108, 95, 102, 104, 101, 93, 102, 111, 99, 98, 108, 134, 85, 75, 94, 92, 95, 89, 105, 105, 107, 84, 113, 104, 89, 102, 97, 107, 109, 116, 112, 113], scales=[0.0145112f], zero_points=[142]) /* ty=Tensor[(1, 128, 20, 20), uint8] */
  };
  %239 = %238(%202, meta[relay.Constant][267] /* ty=Tensor[(128, 256, 1, 1), uint8] */, meta[relay.Constant][268] /* ty=Tensor[(128), int32] */, kernel_size=[1, 1], lhs_scales=[0.0139003f], lhs_zero_points=[20], rhs_scales=[… rhs_zero_points=[124, 107, 95, 91, 95, 90, 118, 109, 92, 120, 71, 107, 114, 141, 97, 138, 109, 105, 99, 76, 109, 87, 119, 85, 95, 114, 103, 106, 112, 132, 89, 117, 100, 102, 73, 107, 129, 79, 86, 130, 103, 118, 91, 119, 94, 92, 108, 98, 82, 94, 94, 101, 105, 104, 78, 113, 80, 105, 115, 86, 97, 86, 91, 98, 115, 87, 96, 108, 81, 122, 101, 82, 89, 85, 122, 104, 114, 116, 112, 108, 126, 128, 96, 124, 97, 99, 120, 96, 113, 115, 109, 113, 75, 100, 101, 107, 108, 95, 102, 104, 101, 93, 102, 111, 99, 98, 108, 134, 85, 75, 94, 92, 95, 89, 105, 105, 107, 84, 113, 104, 89, 102, 97, 107, 109, 116, 112, 113], scales=[0.0145112f], zero_points=[142], stage0=0, stage1=0, attrs_type_key="relay.attrs.TuAttrs") /* ty=Tensor[(1, 128, 20, 20), uint8] */;
  %240 = dl.dequantize(%239, input_scales=[0.0145112f], input_zero_points=[142]) /* ty=Tensor[(1, 128, 20, 20), float32] */;
  %241 = sigmoid(%240) /* /model.8/m.0/cv2/act/Sigmoid_output_0 */ /* ty=Tensor[(1, 128, 20, 20), float32] */;
  %242 = add(%224, %236) /* /model.8/m.0/m/m.1/Add_output_0 */ /* ty=Tensor[(1, 128, 20, 20), float32] */;
  %243 = multiply(%240, %241) /* /model.8/m.0/cv2/act/Mul_output_0 */ /* ty=Tensor[(1, 128, 20, 20), float32] */;
  %244 = (%242, %243);
  %245 = concatenate(%244, axis=1) /* /model.8/m.0/Concat_output_0 */ /* ty=Tensor[(1, 256, 20, 20), float32] */;
  %246 = dl.quantize(%245, output_scales=[0.0308016f], output_zero_points=[27]) /* fake_quant_87 */ /* ty=Tensor[(1, 256, 20, 20), uint8] */;
  %247 = fn (%FunctionVar_58_0: Tensor[(1, 256, 20, 20), uint8], %FunctionVar_58_1: Tensor[(256, 256, 1, 1), uint8], %FunctionVar_58_2: Tensor[(256), int32], PartitionedFromPattern="Tuple_dl.quantized_conv2d_", Composite="ds1:0|te1:1|aso1:0|aso2:0|quantize:0", TuAttrs=relay.attrs.TuAttrs(0x55a9c1a588)) -> Tensor[(1, 256, 20, 20), uint8] {
    %199 = (%FunctionVar_58_0, %FunctionVar_58_1, %FunctionVar_58_2, meta[relay.Constant][222] /* ty=Tensor[(256), float32] */, meta[relay.Constant][223] /* ty=Tensor[(256), int32] */, meta[relay.Constant][224] /* ty=Tensor[(256), int32] */, meta[relay.Constant][225] /* ty=Tensor[(256), int32] */, meta[relay.Constant][226] /* ty=Tensor[(256), int32] */);
    dl.quantized_conv2d(%199, kernel_size=[1, 1], bias_layout="", out_layout="NCHW", out_dtype="uint8", pad_width=[[0, 0], [0, 0], [0, 0], [0, 0]], lhs_scales=[0.0308016f], lhs_zero_points=[27], rhs_scales=[… rhs_zero_points=[147, 127, 104, 159, 145, 104, 151, 129, 160, 156, 106, 131, 147, 153, 170, 137, 173, 127, 69, 129, 116, 135, 136, 166, 112, 118, 93, 132, 106, 159, 101, 140, 140, 126, 136, 107, 90, 92, 107, 120, 148, 115, 98, 170, 145, 172, 122, 128, 141, 140, 95, 133, 146, 117, 128, 148, 117, 141, 152, 143, 115, 105, 118, 130, 146, 174, 113, 106, 133, 154, 152, 95, 152, 60, 122, 123, 142, 133, 153, 103, 141, 141, 115, 96, 134, 125, 155, 107, 152, 137, 170, 137, 147, 143, 129, 119, 126, 95, 128, 93, 138, 158, 170, 127, 115, 141, 119, 152, 125, 134, 125, 131, 140, 121, 111, 120, 127, 130, 139, 107, 152, 123, 109, 130, 118, 141, 132, 158, 153, 113, 128, 150, 140, 135, 126, 154, 156, 125, 122, 152, 149, 118, 169, 112, 144, 132, 147, 155, 133, 159, 137, 103, 110, 146, 173, 147, 85, 166, 123, 92, 131, 126, 103, 130, 156, 110, 127, 135, 112, 134, 145, 131, 147, 99, 130, 131, 109, 115, 134, 122, 132, 126, 125, 147, 99, 125, 106, 147, 104, 126, 116, 117, 130, 156, 70, 152, 146, 121, 129, 142, 146, 124, 143, 139, 130, 104, 173, 125, 143, 141, 148, 139, 176, 160, 162, 152, 157, 148, 119, 126, 123, 145, 166, 100, 138, 117, 123, 122, 110, 176, 87, 107, 158, 132, 149, 107, 179, 138, 128, 133, 93, 136, 90, 130, 133, 147, 124, 119, 128, 127, 136, 92, 130, 148, 162, 174], scales=[0.0286331f], zero_points=[107]) /* ty=Tensor[(1, 256, 20, 20), uint8] */
  };
  %248 = %247(%246, meta[relay.Constant][269] /* ty=Tensor[(256, 256, 1, 1), uint8] */, meta[relay.Constant][270] /* ty=Tensor[(256), int32] */, kernel_size=[1, 1], lhs_scales=[0.0308016f], lhs_zero_points=[27], rhs_scales=[… rhs_zero_points=[147, 127, 104, 159, 145, 104, 151, 129, 160, 156, 106, 131, 147, 153, 170, 137, 173, 127, 69, 129, 116, 135, 136, 166, 112, 118, 93, 132, 106, 159, 101, 140, 140, 126, 136, 107, 90, 92, 107, 120, 148, 115, 98, 170, 145, 172, 122, 128, 141, 140, 95, 133, 146, 117, 128, 148, 117, 141, 152, 143, 115, 105, 118, 130, 146, 174, 113, 106, 133, 154, 152, 95, 152, 60, 122, 123, 142, 133, 153, 103, 141, 141, 115, 96, 134, 125, 155, 107, 152, 137, 170, 137, 147, 143, 129, 119, 126, 95, 128, 93, 138, 158, 170, 127, 115, 141, 119, 152, 125, 134, 125, 131, 140, 121, 111, 120, 127, 130, 139, 107, 152, 123, 109, 130, 118, 141, 132, 158, 153, 113, 128, 150, 140, 135, 126, 154, 156, 125, 122, 152, 149, 118, 169, 112, 144, 132, 147, 155, 133, 159, 137, 103, 110, 146, 173, 147, 85, 166, 123, 92, 131, 126, 103, 130, 156, 110, 127, 135, 112, 134, 145, 131, 147, 99, 130, 131, 109, 115, 134, 122, 132, 126, 125, 147, 99, 125, 106, 147, 104, 126, 116, 117, 130, 156, 70, 152, 146, 121, 129, 142, 146, 124, 143, 139, 130, 104, 173, 125, 143, 141, 148, 139, 176, 160, 162, 152, 157, 148, 119, 126, 123, 145, 166, 100, 138, 117, 123, 122, 110, 176, 87, 107, 158, 132, 149, 107, 179, 138, 128, 133, 93, 136, 90, 130, 133, 147, 124, 119, 128, 127, 136, 92, 130, 148, 162, 174], scales=[0.0286331f], zero_points=[107], stage0=0, stage1=0, attrs_type_key="relay.attrs.TuAttrs") /* ty=Tensor[(1, 256, 20, 20), uint8] */;
  %249 = dl.dequantize(%248, input_scales=[0.0286331f], input_zero_points=[107]) /* ty=Tensor[(1, 256, 20, 20), float32] */;
  %250 = sigmoid(%249) /* /model.8/m.0/cv3/act/Sigmoid_output_0 */ /* ty=Tensor[(1, 256, 20, 20), float32] */;
  %251 = %198.0;
  %252 = multiply(%249, %250) /* /model.8/m.0/cv3/act/Mul_output_0 */ /* ty=Tensor[(1, 256, 20, 20), float32] */;
  %253 = (%251, %201, %252);
  %254 = concatenate(%253, axis=1) /* /model.8/Concat_output_0 */ /* ty=Tensor[(1, 768, 20, 20), float32] */;
  %255 = dl.quantize(%254, output_scales=[0.0199472f], output_zero_points=[14]) /* fake_quant_90 */ /* ty=Tensor[(1, 768, 20, 20), uint8] */;
  %256 = fn (%FunctionVar_57_0: Tensor[(1, 768, 20, 20), uint8], %FunctionVar_57_1: Tensor[(512, 768, 1, 1), uint8], %FunctionVar_57_2: Tensor[(512), int32], PartitionedFromPattern="Tuple_dl.quantized_conv2d_", Composite="ds1:0|te1:1|aso1:0|aso2:0|quantize:0", TuAttrs=relay.attrs.TuAttrs(0x55adcde0f8)) -> Tensor[(1, 512, 20, 20), uint8] {
    %12 = (%FunctionVar_57_0, %FunctionVar_57_1, %FunctionVar_57_2, meta[relay.Constant][56] /* ty=Tensor[(512), float32] */, meta[relay.Constant][57] /* ty=Tensor[(512), int32] */, meta[relay.Constant][58] /* ty=Tensor[(512), int32] */, meta[relay.Constant][59] /* ty=Tensor[(512), int32] */, meta[relay.Constant][60] /* ty=Tensor[(512), int32] */);
    dl.quantized_conv2d(%12, kernel_size=[1, 1], bias_layout="", out_layout="NCHW", out_dtype="uint8", pad_width=[[0, 0], [0, 0], [0, 0], [0, 0]], lhs_scales=[0.0199472f], lhs_zero_points=[14], rhs_scales=[… rhs_zero_points=[124, 114, 117, 109, 143, 112, 112, 148, 152, 138, 131, 182, 112, 129, 146, 121, 140, 115, 134, 125, 130, 112, 124, 142, 118, 120, 117, 122, 111, 121, 115, 125, 115, 112, 121, 111, 110, 114, 149, 123, 134, 120, 149, 117, 123, 132, 105, 116, 126, 121, 155, 113, 131, 116, 125, 131, 123, 119, 124, 124, 151, 141, 143, 105, 125, 133, 142, 152, 117, 112, 80, 114, 122, 113, 139, 125, 126, 118, 125, 113, 136, 113, 133, 122, 131, 109, 97, 116, 117, 138, 130, 141, 96, 133, 128, 121, 128, 104, 132, 110, 119, 109, 133, 103, 143, 126, 122, 130, 133, 134, 143, 119, 114, 116, 143, 132, 110, 102, 116, 114, 140, 122, 135, 142, 86, 117, 113, 133, 139, 144, 105, 131, 142, 199, 110, 132, 125, 160, 124, 117, 139, 137, 126, 87, 141, 125, 112, 107, 108, 186, 130, 115, 123, 107, 119, 122, 121, 127, 138, 114, 165, 129, 111, 106, 121, 122, 137, 117, 128, 133, 117, 93, 101, 149, 126, 118, 118, 136, 117, 127, 134, 87, 111, 115, 109, 124, 120, 90, 126, 127, 120, 127, 109, 126, 113, 127, 144, 130, 136, 127, 139, 111, 136, 132, 137, 145, 118, 118, 140, 121, 128, 133, 129, 162, 145, 119, 137, 129, 127, 67, 111, 130, 117, 132, 172, 121, 126, 141, 74, 137, 98, 93, 139, 116, 117, 126, 98, 114, 98, 134, 157, 126, 137, 119, 132, 122, 116, 135, 139, 113, 112, 134, 122, 109, 147, 126, 134, 128, 146, 117, 147, 118, 136, 123, 166, 128, 200, 129, 120, 128, 166, 123, 130, 131, 101, 130, 128, 139, 152, 137, 146, 129, 149, 166, 144, 72, 124, 113, 120, 132, 104, 141, 130, 209, 125, 118, 117, 125, 129, 138, 114, 114, 127, 135, 114, 120, 128, 135, 137, 100, 106, 127, 124, 108, 121, 141, 119, 156, 139, 111, 133, 179, 113, 118, 132, 130, 108, 88, 121, 119, 105, 115, 168, 128, 141, 110, 124, 92, 126, 123, 118, 118, 147, 113, 134, 131, 137, 209, 138, 142, 142, 123, 120, 131, 138, 113, 110, 130, 128, 115, 123, 142, 118, 88, 117, 152, 92, 127, 122, 120, 103, 141, 135, 128, 145, 126, 140, 130, 127, 105, 98, 117, 174, 123, 128, 136, 113, 104, 135, 143, 129, 132, 128, 149, 107, 127, 124, 144, 110, 119, 154, 115, 118, 120, 120, 117, 126, 133, 122, 138, 127, 151, 115, 133, 148, 133, 140, 132, 127, 152, 122, 141, 119, 139, 137, 123, 110, 163, 148, 132, 133, 107, 144, 111, 148, 126, 145, 126, 112, 102, 138, 125, 143, 131, 125, 174, 123, 115, 119, 141, 141, 134, 127, 127, 90, 113, 120, 131, 133, 127, 115, 107, 122, 102, 159, 149, 125, 130, 135, 124, 143, 133, 177, 146, 112, 141, 132, 104, 141, 145, 122, 129, 157, 109, 143, 140, 146, 106, 114, 116, 135, 140, 99, 111, 128, 133, 124, 137, 146, 105, 101, 115, 144, 128, 131, 134, 131, 129, 141, 123, 149, 119], scales=[0.0369442f], zero_points=[106]) /* ty=Tensor[(1, 512, 20, 20), uint8] */
  };
  %257 = %256(%255, meta[relay.Constant][271] /* ty=Tensor[(512, 768, 1, 1), uint8] */, meta[relay.Constant][272] /* ty=Tensor[(512), int32] */, kernel_size=[1, 1], lhs_scales=[0.0199472f], lhs_zero_points=[14], rhs_scales=[… rhs_zero_points=[124, 114, 117, 109, 143, 112, 112, 148, 152, 138, 131, 182, 112, 129, 146, 121, 140, 115, 134, 125, 130, 112, 124, 142, 118, 120, 117, 122, 111, 121, 115, 125, 115, 112, 121, 111, 110, 114, 149, 123, 134, 120, 149, 117, 123, 132, 105, 116, 126, 121, 155, 113, 131, 116, 125, 131, 123, 119, 124, 124, 151, 141, 143, 105, 125, 133, 142, 152, 117, 112, 80, 114, 122, 113, 139, 125, 126, 118, 125, 113, 136, 113, 133, 122, 131, 109, 97, 116, 117, 138, 130, 141, 96, 133, 128, 121, 128, 104, 132, 110, 119, 109, 133, 103, 143, 126, 122, 130, 133, 134, 143, 119, 114, 116, 143, 132, 110, 102, 116, 114, 140, 122, 135, 142, 86, 117, 113, 133, 139, 144, 105, 131, 142, 199, 110, 132, 125, 160, 124, 117, 139, 137, 126, 87, 141, 125, 112, 107, 108, 186, 130, 115, 123, 107, 119, 122, 121, 127, 138, 114, 165, 129, 111, 106, 121, 122, 137, 117, 128, 133, 117, 93, 101, 149, 126, 118, 118, 136, 117, 127, 134, 87, 111, 115, 109, 124, 120, 90, 126, 127, 120, 127, 109, 126, 113, 127, 144, 130, 136, 127, 139, 111, 136, 132, 137, 145, 118, 118, 140, 121, 128, 133, 129, 162, 145, 119, 137, 129, 127, 67, 111, 130, 117, 132, 172, 121, 126, 141, 74, 137, 98, 93, 139, 116, 117, 126, 98, 114, 98, 134, 157, 126, 137, 119, 132, 122, 116, 135, 139, 113, 112, 134, 122, 109, 147, 126, 134, 128, 146, 117, 147, 118, 136, 123, 166, 128, 200, 129, 120, 128, 166, 123, 130, 131, 101, 130, 128, 139, 152, 137, 146, 129, 149, 166, 144, 72, 124, 113, 120, 132, 104, 141, 130, 209, 125, 118, 117, 125, 129, 138, 114, 114, 127, 135, 114, 120, 128, 135, 137, 100, 106, 127, 124, 108, 121, 141, 119, 156, 139, 111, 133, 179, 113, 118, 132, 130, 108, 88, 121, 119, 105, 115, 168, 128, 141, 110, 124, 92, 126, 123, 118, 118, 147, 113, 134, 131, 137, 209, 138, 142, 142, 123, 120, 131, 138, 113, 110, 130, 128, 115, 123, 142, 118, 88, 117, 152, 92, 127, 122, 120, 103, 141, 135, 128, 145, 126, 140, 130, 127, 105, 98, 117, 174, 123, 128, 136, 113, 104, 135, 143, 129, 132, 128, 149, 107, 127, 124, 144, 110, 119, 154, 115, 118, 120, 120, 117, 126, 133, 122, 138, 127, 151, 115, 133, 148, 133, 140, 132, 127, 152, 122, 141, 119, 139, 137, 123, 110, 163, 148, 132, 133, 107, 144, 111, 148, 126, 145, 126, 112, 102, 138, 125, 143, 131, 125, 174, 123, 115, 119, 141, 141, 134, 127, 127, 90, 113, 120, 131, 133, 127, 115, 107, 122, 102, 159, 149, 125, 130, 135, 124, 143, 133, 177, 146, 112, 141, 132, 104, 141, 145, 122, 129, 157, 109, 143, 140, 146, 106, 114, 116, 135, 140, 99, 111, 128, 133, 124, 137, 146, 105, 101, 115, 144, 128, 131, 134, 131, 129, 141, 123, 149, 119], scales=[0.0369442f], zero_points=[106], stage0=0, stage1=0, attrs_type_key="relay.attrs.TuAttrs") /* ty=Tensor[(1, 512, 20, 20), uint8] */;
  %258 = dl.dequantize(%257, input_scales=[0.0369442f], input_zero_points=[106]) /* ty=Tensor[(1, 512, 20, 20), float32] */;
  %259 = sigmoid(%258) /* /model.8/cv2/act/Sigmoid_output_0 */ /* ty=Tensor[(1, 512, 20, 20), float32] */;
  %260 = multiply(%258, %259) /* /model.8/cv2/act/Mul_output_0 */ /* ty=Tensor[(1, 512, 20, 20), float32] */;
  %261 = dl.quantize(%260, output_scales=[0.0225715f], output_zero_points=[12]) /* fake_quant_93 */ /* ty=Tensor[(1, 512, 20, 20), uint8] */;
  %262 = fn (%FunctionVar_56_0: Tensor[(1, 512, 20, 20), uint8], %FunctionVar_56_1: Tensor[(256, 512, 1, 1), uint8], %FunctionVar_56_2: Tensor[(256), int32], PartitionedFromPattern="Tuple_dl.quantized_conv2d_", Composite="ds1:0|te1:1|aso1:0|aso2:0|quantize:0", TuAttrs=relay.attrs.TuAttrs(0x55aadd57b8)) -> Tensor[(1, 256, 20, 20), uint8] {
    %11 = (%FunctionVar_56_0, %FunctionVar_56_1, %FunctionVar_56_2, meta[relay.Constant][51] /* ty=Tensor[(256), float32] */, meta[relay.Constant][52] /* ty=Tensor[(256), int32] */, meta[relay.Constant][53] /* ty=Tensor[(256), int32] */, meta[relay.Constant][54] /* ty=Tensor[(256), int32] */, meta[relay.Constant][55] /* ty=Tensor[(256), int32] */);
    dl.quantized_conv2d(%11, kernel_size=[1, 1], bias_layout="", out_layout="NCHW", out_dtype="uint8", pad_width=[[0, 0], [0, 0], [0, 0], [0, 0]], lhs_scales=[0.0225715f], lhs_zero_points=[12], rhs_scales=[… rhs_zero_points=[140, 137, 121, 134, 135, 140, 145, 131, 148, 134, 122, 128, 137, 127, 139, 128, 111, 239, 147, 77, 143, 131, 148, 133, 137, 130, 38, 117, 112, 114, 141, 140, 174, 146, 136, 138, 99, 127, 66, 127, 146, 153, 120, 150, 138, 121, 137, 143, 134, 166, 139, 144, 133, 135, 127, 130, 129, 111, 130, 138, 142, 123, 152, 128, 125, 144, 150, 121, 142, 129, 141, 124, 169, 189, 88, 107, 189, 147, 147, 144, 192, 137, 138, 106, 137, 149, 151, 131, 131, 118, 144, 134, 143, 135, 148, 158, 205, 149, 163, 143, 138, 136, 137, 161, 150, 127, 121, 109, 123, 118, 136, 114, 136, 173, 129, 126, 127, 116, 128, 151, 130, 145, 133, 149, 120, 115, 116, 123, 154, 129, 156, 129, 132, 157, 139, 155, 123, 133, 135, 151, 120, 122, 122, 106, 124, 138, 114, 140, 134, 143, 149, 188, 123, 155, 129, 125, 132, 123, 142, 128, 165, 123, 120, 123, 145, 190, 136, 136, 123, 131, 145, 118, 136, 119, 126, 123, 116, 115, 176, 112, 159, 125, 131, 163, 140, 110, 122, 132, 128, 180, 112, 132, 124, 120, 154, 144, 136, 134, 131, 136, 129, 60, 117, 97, 117, 137, 128, 109, 132, 113, 164, 175, 136, 130, 129, 106, 134, 146, 146, 125, 144, 142, 149, 139, 135, 141, 153, 161, 138, 126, 123, 128, 114, 122, 133, 143, 125, 172, 132, 132, 136, 137, 126, 136, 138, 136, 104, 142, 140, 158, 152, 138, 125, 107, 141, 156], scales=[0.0297035f], zero_points=[88]) /* ty=Tensor[(1, 256, 20, 20), uint8] */
  };
  %263 = %262(%261, meta[relay.Constant][273] /* ty=Tensor[(256, 512, 1, 1), uint8] */, meta[relay.Constant][274] /* ty=Tensor[(256), int32] */, kernel_size=[1, 1], lhs_scales=[0.0225715f], lhs_zero_points=[12], rhs_scales=[… rhs_zero_points=[140, 137, 121, 134, 135, 140, 145, 131, 148, 134, 122, 128, 137, 127, 139, 128, 111, 239, 147, 77, 143, 131, 148, 133, 137, 130, 38, 117, 112, 114, 141, 140, 174, 146, 136, 138, 99, 127, 66, 127, 146, 153, 120, 150, 138, 121, 137, 143, 134, 166, 139, 144, 133, 135, 127, 130, 129, 111, 130, 138, 142, 123, 152, 128, 125, 144, 150, 121, 142, 129, 141, 124, 169, 189, 88, 107, 189, 147, 147, 144, 192, 137, 138, 106, 137, 149, 151, 131, 131, 118, 144, 134, 143, 135, 148, 158, 205, 149, 163, 143, 138, 136, 137, 161, 150, 127, 121, 109, 123, 118, 136, 114, 136, 173, 129, 126, 127, 116, 128, 151, 130, 145, 133, 149, 120, 115, 116, 123, 154, 129, 156, 129, 132, 157, 139, 155, 123, 133, 135, 151, 120, 122, 122, 106, 124, 138, 114, 140, 134, 143, 149, 188, 123, 155, 129, 125, 132, 123, 142, 128, 165, 123, 120, 123, 145, 190, 136, 136, 123, 131, 145, 118, 136, 119, 126, 123, 116, 115, 176, 112, 159, 125, 131, 163, 140, 110, 122, 132, 128, 180, 112, 132, 124, 120, 154, 144, 136, 134, 131, 136, 129, 60, 117, 97, 117, 137, 128, 109, 132, 113, 164, 175, 136, 130, 129, 106, 134, 146, 146, 125, 144, 142, 149, 139, 135, 141, 153, 161, 138, 126, 123, 128, 114, 122, 133, 143, 125, 172, 132, 132, 136, 137, 126, 136, 138, 136, 104, 142, 140, 158, 152, 138, 125, 107, 141, 156], scales=[0.0297035f], zero_points=[88], stage0=0, stage1=0, attrs_type_key="relay.attrs.TuAttrs") /* ty=Tensor[(1, 256, 20, 20), uint8] */;
  %264 = dl.dequantize(%263, input_scales=[0.0297035f], input_zero_points=[88]) /* ty=Tensor[(1, 256, 20, 20), float32] */;
  %265 = sigmoid(%264) /* /model.9/cv1/act/Sigmoid_output_0 */ /* ty=Tensor[(1, 256, 20, 20), float32] */;
  %268 = multiply(%264, %265) /* /model.9/cv1/act/Mul_output_0 */ /* ty=Tensor[(1, 256, 20, 20), float32] */;
  %269 = dl.quantize(%268, output_scales=[0.0204515f], output_zero_points=[14]) /* fake_quant_96 */ /* ty=Tensor[(1, 256, 20, 20), uint8] */;
  %270 = fn (%FunctionVar_2_01: Tensor[(1, 256, 20, 20), uint8], PartitionedFromPattern="dl.dequantize_nn.max_pool2d_dl.quantize_", Composite="ds1:0|te1:0|aso1:0|aso2:1|quantize:1", TuAttrs=relay.attrs.TuAttrs(0x55aaf59fa8)) -> Tensor[(1, 256, 20, 20), uint8] {
    %266 = dl.dequantize(%FunctionVar_2_01, out_dtype="float16", input_scales=[0.0204515f], input_zero_points=[14]) /* ty=Tensor[(1, 256, 20, 20), float16] */;
    %267 = nn.max_pool2d(%266, pool_size=[5, 5], padding=[2, 2, 2, 2]) /* /model.9/m/MaxPool_output_0 */ /* ty=Tensor[(1, 256, 20, 20), float16] */;
    dl.quantize(%267, output_scales=[0.0204186f], output_zero_points=[13]) /* fake_quant_97 */ /* ty=Tensor[(1, 256, 20, 20), uint8] */
  };
  %271 = %270(%269, pool_size=[5, 5], pool_strides=[1, 1], pool_padding=[2, 2, 2, 2], lhs_scales=[0.0204515f], lhs_zero_points=[14], scales=[0.0204186f], zero_points=[13], stage3=0, attrs_type_key="relay.attrs.TuAttrs") /* ty=Tensor[(1, 256, 20, 20), uint8] */;
  %274 = fn (%FunctionVar_1_02: Tensor[(1, 256, 20, 20), uint8], PartitionedFromPattern="dl.dequantize_nn.max_pool2d_dl.quantize_", Composite="ds1:0|te1:0|aso1:0|aso2:1|quantize:1", TuAttrs=relay.attrs.TuAttrs(0x55a96cba08)) -> Tensor[(1, 256, 20, 20), uint8] {
    %272 = dl.dequantize(%FunctionVar_1_02, out_dtype="float16", input_scales=[0.0204186f], input_zero_points=[13]) /* ty=Tensor[(1, 256, 20, 20), float16] */;
    %273 = nn.max_pool2d(%272, pool_size=[5, 5], padding=[2, 2, 2, 2]) /* /model.9/m_1/MaxPool_output_0 */ /* ty=Tensor[(1, 256, 20, 20), float16] */;
    dl.quantize(%273, output_scales=[0.020362f], output_zero_points=[13]) /* fake_quant_98 */ /* ty=Tensor[(1, 256, 20, 20), uint8] */
  };
  %275 = %274(%271, pool_size=[5, 5], pool_strides=[1, 1], pool_padding=[2, 2, 2, 2], lhs_scales=[0.0204186f], lhs_zero_points=[13], scales=[0.020362f], zero_points=[13], stage3=0, attrs_type_key="relay.attrs.TuAttrs") /* ty=Tensor[(1, 256, 20, 20), uint8] */;
  %278 = fn (%FunctionVar_0_03: Tensor[(1, 256, 20, 20), uint8], PartitionedFromPattern="dl.dequantize_nn.max_pool2d_dl.quantize_", Composite="ds1:0|te1:0|aso1:0|aso2:1|quantize:1", TuAttrs=relay.attrs.TuAttrs(0x55a9891988)) -> Tensor[(1, 256, 20, 20), uint8] {
    %276 = dl.dequantize(%FunctionVar_0_03, out_dtype="float16", input_scales=[0.020362f], input_zero_points=[13]) /* ty=Tensor[(1, 256, 20, 20), float16] */;
    %277 = nn.max_pool2d(%276, pool_size=[5, 5], padding=[2, 2, 2, 2]) /* /model.9/m_2/MaxPool_output_0 */ /* ty=Tensor[(1, 256, 20, 20), float16] */;
    dl.quantize(%277, output_scales=[0.0203289f], output_zero_points=[12]) /* fake_quant_99 */ /* ty=Tensor[(1, 256, 20, 20), uint8] */
  };
  %279 = %278(%275, pool_size=[5, 5], pool_strides=[1, 1], pool_padding=[2, 2, 2, 2], lhs_scales=[0.020362f], lhs_zero_points=[13], scales=[0.0203289f], zero_points=[12], stage3=0, attrs_type_key="relay.attrs.TuAttrs") /* ty=Tensor[(1, 256, 20, 20), uint8] */;
  %280 = dl.dequantize(%271, input_scales=[0.0204186f], input_zero_points=[13]) /* ty=Tensor[(1, 256, 20, 20), float32] */;
  %281 = dl.dequantize(%275, input_scales=[0.020362f], input_zero_points=[13]) /* ty=Tensor[(1, 256, 20, 20), float32] */;
  %282 = dl.dequantize(%279, input_scales=[0.0203289f], input_zero_points=[12]) /* ty=Tensor[(1, 256, 20, 20), float32] */;
  %283 = (%268, %280, %281, %282);
  %284 = concatenate(%283, axis=1) /* /model.9/Concat_output_0 */ /* ty=Tensor[(1, 1024, 20, 20), float32] */;
  %285 = dl.quantize(%284, output_scales=[0.0204515f], output_zero_points=[14]) /* fake_quant_100 */ /* ty=Tensor[(1, 1024, 20, 20), uint8] */;
  %286 = fn (%FunctionVar_55_0: Tensor[(1, 1024, 20, 20), uint8], %FunctionVar_55_1: Tensor[(512, 1024, 1, 1), uint8], %FunctionVar_55_2: Tensor[(512), int32], PartitionedFromPattern="Tuple_dl.quantized_conv2d_", Composite="ds1:0|te1:1|aso1:0|aso2:0|quantize:0", TuAttrs=relay.attrs.TuAttrs(0x55a7cd3dd8)) -> Tensor[(1, 512, 20, 20), uint8] {
    %10 = (%FunctionVar_55_0, %FunctionVar_55_1, %FunctionVar_55_2, meta[relay.Constant][46] /* ty=Tensor[(512), float32] */, meta[relay.Constant][47] /* ty=Tensor[(512), int32] */, meta[relay.Constant][48] /* ty=Tensor[(512), int32] */, meta[relay.Constant][49] /* ty=Tensor[(512), int32] */, meta[relay.Constant][50] /* ty=Tensor[(512), int32] */);
    dl.quantized_conv2d(%10, kernel_size=[1, 1], bias_layout="", out_layout="NCHW", out_dtype="uint8", pad_width=[[0, 0], [0, 0], [0, 0], [0, 0]], lhs_scales=[0.0204515f], lhs_zero_points=[14], rhs_scales=[… rhs_zero_points=[78, 115, 135, 142, 110, 92, 112, 154, 108, 89, 123, 104, 98, 126, 141, 128, 122, 143, 136, 103, 104, 101, 160, 137, 100, 108, 146, 87, 138, 87, 126, 111, 109, 121, 160, 91, 150, 132, 107, 80, 207, 113, 102, 121, 103, 101, 126, 124, 98, 126, 121, 110, 87, 136, 121, 133, 119, 95, 76, 100, 103, 114, 138, 116, 150, 138, 113, 111, 115, 163, 75, 89, 87, 155, 145, 72, 129, 104, 106, 82, 96, 104, 129, 92, 110, 118, 81, 117, 123, 104, 117, 119, 91, 95, 114, 111, 126, 115, 113, 126, 119, 129, 117, 110, 108, 89, 66, 91, 129, 108, 114, 109, 99, 152, 180, 96, 193, 111, 133, 117, 136, 196, 98, 114, 90, 154, 132, 152, 104, 77, 112, 95, 81, 128, 106, 95, 122, 91, 136, 102, 122, 117, 131, 137, 140, 109, 78, 98, 78, 100, 124, 85, 122, 105, 131, 97, 98, 118, 112, 114, 94, 116, 144, 103, 125, 114, 131, 106, 130, 103, 129, 90, 91, 90, 102, 102, 105, 83, 152, 134, 120, 139, 124, 113, 127, 89, 108, 116, 112, 116, 152, 134, 119, 120, 106, 84, 98, 131, 99, 97, 124, 91, 129, 124, 107, 141, 137, 101, 97, 129, 114, 51, 118, 104, 119, 91, 128, 123, 114, 122, 184, 98, 148, 86, 113, 166, 86, 99, 113, 81, 91, 127, 122, 117, 104, 83, 162, 131, 105, 77, 98, 111, 129, 115, 139, 102, 112, 121, 127, 150, 84, 111, 118, 221, 118, 70, 102, 109, 110, 151, 82, 115, 115, 99, 131, 102, 113, 128, 148, 115, 118, 135, 90, 92, 132, 121, 96, 157, 116, 117, 119, 82, 112, 113, 101, 111, 115, 94, 106, 107, 72, 112, 110, 88, 175, 142, 130, 90, 99, 84, 83, 111, 116, 113, 101, 107, 112, 116, 134, 104, 112, 115, 120, 134, 130, 134, 116, 127, 109, 96, 138, 118, 106, 115, 142, 105, 87, 133, 124, 114, 108, 120, 118, 112, 135, 126, 106, 140, 124, 86, 93, 141, 128, 104, 115, 108, 138, 134, 163, 158, 115, 101, 107, 111, 133, 90, 109, 96, 73, 114, 93, 113, 108, 108, 108, 90, 101, 112, 91, 79, 102, 90, 102, 103, 106, 101, 89, 99, 94, 112, 110, 118, 102, 113, 102, 119, 122, 132, 121, 146, 126, 81, 109, 156, 105, 78, 97, 98, 86, 87, 103, 108, 121, 103, 117, 92, 99, 109, 105, 150, 120, 97, 110, 117, 124, 116, 121, 135, 81, 81, 118, 122, 124, 105, 162, 119, 134, 106, 104, 111, 106, 128, 98, 114, 75, 124, 135, 93, 117, 97, 95, 113, 124, 126, 112, 128, 97, 77, 93, 112, 121, 107, 152, 103, 114, 103, 123, 108, 89, 101, 76, 132, 112, 135, 77, 101, 171, 127, 119, 91, 116, 116, 135, 104, 65, 127, 123, 96, 119, 105, 108, 81, 91, 68, 88, 135, 136, 106, 122, 92, 148, 121, 86, 141, 99, 119, 114, 116, 114, 102, 90, 80, 117, 133, 129, 126, 113, 110, 120, 116, 149, 119], scales=[0.0766704f], zero_points=[188]) /* ty=Tensor[(1, 512, 20, 20), uint8] */
  };
  %287 = %286(%285, meta[relay.Constant][275] /* ty=Tensor[(512, 1024, 1, 1), uint8] */, meta[relay.Constant][276] /* ty=Tensor[(512), int32] */, kernel_size=[1, 1], lhs_scales=[0.0204515f], lhs_zero_points=[14], rhs_scales=[… rhs_zero_points=[78, 115, 135, 142, 110, 92, 112, 154, 108, 89, 123, 104, 98, 126, 141, 128, 122, 143, 136, 103, 104, 101, 160, 137, 100, 108, 146, 87, 138, 87, 126, 111, 109, 121, 160, 91, 150, 132, 107, 80, 207, 113, 102, 121, 103, 101, 126, 124, 98, 126, 121, 110, 87, 136, 121, 133, 119, 95, 76, 100, 103, 114, 138, 116, 150, 138, 113, 111, 115, 163, 75, 89, 87, 155, 145, 72, 129, 104, 106, 82, 96, 104, 129, 92, 110, 118, 81, 117, 123, 104, 117, 119, 91, 95, 114, 111, 126, 115, 113, 126, 119, 129, 117, 110, 108, 89, 66, 91, 129, 108, 114, 109, 99, 152, 180, 96, 193, 111, 133, 117, 136, 196, 98, 114, 90, 154, 132, 152, 104, 77, 112, 95, 81, 128, 106, 95, 122, 91, 136, 102, 122, 117, 131, 137, 140, 109, 78, 98, 78, 100, 124, 85, 122, 105, 131, 97, 98, 118, 112, 114, 94, 116, 144, 103, 125, 114, 131, 106, 130, 103, 129, 90, 91, 90, 102, 102, 105, 83, 152, 134, 120, 139, 124, 113, 127, 89, 108, 116, 112, 116, 152, 134, 119, 120, 106, 84, 98, 131, 99, 97, 124, 91, 129, 124, 107, 141, 137, 101, 97, 129, 114, 51, 118, 104, 119, 91, 128, 123, 114, 122, 184, 98, 148, 86, 113, 166, 86, 99, 113, 81, 91, 127, 122, 117, 104, 83, 162, 131, 105, 77, 98, 111, 129, 115, 139, 102, 112, 121, 127, 150, 84, 111, 118, 221, 118, 70, 102, 109, 110, 151, 82, 115, 115, 99, 131, 102, 113, 128, 148, 115, 118, 135, 90, 92, 132, 121, 96, 157, 116, 117, 119, 82, 112, 113, 101, 111, 115, 94, 106, 107, 72, 112, 110, 88, 175, 142, 130, 90, 99, 84, 83, 111, 116, 113, 101, 107, 112, 116, 134, 104, 112, 115, 120, 134, 130, 134, 116, 127, 109, 96, 138, 118, 106, 115, 142, 105, 87, 133, 124, 114, 108, 120, 118, 112, 135, 126, 106, 140, 124, 86, 93, 141, 128, 104, 115, 108, 138, 134, 163, 158, 115, 101, 107, 111, 133, 90, 109, 96, 73, 114, 93, 113, 108, 108, 108, 90, 101, 112, 91, 79, 102, 90, 102, 103, 106, 101, 89, 99, 94, 112, 110, 118, 102, 113, 102, 119, 122, 132, 121, 146, 126, 81, 109, 156, 105, 78, 97, 98, 86, 87, 103, 108, 121, 103, 117, 92, 99, 109, 105, 150, 120, 97, 110, 117, 124, 116, 121, 135, 81, 81, 118, 122, 124, 105, 162, 119, 134, 106, 104, 111, 106, 128, 98, 114, 75, 124, 135, 93, 117, 97, 95, 113, 124, 126, 112, 128, 97, 77, 93, 112, 121, 107, 152, 103, 114, 103, 123, 108, 89, 101, 76, 132, 112, 135, 77, 101, 171, 127, 119, 91, 116, 116, 135, 104, 65, 127, 123, 96, 119, 105, 108, 81, 91, 68, 88, 135, 136, 106, 122, 92, 148, 121, 86, 141, 99, 119, 114, 116, 114, 102, 90, 80, 117, 133, 129, 126, 113, 110, 120, 116, 149, 119], scales=[0.0766704f], zero_points=[188], stage0=0, stage1=0, attrs_type_key="relay.attrs.TuAttrs") /* ty=Tensor[(1, 512, 20, 20), uint8] */;
  %288 = dl.dequantize(%287, input_scales=[0.0766704f], input_zero_points=[188]) /* ty=Tensor[(1, 512, 20, 20), float32] */;
  %289 = sigmoid(%288) /* /model.9/cv2/act/Sigmoid_output_0 */ /* ty=Tensor[(1, 512, 20, 20), float32] */;
  %290 = multiply(%288, %289) /* /model.9/cv2/act/Mul_output_0 */ /* ty=Tensor[(1, 512, 20, 20), float32] */;
  %291 = dl.quantize(%290, output_scales=[0.0211377f], output_zero_points=[13]) /* fake_quant_103 */ /* ty=Tensor[(1, 512, 20, 20), uint8] */;
  %292 = fn (%FunctionVar_54_0: Tensor[(1, 512, 20, 20), uint8], %FunctionVar_54_1: Tensor[(512, 512, 1, 1), uint8], %FunctionVar_54_2: Tensor[(512), int32], PartitionedFromPattern="Tuple_dl.quantized_conv2d_", Composite="ds1:0|te1:1|aso1:0|aso2:0|quantize:0", TuAttrs=relay.attrs.TuAttrs(0x55aaf7a9b8)) -> Tensor[(1, 512, 20, 20), uint8] {
    %9 = (%FunctionVar_54_0, %FunctionVar_54_1, %FunctionVar_54_2, meta[relay.Constant][41] /* ty=Tensor[(512), float32] */, meta[relay.Constant][42] /* ty=Tensor[(512), int32] */, meta[relay.Constant][43] /* ty=Tensor[(512), int32] */, meta[relay.Constant][44] /* ty=Tensor[(512), int32] */, meta[relay.Constant][45] /* ty=Tensor[(512), int32] */);
    dl.quantized_conv2d(%9, kernel_size=[1, 1], bias_layout="", out_layout="NCHW", out_dtype="uint8", pad_width=[[0, 0], [0, 0], [0, 0], [0, 0]], lhs_scales=[0.0211377f], lhs_zero_points=[13], rhs_scales=[… rhs_zero_points=[111, 140, 119, 131, 107, 117, 115, 135, 128, 116, 133, 111, 130, 126, 116, 137, 142, 130, 124, 125, 144, 116, 114, 112, 121, 117, 114, 117, 144, 133, 122, 129, 123, 122, 133, 150, 123, 131, 121, 116, 123, 136, 121, 120, 109, 95, 119, 91, 86, 107, 114, 126, 130, 141, 126, 107, 125, 113, 125, 111, 122, 134, 128, 109, 119, 118, 143, 141, 122, 124, 88, 126, 106, 100, 134, 109, 131, 122, 163, 120, 123, 123, 108, 125, 124, 120, 89, 114, 103, 82, 105, 130, 143, 125, 109, 133, 125, 115, 130, 123, 113, 110, 107, 111, 116, 121, 112, 117, 127, 135, 127, 115, 108, 118, 129, 117, 102, 127, 121, 107, 120, 142, 125, 118, 132, 114, 120, 128, 117, 93, 132, 108, 108, 134, 103, 121, 126, 129, 129, 168, 132, 131, 130, 134, 110, 154, 131, 119, 124, 112, 102, 121, 111, 85, 105, 79, 145, 122, 131, 100, 130, 96, 128, 153, 126, 124, 107, 118, 116, 113, 119, 103, 102, 126, 115, 108, 100, 118, 128, 129, 140, 122, 113, 139, 100, 130, 126, 125, 117, 128, 128, 119, 116, 132, 115, 133, 101, 119, 121, 119, 132, 113, 124, 115, 123, 128, 139, 132, 125, 114, 100, 171, 116, 56, 121, 125, 106, 124, 114, 102, 127, 88, 121, 133, 106, 111, 116, 132, 125, 112, 126, 150, 109, 101, 122, 104, 116, 128, 115, 133, 132, 130, 116, 100, 121, 106, 127, 117, 132, 104, 121, 133, 116, 117, 110, 92, 118, 95, 105, 125, 133, 103, 99, 114, 101, 124, 132, 99, 113, 144, 135, 159, 90, 108, 195, 108, 119, 214, 89, 136, 99, 121, 96, 109, 160, 118, 106, 119, 137, 150, 121, 111, 78, 124, 101, 118, 200, 121, 148, 113, 122, 127, 150, 134, 146, 101, 138, 133, 134, 116, 111, 112, 138, 125, 118, 93, 110, 169, 144, 121, 152, 122, 139, 111, 125, 144, 120, 104, 152, 126, 123, 80, 125, 91, 132, 170, 112, 157, 118, 120, 120, 101, 78, 140, 174, 106, 133, 129, 101, 135, 142, 130, 106, 140, 123, 108, 105, 123, 223, 134, 102, 109, 88, 127, 143, 100, 130, 110, 131, 115, 97, 133, 131, 136, 92, 129, 166, 148, 121, 117, 144, 103, 71, 172, 161, 137, 133, 121, 117, 116, 150, 90, 100, 127, 130, 131, 148, 112, 135, 117, 106, 148, 142, 152, 176, 155, 91, 112, 132, 118, 137, 155, 106, 138, 95, 115, 104, 113, 102, 75, 124, 188, 132, 132, 130, 118, 103, 145, 143, 94, 135, 121, 154, 107, 127, 140, 117, 116, 156, 83, 160, 93, 98, 173, 152, 122, 144, 107, 136, 113, 222, 175, 123, 126, 112, 111, 132, 128, 145, 88, 88, 137, 158, 134, 142, 151, 121, 94, 118, 130, 145, 120, 165, 89, 149, 118, 98, 134, 97, 173, 140, 136, 117, 109, 160, 167, 128, 131, 117, 108, 182, 108, 121, 72, 85, 109, 125, 132, 84, 104, 112, 107, 149, 103, 113, 115, 127, 116, 165, 89, 132, 146], scales=[0.0575897f], zero_points=[119]) /* ty=Tensor[(1, 512, 20, 20), uint8] */
  };
  %293 = %292(%291, meta[relay.Constant][277] /* ty=Tensor[(512, 512, 1, 1), uint8] */, meta[relay.Constant][278] /* ty=Tensor[(512), int32] */, kernel_size=[1, 1], lhs_scales=[0.0211377f], lhs_zero_points=[13], rhs_scales=[… rhs_zero_points=[111, 140, 119, 131, 107, 117, 115, 135, 128, 116, 133, 111, 130, 126, 116, 137, 142, 130, 124, 125, 144, 116, 114, 112, 121, 117, 114, 117, 144, 133, 122, 129, 123, 122, 133, 150, 123, 131, 121, 116, 123, 136, 121, 120, 109, 95, 119, 91, 86, 107, 114, 126, 130, 141, 126, 107, 125, 113, 125, 111, 122, 134, 128, 109, 119, 118, 143, 141, 122, 124, 88, 126, 106, 100, 134, 109, 131, 122, 163, 120, 123, 123, 108, 125, 124, 120, 89, 114, 103, 82, 105, 130, 143, 125, 109, 133, 125, 115, 130, 123, 113, 110, 107, 111, 116, 121, 112, 117, 127, 135, 127, 115, 108, 118, 129, 117, 102, 127, 121, 107, 120, 142, 125, 118, 132, 114, 120, 128, 117, 93, 132, 108, 108, 134, 103, 121, 126, 129, 129, 168, 132, 131, 130, 134, 110, 154, 131, 119, 124, 112, 102, 121, 111, 85, 105, 79, 145, 122, 131, 100, 130, 96, 128, 153, 126, 124, 107, 118, 116, 113, 119, 103, 102, 126, 115, 108, 100, 118, 128, 129, 140, 122, 113, 139, 100, 130, 126, 125, 117, 128, 128, 119, 116, 132, 115, 133, 101, 119, 121, 119, 132, 113, 124, 115, 123, 128, 139, 132, 125, 114, 100, 171, 116, 56, 121, 125, 106, 124, 114, 102, 127, 88, 121, 133, 106, 111, 116, 132, 125, 112, 126, 150, 109, 101, 122, 104, 116, 128, 115, 133, 132, 130, 116, 100, 121, 106, 127, 117, 132, 104, 121, 133, 116, 117, 110, 92, 118, 95, 105, 125, 133, 103, 99, 114, 101, 124, 132, 99, 113, 144, 135, 159, 90, 108, 195, 108, 119, 214, 89, 136, 99, 121, 96, 109, 160, 118, 106, 119, 137, 150, 121, 111, 78, 124, 101, 118, 200, 121, 148, 113, 122, 127, 150, 134, 146, 101, 138, 133, 134, 116, 111, 112, 138, 125, 118, 93, 110, 169, 144, 121, 152, 122, 139, 111, 125, 144, 120, 104, 152, 126, 123, 80, 125, 91, 132, 170, 112, 157, 118, 120, 120, 101, 78, 140, 174, 106, 133, 129, 101, 135, 142, 130, 106, 140, 123, 108, 105, 123, 223, 134, 102, 109, 88, 127, 143, 100, 130, 110, 131, 115, 97, 133, 131, 136, 92, 129, 166, 148, 121, 117, 144, 103, 71, 172, 161, 137, 133, 121, 117, 116, 150, 90, 100, 127, 130, 131, 148, 112, 135, 117, 106, 148, 142, 152, 176, 155, 91, 112, 132, 118, 137, 155, 106, 138, 95, 115, 104, 113, 102, 75, 124, 188, 132, 132, 130, 118, 103, 145, 143, 94, 135, 121, 154, 107, 127, 140, 117, 116, 156, 83, 160, 93, 98, 173, 152, 122, 144, 107, 136, 113, 222, 175, 123, 126, 112, 111, 132, 128, 145, 88, 88, 137, 158, 134, 142, 151, 121, 94, 118, 130, 145, 120, 165, 89, 149, 118, 98, 134, 97, 173, 140, 136, 117, 109, 160, 167, 128, 131, 117, 108, 182, 108, 121, 72, 85, 109, 125, 132, 84, 104, 112, 107, 149, 103, 113, 115, 127, 116, 165, 89, 132, 146], scales=[0.0575897f], zero_points=[119], stage0=0, stage1=0, attrs_type_key="relay.attrs.TuAttrs") /* ty=Tensor[(1, 512, 20, 20), uint8] */;
  %294 = dl.dequantize(%293, input_scales=[0.0575897f], input_zero_points=[119]) /* ty=Tensor[(1, 512, 20, 20), float32] */;
  %295 = sigmoid(%294) /* /model.10/cv1/act/Sigmoid_output_0 */ /* ty=Tensor[(1, 512, 20, 20), float32] */;
  %296 = multiply(%294, %295) /* /model.10/cv1/act/Mul_output_0 */ /* ty=Tensor[(1, 512, 20, 20), float32] */;
  %297 = fn (%FunctionVar_6_0: Tensor[(1, 512, 20, 20), float32], PartitionedFromPattern="split_", Composite="ds1:0|te1:0|aso1:0|aso2:0|quantize:0", TuAttrs=relay.attrs.TuAttrs(0x55ab063988)) -> (Tensor[(1, 256, 20, 20), float32], Tensor[(1, 256, 20, 20), float32]) {
    split(%FunctionVar_6_0, indices_or_sections=[256], axis=1) /* /model.10/Split_output_0 */ /* ty=(Tensor[(1, 256, 20, 20), float32], Tensor[(1, 256, 20, 20), float32]) */
  };
  %298 = %297(%296, indices_or_sections=[256], axis=1, stage5=0, attrs_type_key="relay.attrs.TuAttrs") /* ty=(Tensor[(1, 256, 20, 20), float32], Tensor[(1, 256, 20, 20), float32]) */;
  %303 = %298.1;
  %304 = dl.quantize(%303, output_scales=[0.0255063f], output_zero_points=[11]) /* fake_quant_106 */ /* ty=Tensor[(1, 256, 20, 20), uint8] */;
  %305 = fn (%FunctionVar_53_0: Tensor[(1, 256, 20, 20), uint8], %FunctionVar_53_1: Tensor[(512, 256, 1, 1), uint8], %FunctionVar_53_2: Tensor[(512), int32], PartitionedFromPattern="Tuple_dl.quantized_conv2d_", Composite="ds1:0|te1:1|aso1:0|aso2:0|quantize:0", TuAttrs=relay.attrs.TuAttrs(0x55aaf45fe8)) -> Tensor[(1, 512, 20, 20), uint8] {
    %302 = (%FunctionVar_53_0, %FunctionVar_53_1, %FunctionVar_53_2, meta[relay.Constant][284] /* ty=Tensor[(512), float32] */, meta[relay.Constant][285] /* ty=Tensor[(512), int32] */, meta[relay.Constant][286] /* ty=Tensor[(512), int32] */, meta[relay.Constant][287] /* ty=Tensor[(512), int32] */, meta[relay.Constant][288] /* ty=Tensor[(512), int32] */);
    dl.quantized_conv2d(%302, kernel_size=[1, 1], bias_layout="", out_layout="NCHW", out_dtype="uint8", pad_width=[[0, 0], [0, 0], [0, 0], [0, 0]], lhs_scales=[0.0255063f], lhs_zero_points=[11], rhs_scales=[… rhs_zero_points=[133, 95, 142, 154, 125, 124, 134, 124, 133, 123, 110, 137, 168, 127, 117, 103, 124, 134, 101, 145, 105, 149, 166, 105, 120, 105, 128, 142, 142, 113, 153, 134, 105, 125, 90, 130, 116, 122, 80, 141, 86, 150, 118, 99, 102, 127, 98, 105, 122, 112, 108, 144, 100, 167, 159, 120, 139, 121, 120, 135, 121, 128, 99, 122, 104, 146, 121, 142, 141, 132, 122, 141, 119, 168, 138, 121, 106, 134, 103, 115, 119, 139, 113, 134, 124, 128, 89, 125, 123, 134, 154, 140, 149, 117, 81, 142, 127, 128, 143, 177, 147, 125, 92, 114, 149, 142, 133, 121, 124, 143, 132, 133, 122, 131, 163, 165, 137, 106, 144, 148, 140, 137, 111, 107, 111, 127, 159, 87, 146, 108, 143, 119, 129, 128, 85, 111, 128, 155, 101, 125, 109, 129, 151, 117, 141, 130, 143, 134, 110, 110, 151, 152, 101, 129, 122, 134, 134, 113, 139, 119, 153, 148, 120, 134, 120, 173, 158, 165, 70, 120, 142, 149, 140, 114, 143, 107, 116, 132, 91, 115, 155, 148, 111, 133, 106, 102, 138, 113, 107, 126, 96, 144, 135, 114, 149, 135, 135, 151, 122, 148, 159, 122, 117, 130, 130, 119, 114, 136, 105, 127, 123, 124, 118, 133, 130, 133, 143, 92, 142, 124, 107, 111, 119, 126, 145, 129, 138, 140, 136, 124, 117, 117, 115, 134, 118, 108, 155, 114, 157, 105, 116, 129, 135, 133, 128, 112, 125, 140, 137, 123, 136, 136, 98, 155, 143, 128, 127, 125, 82, 128, 137, 90, 101, 96, 129, 121, 96, 119, 110, 143, 128, 158, 145, 119, 119, 114, 112, 127, 170, 133, 113, 118, 105, 165, 119, 126, 103, 109, 139, 101, 96, 149, 100, 139, 118, 159, 119, 125, 167, 137, 131, 138, 162, 123, 120, 121, 148, 102, 112, 146, 111, 133, 135, 95, 68, 110, 124, 125, 126, 150, 134, 170, 154, 139, 155, 119, 140, 154, 171, 141, 139, 141, 157, 126, 147, 139, 128, 124, 92, 123, 117, 128, 143, 134, 127, 114, 110, 114, 146, 146, 121, 153, 124, 141, 156, 137, 146, 94, 131, 109, 120, 98, 134, 121, 116, 140, 135, 112, 157, 113, 134, 119, 130, 126, 91, 93, 127, 136, 102, 149, 133, 148, 158, 113, 102, 149, 146, 140, 156, 131, 156, 105, 99, 147, 139, 128, 156, 133, 126, 131, 131, 118, 106, 132, 126, 114, 139, 124, 159, 91, 158, 112, 106, 121, 112, 165, 157, 125, 144, 77, 102, 105, 152, 104, 96, 85, 142, 143, 198, 134, 156, 148, 67, 109, 54, 58, 105, 179, 133, 93, 66, 143, 164, 136, 151, 90, 139, 106, 124, 114, 147, 137, 129, 136, 132, 141, 113, 130, 117, 117, 134, 118, 100, 124, 116, 122, 136, 142, 109, 145, 130, 127, 139, 143, 141, 124, 127, 120, 134, 115, 136, 107, 102, 124, 115, 90, 113, 125, 125, 127, 125, 125, 110, 135, 113, 130, 122, 110, 131, 125, 145, 145, 96, 114, 97, 119, 146, 118, 154, 99, 117, 169], scales=[0.0540297f], zero_points=[0]) /* ty=Tensor[(1, 512, 20, 20), uint8] */
  };
  %306 = %305(%304, meta[relay.Constant][289] /* ty=Tensor[(512, 256, 1, 1), uint8] */, meta[relay.Constant][290] /* ty=Tensor[(512), int32] */, kernel_size=[1, 1], lhs_scales=[0.0255063f], lhs_zero_points=[11], rhs_scales=[… rhs_zero_points=[133, 95, 142, 154, 125, 124, 134, 124, 133, 123, 110, 137, 168, 127, 117, 103, 124, 134, 101, 145, 105, 149, 166, 105, 120, 105, 128, 142, 142, 113, 153, 134, 105, 125, 90, 130, 116, 122, 80, 141, 86, 150, 118, 99, 102, 127, 98, 105, 122, 112, 108, 144, 100, 167, 159, 120, 139, 121, 120, 135, 121, 128, 99, 122, 104, 146, 121, 142, 141, 132, 122, 141, 119, 168, 138, 121, 106, 134, 103, 115, 119, 139, 113, 134, 124, 128, 89, 125, 123, 134, 154, 140, 149, 117, 81, 142, 127, 128, 143, 177, 147, 125, 92, 114, 149, 142, 133, 121, 124, 143, 132, 133, 122, 131, 163, 165, 137, 106, 144, 148, 140, 137, 111, 107, 111, 127, 159, 87, 146, 108, 143, 119, 129, 128, 85, 111, 128, 155, 101, 125, 109, 129, 151, 117, 141, 130, 143, 134, 110, 110, 151, 152, 101, 129, 122, 134, 134, 113, 139, 119, 153, 148, 120, 134, 120, 173, 158, 165, 70, 120, 142, 149, 140, 114, 143, 107, 116, 132, 91, 115, 155, 148, 111, 133, 106, 102, 138, 113, 107, 126, 96, 144, 135, 114, 149, 135, 135, 151, 122, 148, 159, 122, 117, 130, 130, 119, 114, 136, 105, 127, 123, 124, 118, 133, 130, 133, 143, 92, 142, 124, 107, 111, 119, 126, 145, 129, 138, 140, 136, 124, 117, 117, 115, 134, 118, 108, 155, 114, 157, 105, 116, 129, 135, 133, 128, 112, 125, 140, 137, 123, 136, 136, 98, 155, 143, 128, 127, 125, 82, 128, 137, 90, 101, 96, 129, 121, 96, 119, 110, 143, 128, 158, 145, 119, 119, 114, 112, 127, 170, 133, 113, 118, 105, 165, 119, 126, 103, 109, 139, 101, 96, 149, 100, 139, 118, 159, 119, 125, 167, 137, 131, 138, 162, 123, 120, 121, 148, 102, 112, 146, 111, 133, 135, 95, 68, 110, 124, 125, 126, 150, 134, 170, 154, 139, 155, 119, 140, 154, 171, 141, 139, 141, 157, 126, 147, 139, 128, 124, 92, 123, 117, 128, 143, 134, 127, 114, 110, 114, 146, 146, 121, 153, 124, 141, 156, 137, 146, 94, 131, 109, 120, 98, 134, 121, 116, 140, 135, 112, 157, 113, 134, 119, 130, 126, 91, 93, 127, 136, 102, 149, 133, 148, 158, 113, 102, 149, 146, 140, 156, 131, 156, 105, 99, 147, 139, 128, 156, 133, 126, 131, 131, 118, 106, 132, 126, 114, 139, 124, 159, 91, 158, 112, 106, 121, 112, 165, 157, 125, 144, 77, 102, 105, 152, 104, 96, 85, 142, 143, 198, 134, 156, 148, 67, 109, 54, 58, 105, 179, 133, 93, 66, 143, 164, 136, 151, 90, 139, 106, 124, 114, 147, 137, 129, 136, 132, 141, 113, 130, 117, 117, 134, 118, 100, 124, 116, 122, 136, 142, 109, 145, 130, 127, 139, 143, 141, 124, 127, 120, 134, 115, 136, 107, 102, 124, 115, 90, 113, 125, 125, 127, 125, 125, 110, 135, 113, 130, 122, 110, 131, 125, 145, 145, 96, 114, 97, 119, 146, 118, 154, 99, 117, 169], scales=[0.0540297f], zero_points=[0], stage0=0, stage1=0, attrs_type_key="relay.attrs.TuAttrs") /* ty=Tensor[(1, 512, 20, 20), uint8] */;
  %307 = reshape(%306, newshape=[1, 4, 128, 400]) /* /model.10/m/m.0/attn/Reshape_output_0 */ /* ty=Tensor[(1, 4, 128, 400), uint8] */;
  %308 = dl.dequantize(%307, input_scales=[0.0540297f], input_zero_points=[0]) /* ty=Tensor[(1, 4, 128, 400), float32] */;
  %309 = split(%308, indices_or_sections=[32, 64], axis=2) /* /model.10/m/m.0/attn/Split_output_0 */ /* ty=(Tensor[(1, 4, 32, 400), float32], Tensor[(1, 4, 32, 400), float32], Tensor[(1, 4, 64, 400), float32]) */;
  %310 = %309.2;
  %311 = reshape(%310, newshape=[-1, 64, 400]) /* ty=Tensor[(4, 64, 400), float32] */;
  %314 = %309.0;
  %315 = fn (%FunctionVar_6_01: Tensor[(1, 4, 32, 400), float32], PartitionedFromPattern="transpose_", Composite="ds1:0|te1:0|aso1:0|aso2:0|quantize:0", TuAttrs=relay.attrs.TuAttrs(0x55a8722068)) -> Tensor[(1, 4, 400, 32), float32] {
    transpose(%FunctionVar_6_01, axes=[0, 1, 3, 2]) /* /model.10/m/m.0/attn/Transpose_output_0 */ /* ty=Tensor[(1, 4, 400, 32), float32] */
  };
  %316 = %315(%314, axes=[0, 1, 3, 2], stage4=0, attrs_type_key="relay.attrs.TuAttrs") /* ty=Tensor[(1, 4, 400, 32), float32] */;
  %317 = reshape(%316, newshape=[-1, 400, 32]) /* ty=Tensor[(4, 400, 32), float32] */;
  %318 = %309.1;
  %319 = reshape(%318, newshape=[-1, 32, 400]) /* ty=Tensor[(4, 32, 400), float32] */;
  %320 = fn (%FunctionVar_5_0: Tensor[(4, 32, 400), float32], PartitionedFromPattern="transpose_", Composite="ds1:0|te1:0|aso1:0|aso2:0|quantize:0", TuAttrs=relay.attrs.TuAttrs(0x55ad96eeb8)) -> Tensor[(4, 400, 32), float32] {
    transpose(%FunctionVar_5_0, axes=[0, 2, 1]) /* ty=Tensor[(4, 400, 32), float32] */
  };
  %321 = %320(%319, axes=[0, 2, 1], stage4=0, attrs_type_key="relay.attrs.TuAttrs") /* ty=Tensor[(4, 400, 32), float32] */;
  %322 = dl.quantize(%317, out_dtype="int8", output_scales=[0.0540297f], output_zero_points=[0]) /* fake_quant_109 */ /* ty=Tensor[(4, 400, 32), int8] */;
  %323 = dl.quantize(%321, out_dtype="int8", output_scales=[0.0540297f], output_zero_points=[0]) /* fake_quant_110 */ /* ty=Tensor[(4, 400, 32), int8] */;
  %324 = fn (%FunctionVar_1_03: Tensor[(4, 400, 32), int8], %FunctionVar_1_1: Tensor[(4, 400, 32), int8], PartitionedFromPattern="Tuple_dl.quantized_batch_matmul_dl.quantize_", Composite="ds1:0|te1:1|aso1:0|aso2:0|quantize:1", TuAttrs=relay.attrs.TuAttrs(0x55a9c16948)) -> Tensor[(4, 400, 400), uint8] {
    %312 = (%FunctionVar_1_03, %FunctionVar_1_1);
    %313 = dl.quantized_batch_matmul(%312, out_dtype="float16", lhs_scales=[0.0540297f], rhs_scales=[0.0540297f], lhs_zero_points=[0], rhs_zero_points=[0]) /* ty=Tensor[(4, 400, 400), float16] */;
    dl.quantize(%313, output_scales=[0.263234f], output_zero_points=[33]) /* fake_quant_111 */ /* ty=Tensor[(4, 400, 400), uint8] */
  };
  %325 = %324(%322, %323, lhs_scales=[0.0540297f], lhs_zero_points=[0], rhs_scales=[0.0540297f], rhs_zero_points=[0], scales=[0.263234f], zero_points=[33], stage0=2, attrs_type_key="relay.attrs.TuAttrs") /* ty=Tensor[(4, 400, 400), uint8] */;
  %326 = reshape(%325, newshape=[1, 4, 400, 400]) /* /model.10/m/m.0/attn/MatMul_output_0 */ /* ty=Tensor[(1, 4, 400, 400), uint8] */;
  %327 = dl.dequantize(%326, input_scales=[0.263234f], input_zero_points=[33]) /* ty=Tensor[(1, 4, 400, 400), float32] */;
  %328 = multiply(%327, 0.176777f /* ty=float32 */) /* /model.10/m/m.0/attn/Mul_output_0 */ /* ty=Tensor[(1, 4, 400, 400), float32] */;
  %329 = max(%328, axis=[3], keepdims=True) /* ty=Tensor[(1, 4, 400, 1), float32] */;
  %330 = subtract(%328, %329) /* ty=Tensor[(1, 4, 400, 400), float32] */;
  %331 = exp(%330) /* ty=Tensor[(1, 4, 400, 400), float32] */;
  %332 = sum(%331, axis=[3], keepdims=True) /* ty=Tensor[(1, 4, 400, 1), float32] */;
  %333 = divide(%331, %332) /* /model.10/m/m.0/attn/Softmax_output_0 */ /* ty=Tensor[(1, 4, 400, 400), float32] */;
  %334 = fn (%FunctionVar_4_01: Tensor[(1, 4, 400, 400), float32], PartitionedFromPattern="transpose_", Composite="ds1:0|te1:0|aso1:0|aso2:0|quantize:0", TuAttrs=relay.attrs.TuAttrs(0x55a9722438)) -> Tensor[(1, 4, 400, 400), float32] {
    transpose(%FunctionVar_4_01, axes=[0, 1, 3, 2]) /* /model.10/m/m.0/attn/Transpose_1_output_0 */ /* ty=Tensor[(1, 4, 400, 400), float32] */
  };
  %335 = %334(%333, axes=[0, 1, 3, 2], stage4=0, attrs_type_key="relay.attrs.TuAttrs") /* ty=Tensor[(1, 4, 400, 400), float32] */;
  %336 = reshape(%335, newshape=[-1, 400, 400]) /* ty=Tensor[(4, 400, 400), float32] */;
  %337 = fn (%FunctionVar_3_01: Tensor[(4, 400, 400), float32], PartitionedFromPattern="transpose_", Composite="ds1:0|te1:0|aso1:0|aso2:0|quantize:0", TuAttrs=relay.attrs.TuAttrs(0x55ab05d7c8)) -> Tensor[(4, 400, 400), float32] {
    transpose(%FunctionVar_3_01, axes=[0, 2, 1]) /* ty=Tensor[(4, 400, 400), float32] */
  };
  %338 = %337(%336, axes=[0, 2, 1], stage4=0, attrs_type_key="relay.attrs.TuAttrs") /* ty=Tensor[(4, 400, 400), float32] */;
  %339 = dl.quantize(%311, out_dtype="int8", output_scales=[0.0540297f], output_zero_points=[0]) /* fake_quant_112 */ /* ty=Tensor[(4, 64, 400), int8] */;
  %340 = dl.quantize(%338, out_dtype="int8", output_scales=[0.000387075f], output_zero_points=[0]) /* fake_quant_113 */ /* ty=Tensor[(4, 400, 400), int8] */;
  %341 = fn (%FunctionVar_0_04: Tensor[(4, 64, 400), int8], %FunctionVar_0_11: Tensor[(4, 400, 400), int8], PartitionedFromPattern="Tuple_dl.quantized_batch_matmul_dl.quantize_", Composite="ds1:0|te1:1|aso1:0|aso2:0|quantize:1", TuAttrs=relay.attrs.TuAttrs(0x55aae72ae8)) -> Tensor[(4, 64, 400), uint8] {
    %300 = (%FunctionVar_0_04, %FunctionVar_0_11);
    %301 = dl.quantized_batch_matmul(%300, out_dtype="float16", lhs_scales=[0.0540297f], rhs_scales=[0.000387075f], lhs_zero_points=[0], rhs_zero_points=[0]) /* ty=Tensor[(4, 64, 400), float16] */;
    dl.quantize(%301, output_scales=[0.0269926f], output_zero_points=[130]) /* fake_quant_114 */ /* ty=Tensor[(4, 64, 400), uint8] */
  };
  %342 = %341(%339, %340, lhs_scales=[0.0540297f], lhs_zero_points=[0], rhs_scales=[0.000387075f], rhs_zero_points=[0], scales=[0.0269926f], zero_points=[130], stage0=2, attrs_type_key="relay.attrs.TuAttrs") /* ty=Tensor[(4, 64, 400), uint8] */;
  %344 = reshape(%310, newshape=[1, 256, 20, 20]) /* /model.10/m/m.0/attn/Reshape_2_output_0 */ /* ty=Tensor[(1, 256, 20, 20), float32] */;
  %345 = dl.quantize(%344, out_dtype="int8", output_scales=[0.0540297f], output_zero_points=[0]) /* fake_quant_115 */ /* ty=Tensor[(1, 256, 20, 20), int8] */;
  %346 = fn (%FunctionVar_52_0: Tensor[(1, 256, 20, 20), int8], %FunctionVar_52_1: Tensor[(256, 1, 3, 3), uint8], %FunctionVar_52_2: Tensor[(256), int32], PartitionedFromPattern="Tuple_dl.quantized_conv2d_", Composite="ds1:0|te1:1|aso1:0|aso2:0|quantize:0", TuAttrs=relay.attrs.TuAttrs(0x55ab024848)) -> Tensor[(1, 256, 20, 20), uint8] {
    %343 = (%FunctionVar_52_0, %FunctionVar_52_1, %FunctionVar_52_2, meta[relay.Constant][291] /* ty=Tensor[(256), float32] */, meta[relay.Constant][292] /* ty=Tensor[(256), int32] */, meta[relay.Constant][293] /* ty=Tensor[(256), int32] */, meta[relay.Constant][294] /* ty=Tensor[(256), int32] */, meta[relay.Constant][295] /* ty=Tensor[(256), int32] */);
    dl.quantized_conv2d(%343, groups=256, kernel_size=[3, 3], bias_layout="", out_layout="NCHW", out_dtype="uint8", pad_width=[[0, 0], [0, 0], [1, 1], [1, 1]], lhs_scales=[0.0540297f], lhs_zero_points=[0], rhs_scales=[… rhs_zero_points=[186, 149, 163, 177, 108, 243, 253, 228, 188, 82, 180, 114, 239, 185, 158, 120, 219, 255, 200, 220, 187, 169, 253, 134, 186, 93, 172, 171, 167, 196, 249, 234, 152, 170, 197, 255, 186, 237, 213, 183, 192, 143, 240, 165, 176, 186, 255, 118, 178, 232, 255, 247, 141, 255, 182, 255, 255, 168, 199, 99, 255, 255, 194, 139, 225, 150, 238, 233, 236, 236, 237, 243, 242, 246, 255, 229, 243, 218, 255, 242, 252, 207, 239, 236, 251, 254, 255, 208, 252, 243, 247, 226, 237, 248, 210, 247, 241, 255, 247, 255, 246, 239, 240, 239, 239, 239, 232, 248, 255, 221, 244, 228, 239, 229, 238, 255, 245, 255, 243, 233, 255, 241, 248, 254, 186, 162, 242, 251, 199, 106, 249, 244, 250, 255, 175, 255, 234, 248, 202, 188, 255, 200, 213, 152, 239, 248, 237, 255, 251, 190, 233, 137, 167, 253, 196, 231, 201, 196, 203, 228, 245, 236, 255, 241, 241, 232, 173, 240, 143, 176, 193, 220, 255, 183, 214, 240, 242, 220, 228, 246, 249, 238, 225, 255, 232, 193, 241, 253, 255, 249, 250, 168, 254, 142, 190, 226, 225, 254, 180, 220, 249, 236, 250, 235, 248, 249, 241, 255, 255, 232, 235, 203, 138, 229, 243, 254, 208, 244, 254, 243, 215, 244, 255, 248, 252, 247, 252, 248, 220, 169, 236, 244, 244, 247, 210, 248, 226, 247, 242, 228, 229, 122, 234, 216, 245, 253, 210, 243, 193, 246, 255, 236, 249, 249, 248, 243], scales=[0.0314915f], zero_points=[118]) /* ty=Tensor[(1, 256, 20, 20), uint8] */
  };
  %347 = reshape(%342, newshape=[1, 256, 20, 20]) /* ty=Tensor[(1, 256, 20, 20), uint8] */;
  %348 = %346(%345, meta[relay.Constant][296] /* ty=Tensor[(256, 1, 3, 3), uint8] */, meta[relay.Constant][297] /* ty=Tensor[(256), int32] */, groups=256, kernel_size=[3, 3], pad_width=[[0, 0], [0, 0], [1, 1], [1, 1]], lhs_scales=[0.0540297f], lhs_zero_points=[0], rhs_scales=[… rhs_zero_points=[186, 149, 163, 177, 108, 243, 253, 228, 188, 82, 180, 114, 239, 185, 158, 120, 219, 255, 200, 220, 187, 169, 253, 134, 186, 93, 172, 171, 167, 196, 249, 234, 152, 170, 197, 255, 186, 237, 213, 183, 192, 143, 240, 165, 176, 186, 255, 118, 178, 232, 255, 247, 141, 255, 182, 255, 255, 168, 199, 99, 255, 255, 194, 139, 225, 150, 238, 233, 236, 236, 237, 243, 242, 246, 255, 229, 243, 218, 255, 242, 252, 207, 239, 236, 251, 254, 255, 208, 252, 243, 247, 226, 237, 248, 210, 247, 241, 255, 247, 255, 246, 239, 240, 239, 239, 239, 232, 248, 255, 221, 244, 228, 239, 229, 238, 255, 245, 255, 243, 233, 255, 241, 248, 254, 186, 162, 242, 251, 199, 106, 249, 244, 250, 255, 175, 255, 234, 248, 202, 188, 255, 200, 213, 152, 239, 248, 237, 255, 251, 190, 233, 137, 167, 253, 196, 231, 201, 196, 203, 228, 245, 236, 255, 241, 241, 232, 173, 240, 143, 176, 193, 220, 255, 183, 214, 240, 242, 220, 228, 246, 249, 238, 225, 255, 232, 193, 241, 253, 255, 249, 250, 168, 254, 142, 190, 226, 225, 254, 180, 220, 249, 236, 250, 235, 248, 249, 241, 255, 255, 232, 235, 203, 138, 229, 243, 254, 208, 244, 254, 243, 215, 244, 255, 248, 252, 247, 252, 248, 220, 169, 236, 244, 244, 247, 210, 248, 226, 247, 242, 228, 229, 122, 234, 216, 245, 253, 210, 243, 193, 246, 255, 236, 249, 249, 248, 243], scales=[0.0314915f], zero_points=[118], stage0=0, stage1=0, attrs_type_key="relay.attrs.TuAttrs") /* ty=Tensor[(1, 256, 20, 20), uint8] */;
  %349 = dl.quantized_add(%347, %348, out_dtype="uint8", lhs_scales=[0.0269926f], rhs_scales=[0.0314915f], scales=[0.0213702f], lhs_zero_points=[130], rhs_zero_points=[118], zero_points=[99], with_relu=0, DLExtParamsStrides=[], DLExtRetStrides=[]) /* /model.10/m/m.0/attn/Add_output_0 */ /* ty=Tensor[(1, 256, 20, 20), uint8] */;
  %350 = fn (%FunctionVar_51_0: Tensor[(1, 256, 20, 20), uint8], %FunctionVar_51_1: Tensor[(256, 256, 1, 1), uint8], %FunctionVar_51_2: Tensor[(256), int32], PartitionedFromPattern="Tuple_dl.quantized_conv2d_", Composite="ds1:0|te1:1|aso1:0|aso2:0|quantize:0", TuAttrs=relay.attrs.TuAttrs(0x55ad9861e8)) -> Tensor[(1, 256, 20, 20), uint8] {
…
137, 180, 101, 141, 119, 115, 105, 150, 147, 118, 177, 106, 136, 134, 181, 79, 111, 97, 143, 168, 156, 185, 77, 79, 135, 139, 162, 133, 108, 109, 142, 85, 128, 107, 180, 158, 143, 103, 104, 144, 173, 162, 98, 144, 184, 116, 132, 134, 160, 92, 132, 95, 121, 103, 142, 116, 112, 87, 148, 132, 115, 142, 98, 159, 129, 129, 120, 119, 147, 130, 157, 114, 162, 109, 170, 128, 98, 171, 125, 152, 101, 107, 167, 121, 169, 142, 142, 101, 128, 104, 191, 153, 129, 125, 106], scales=[0.0244507f], zero_points=[159], stage0=0, stage1=0, attrs_type_key="relay.attrs.TuAttrs") /* ty=Tensor[(1, 128, 20, 20), uint8] */;
  %646 = dl.dequantize(%645, input_scales=[0.0244507f], input_zero_points=[159]) /* ty=Tensor[(1, 128, 20, 20), float32] */;
  %647 = sigmoid(%646) /* /model.22/m.0/m/m.1/cv1/act/Sigmoid_output_0 */ /* ty=Tensor[(1, 128, 20, 20), float32] */;
  %648 = multiply(%646, %647) /* /model.22/m.0/m/m.1/cv1/act/Mul_output_0 */ /* ty=Tensor[(1, 128, 20, 20), float32] */;
  %649 = dl.quantize(%648, output_scales=[0.00945686f], output_zero_points=[29]) /* fake_quant_236 */ /* ty=Tensor[(1, 128, 20, 20), uint8] */;
  %650 = fn (%FunctionVar_12_0: Tensor[(1, 128, 20, 20), uint8], %FunctionVar_12_1: Tensor[(128, 128, 3, 3), uint8], %FunctionVar_12_2: Tensor[(128), int32], PartitionedFromPattern="Tuple_dl.quantized_conv2d_", Composite="ds1:0|te1:1|aso1:0|aso2:0|quantize:0", TuAttrs=relay.attrs.TuAttrs(0x55ab09bc38)) -> Tensor[(1, 128, 20, 20), uint8] {
    %640 = (%FunctionVar_12_0, %FunctionVar_12_1, %FunctionVar_12_2, meta[relay.Constant][544] /* ty=Tensor[(128), float32] */, meta[relay.Constant][545] /* ty=Tensor[(128), int32] */, meta[relay.Constant][546] /* ty=Tensor[(128), int32] */, meta[relay.Constant][547] /* ty=Tensor[(128), int32] */, meta[relay.Constant][548] /* ty=Tensor[(128), int32] */);
    dl.quantized_conv2d(%640, kernel_size=[3, 3], bias_layout="", out_layout="NCHW", out_dtype="uint8", pad_width=[[0, 0], [0, 0], [1, 1], [1, 1]], lhs_scales=[0.00945686f], lhs_zero_points=[29], rhs_scales=[… rhs_zero_points=[148, 110, 139, 101, 122, 73, 138, 73, 132, 130, 123, 100, 79, 148, 125, 150, 100, 164, 126, 135, 156, 121, 129, 121, 102, 115, 127, 151, 110, 111, 133, 149, 158, 116, 98, 118, 119, 128, 83, 109, 116, 101, 122, 158, 117, 100, 93, 126, 124, 122, 109, 108, 130, 156, 154, 88, 115, 141, 142, 163, 117, 95, 92, 129, 87, 143, 143, 97, 114, 112, 168, 119, 112, 140, 129, 91, 140, 153, 130, 118, 112, 114, 138, 153, 129, 132, 97, 99, 107, 92, 104, 156, 150, 141, 117, 111, 94, 135, 139, 156, 112, 124, 123, 112, 96, 91, 103, 109, 147, 136, 87, 104, 94, 144, 101, 133, 147, 97, 157, 94, 157, 124, 92, 156, 103, 115, 119, 104], scales=[0.0437724f], zero_points=[135]) /* ty=Tensor[(1, 128, 20, 20), uint8] */
  };
  %651 = %650(%649, meta[relay.Constant][556] /* ty=Tensor[(128, 128, 3, 3), uint8] */, meta[relay.Constant][557] /* ty=Tensor[(128), int32] */, kernel_size=[3, 3], pad_value=29f, pad_width=[[0, 0], [0, 0], [1, 1], [1, 1]], lhs_scales=[0.00945686f], lhs_zero_points=[29], rhs_scales=[… rhs_zero_points=[148, 110, 139, 101, 122, 73, 138, 73, 132, 130, 123, 100, 79, 148, 125, 150, 100, 164, 126, 135, 156, 121, 129, 121, 102, 115, 127, 151, 110, 111, 133, 149, 158, 116, 98, 118, 119, 128, 83, 109, 116, 101, 122, 158, 117, 100, 93, 126, 124, 122, 109, 108, 130, 156, 154, 88, 115, 141, 142, 163, 117, 95, 92, 129, 87, 143, 143, 97, 114, 112, 168, 119, 112, 140, 129, 91, 140, 153, 130, 118, 112, 114, 138, 153, 129, 132, 97, 99, 107, 92, 104, 156, 150, 141, 117, 111, 94, 135, 139, 156, 112, 124, 123, 112, 96, 91, 103, 109, 147, 136, 87, 104, 94, 144, 101, 133, 147, 97, 157, 94, 157, 124, 92, 156, 103, 115, 119, 104], scales=[0.0437724f], zero_points=[135], stage0=0, stage1=0, attrs_type_key="relay.attrs.TuAttrs") /* ty=Tensor[(1, 128, 20, 20), uint8] */;
  %652 = dl.dequantize(%651, input_scales=[0.0437724f], input_zero_points=[135]) /* ty=Tensor[(1, 128, 20, 20), float32] */;
  %653 = sigmoid(%652) /* /model.22/m.0/m/m.1/cv2/act/Sigmoid_output_0 */ /* ty=Tensor[(1, 128, 20, 20), float32] */;
  %654 = multiply(%652, %653) /* /model.22/m.0/m/m.1/cv2/act/Mul_output_0 */ /* ty=Tensor[(1, 128, 20, 20), float32] */;
  %656 = fn (%FunctionVar_11_0: Tensor[(1, 256, 20, 20), uint8], %FunctionVar_11_1: Tensor[(128, 256, 1, 1), uint8], %FunctionVar_11_2: Tensor[(128), int32], PartitionedFromPattern="Tuple_dl.quantized_conv2d_", Composite="ds1:0|te1:1|aso1:0|aso2:0|quantize:0", TuAttrs=relay.attrs.TuAttrs(0x55aadba888)) -> Tensor[(1, 128, 20, 20), uint8] {
    %655 = (%FunctionVar_11_0, %FunctionVar_11_1, %FunctionVar_11_2, meta[relay.Constant][558] /* ty=Tensor[(128), float32] */, meta[relay.Constant][559] /* ty=Tensor[(128), int32] */, meta[relay.Constant][560] /* ty=Tensor[(128), int32] */, meta[relay.Constant][561] /* ty=Tensor[(128), int32] */, meta[relay.Constant][562] /* ty=Tensor[(128), int32] */);
    dl.quantized_conv2d(%655, kernel_size=[1, 1], bias_layout="", out_layout="NCHW", out_dtype="uint8", pad_width=[[0, 0], [0, 0], [0, 0], [0, 0]], lhs_scales=[0.0171635f], lhs_zero_points=[16], rhs_scales=[… rhs_zero_points=[91, 108, 66, 84, 97, 173, 92, 135, 113, 133, 97, 138, 107, 178, 105, 134, 115, 120, 132, 79, 82, 108, 152, 138, 133, 118, 124, 82, 102, 145, 92, 110, 121, 89, 91, 159, 101, 113, 126, 114, 112, 128, 97, 144, 89, 141, 84, 115, 81, 132, 109, 135, 81, 105, 92, 89, 85, 111, 114, 105, 108, 161, 97, 75, 95, 72, 79, 86, 143, 84, 132, 105, 148, 85, 103, 97, 99, 77, 110, 118, 157, 114, 137, 103, 133, 132, 108, 140, 83, 72, 67, 103, 83, 100, 143, 126, 131, 60, 122, 89, 97, 140, 76, 142, 61, 124, 93, 109, 83, 101, 106, 151, 104, 110, 140, 156, 96, 79, 80, 89, 92, 127, 126, 85, 122, 113, 89, 103], scales=[0.0252601f], zero_points=[124]) /* ty=Tensor[(1, 128, 20, 20), uint8] */
  };
  %657 = %656(%620, meta[relay.Constant][563] /* ty=Tensor[(128, 256, 1, 1), uint8] */, meta[relay.Constant][564] /* ty=Tensor[(128), int32] */, kernel_size=[1, 1], lhs_scales=[0.0171635f], lhs_zero_points=[16], rhs_scales=[… rhs_zero_points=[91, 108, 66, 84, 97, 173, 92, 135, 113, 133, 97, 138, 107, 178, 105, 134, 115, 120, 132, 79, 82, 108, 152, 138, 133, 118, 124, 82, 102, 145, 92, 110, 121, 89, 91, 159, 101, 113, 126, 114, 112, 128, 97, 144, 89, 141, 84, 115, 81, 132, 109, 135, 81, 105, 92, 89, 85, 111, 114, 105, 108, 161, 97, 75, 95, 72, 79, 86, 143, 84, 132, 105, 148, 85, 103, 97, 99, 77, 110, 118, 157, 114, 137, 103, 133, 132, 108, 140, 83, 72, 67, 103, 83, 100, 143, 126, 131, 60, 122, 89, 97, 140, 76, 142, 61, 124, 93, 109, 83, 101, 106, 151, 104, 110, 140, 156, 96, 79, 80, 89, 92, 127, 126, 85, 122, 113, 89, 103], scales=[0.0252601f], zero_points=[124], stage0=0, stage1=0, attrs_type_key="relay.attrs.TuAttrs") /* ty=Tensor[(1, 128, 20, 20), uint8] */;
  %658 = dl.dequantize(%657, input_scales=[0.0252601f], input_zero_points=[124]) /* ty=Tensor[(1, 128, 20, 20), float32] */;
  %659 = sigmoid(%658) /* /model.22/m.0/cv2/act/Sigmoid_output_0 */ /* ty=Tensor[(1, 128, 20, 20), float32] */;
  %660 = add(%642, %654) /* /model.22/m.0/m/m.1/Add_output_0 */ /* ty=Tensor[(1, 128, 20, 20), float32] */;
  %661 = multiply(%658, %659) /* /model.22/m.0/cv2/act/Mul_output_0 */ /* ty=Tensor[(1, 128, 20, 20), float32] */;
  %662 = (%660, %661);
  %663 = concatenate(%662, axis=1) /* /model.22/m.0/Concat_output_0 */ /* ty=Tensor[(1, 256, 20, 20), float32] */;
  %664 = dl.quantize(%663, output_scales=[0.0220006f], output_zero_points=[38]) /* fake_quant_242 */ /* ty=Tensor[(1, 256, 20, 20), uint8] */;
  %665 = fn (%FunctionVar_10_01: Tensor[(1, 256, 20, 20), uint8], %FunctionVar_10_1: Tensor[(256, 256, 1, 1), uint8], %FunctionVar_10_2: Tensor[(256), int32], PartitionedFromPattern="Tuple_dl.quantized_conv2d_", Composite="ds1:0|te1:1|aso1:0|aso2:0|quantize:0", TuAttrs=relay.attrs.TuAttrs(0x55ab0bdec8)) -> Tensor[(1, 256, 20, 20), uint8] {
    %617 = (%FunctionVar_10_01, %FunctionVar_10_1, %FunctionVar_10_2, meta[relay.Constant][518] /* ty=Tensor[(256), float32] */, meta[relay.Constant][519] /* ty=Tensor[(256), int32] */, meta[relay.Constant][520] /* ty=Tensor[(256), int32] */, meta[relay.Constant][521] /* ty=Tensor[(256), int32] */, meta[relay.Constant][522] /* ty=Tensor[(256), int32] */);
    dl.quantized_conv2d(%617, kernel_size=[1, 1], bias_layout="", out_layout="NCHW", out_dtype="uint8", pad_width=[[0, 0], [0, 0], [0, 0], [0, 0]], lhs_scales=[0.0220006f], lhs_zero_points=[38], rhs_scales=[… rhs_zero_points=[88, 123, 112, 141, 88, 130, 169, 157, 140, 151, 147, 147, 133, 138, 145, 182, 145, 110, 117, 113, 160, 145, 105, 155, 145, 180, 130, 101, 165, 167, 113, 142, 187, 85, 123, 159, 164, 124, 162, 145, 136, 116, 98, 140, 125, 120, 115, 179, 118, 171, 185, 107, 183, 84, 161, 97, 149, 139, 93, 162, 184, 134, 203, 100, 173, 106, 137, 140, 163, 112, 139, 190, 111, 94, 145, 116, 145, 190, 84, 153, 153, 78, 182, 156, 146, 182, 159, 156, 148, 121, 162, 160, 110, 165, 155, 135, 191, 210, 132, 155, 197, 75, 130, 204, 164, 113, 140, 104, 180, 110, 116, 135, 148, 148, 133, 139, 69, 148, 119, 87, 129, 127, 175, 149, 147, 202, 168, 176, 99, 117, 102, 112, 129, 168, 140, 165, 170, 144, 190, 148, 93, 207, 180, 111, 142, 161, 121, 107, 115, 90, 166, 140, 152, 165, 195, 101, 187, 178, 136, 164, 165, 205, 172, 91, 137, 151, 103, 140, 201, 162, 168, 155, 142, 139, 158, 162, 85, 164, 202, 166, 113, 128, 170, 136, 112, 124, 156, 137, 152, 128, 105, 149, 112, 166, 136, 145, 105, 165, 96, 178, 146, 188, 124, 89, 131, 151, 209, 178, 104, 209, 143, 114, 131, 123, 111, 116, 138, 143, 195, 156, 123, 88, 80, 79, 106, 137, 152, 122, 115, 95, 133, 182, 136, 131, 166, 128, 149, 206, 113, 126, 152, 120, 201, 134, 140, 177, 181, 129, 138, 193, 188, 154, 110, 166, 186, 166], scales=[0.0329401f], zero_points=[132]) /* ty=Tensor[(1, 256, 20, 20), uint8] */
  };
  %666 = %665(%664, meta[relay.Constant][565] /* ty=Tensor[(256, 256, 1, 1), uint8] */, meta[relay.Constant][566] /* ty=Tensor[(256), int32] */, kernel_size=[1, 1], lhs_scales=[0.0220006f], lhs_zero_points=[38], rhs_scales=[… rhs_zero_points=[88, 123, 112, 141, 88, 130, 169, 157, 140, 151, 147, 147, 133, 138, 145, 182, 145, 110, 117, 113, 160, 145, 105, 155, 145, 180, 130, 101, 165, 167, 113, 142, 187, 85, 123, 159, 164, 124, 162, 145, 136, 116, 98, 140, 125, 120, 115, 179, 118, 171, 185, 107, 183, 84, 161, 97, 149, 139, 93, 162, 184, 134, 203, 100, 173, 106, 137, 140, 163, 112, 139, 190, 111, 94, 145, 116, 145, 190, 84, 153, 153, 78, 182, 156, 146, 182, 159, 156, 148, 121, 162, 160, 110, 165, 155, 135, 191, 210, 132, 155, 197, 75, 130, 204, 164, 113, 140, 104, 180, 110, 116, 135, 148, 148, 133, 139, 69, 148, 119, 87, 129, 127, 175, 149, 147, 202, 168, 176, 99, 117, 102, 112, 129, 168, 140, 165, 170, 144, 190, 148, 93, 207, 180, 111, 142, 161, 121, 107, 115, 90, 166, 140, 152, 165, 195, 101, 187, 178, 136, 164, 165, 205, 172, 91, 137, 151, 103, 140, 201, 162, 168, 155, 142, 139, 158, 162, 85, 164, 202, 166, 113, 128, 170, 136, 112, 124, 156, 137, 152, 128, 105, 149, 112, 166, 136, 145, 105, 165, 96, 178, 146, 188, 124, 89, 131, 151, 209, 178, 104, 209, 143, 114, 131, 123, 111, 116, 138, 143, 195, 156, 123, 88, 80, 79, 106, 137, 152, 122, 115, 95, 133, 182, 136, 131, 166, 128, 149, 206, 113, 126, 152, 120, 201, 134, 140, 177, 181, 129, 138, 193, 188, 154, 110, 166, 186, 166], scales=[0.0329401f], zero_points=[132], stage0=0, stage1=0, attrs_type_key="relay.attrs.TuAttrs") /* ty=Tensor[(1, 256, 20, 20), uint8] */;
  %667 = dl.dequantize(%666, input_scales=[0.0329401f], input_zero_points=[132]) /* ty=Tensor[(1, 256, 20, 20), float32] */;
  %668 = sigmoid(%667) /* /model.22/m.0/cv3/act/Sigmoid_output_0 */ /* ty=Tensor[(1, 256, 20, 20), float32] */;
  %669 = %616.0;
  %670 = multiply(%667, %668) /* /model.22/m.0/cv3/act/Mul_output_0 */ /* ty=Tensor[(1, 256, 20, 20), float32] */;
  %671 = (%669, %619, %670);
  %672 = concatenate(%671, axis=1) /* /model.22/Concat_output_0 */ /* ty=Tensor[(1, 768, 20, 20), float32] */;
  %673 = dl.quantize(%672, output_scales=[0.0171635f], output_zero_points=[16]) /* fake_quant_245 */ /* ty=Tensor[(1, 768, 20, 20), uint8] */;
  %674 = fn (%FunctionVar_9_01: Tensor[(1, 768, 20, 20), uint8], %FunctionVar_9_1: Tensor[(512, 768, 1, 1), uint8], %FunctionVar_9_2: Tensor[(512), int32], PartitionedFromPattern="Tuple_dl.quantized_conv2d_", Composite="ds1:0|te1:1|aso1:0|aso2:0|quantize:0", TuAttrs=relay.attrs.TuAttrs(0x55a958a358)) -> Tensor[(1, 512, 20, 20), uint8] {
    %599 = (%FunctionVar_9_01, %FunctionVar_9_1, %FunctionVar_9_2, meta[relay.Constant][499] /* ty=Tensor[(512), float32] */, meta[relay.Constant][500] /* ty=Tensor[(512), int32] */, meta[relay.Constant][501] /* ty=Tensor[(512), int32] */, meta[relay.Constant][502] /* ty=Tensor[(512), int32] */, meta[relay.Constant][503] /* ty=Tensor[(512), int32] */);
    dl.quantized_conv2d(%599, kernel_size=[1, 1], bias_layout="", out_layout="NCHW", out_dtype="uint8", pad_width=[[0, 0], [0, 0], [0, 0], [0, 0]], lhs_scales=[0.0171635f], lhs_zero_points=[16], rhs_scales=[… rhs_zero_points=[141, 132, 148, 123, 145, 122, 163, 136, 108, 127, 141, 164, 140, 112, 131, 137, 186, 135, 102, 147, 127, 148, 168, 143, 134, 140, 120, 114, 123, 124, 139, 134, 123, 154, 123, 111, 98, 118, 134, 181, 147, 164, 135, 114, 137, 108, 111, 96, 127, 141, 157, 108, 126, 154, 141, 121, 88, 142, 131, 136, 160, 124, 115, 98, 133, 147, 125, 151, 129, 117, 127, 129, 125, 126, 140, 153, 133, 93, 192, 100, 163, 121, 114, 140, 127, 153, 146, 129, 173, 103, 121, 121, 113, 136, 91, 146, 142, 143, 120, 106, 117, 168, 129, 138, 166, 138, 124, 95, 111, 132, 129, 84, 149, 148, 96, 159, 120, 172, 146, 117, 166, 143, 115, 127, 141, 103, 122, 134, 95, 157, 157, 122, 124, 144, 102, 192, 125, 128, 161, 130, 147, 137, 117, 112, 121, 134, 162, 125, 126, 119, 149, 119, 138, 82, 77, 134, 117, 131, 102, 132, 172, 95, 140, 126, 97, 140, 183, 136, 151, 132, 126, 134, 165, 92, 117, 110, 129, 137, 119, 114, 129, 123, 125, 154, 139, 126, 125, 112, 130, 151, 103, 116, 120, 143, 148, 115, 152, 114, 136, 129, 135, 121, 155, 168, 149, 145, 161, 114, 130, 142, 117, 119, 165, 94, 103, 130, 130, 103, 164, 123, 91, 122, 122, 123, 148, 152, 150, 138, 100, 108, 119, 127, 136, 129, 154, 85, 119, 104, 89, 119, 111, 122, 146, 126, 134, 126, 120, 148, 132, 112, 137, 98, 127, 132, 97, 155, 106, 130, 138, 126, 153, 151, 143, 115, 106, 128, 106, 147, 110, 143, 173, 141, 81, 140, 127, 107, 119, 120, 125, 130, 139, 107, 125, 139, 122, 148, 125, 109, 122, 110, 111, 153, 115, 128, 153, 96, 149, 128, 98, 186, 145, 122, 127, 166, 119, 147, 146, 135, 157, 151, 113, 118, 89, 172, 103, 158, 129, 122, 160, 110, 141, 117, 144, 154, 99, 138, 148, 153, 125, 142, 151, 141, 165, 107, 149, 123, 148, 119, 156, 122, 140, 142, 118, 120, 136, 138, 130, 144, 84, 109, 108, 96, 138, 129, 124, 135, 143, 129, 133, 146, 127, 146, 141, 116, 122, 147, 139, 117, 79, 103, 135, 160, 114, 137, 107, 106, 85, 115, 116, 120, 103, 99, 97, 129, 135, 110, 130, 83, 159, 113, 137, 137, 170, 125, 153, 113, 121, 130, 135, 143, 145, 117, 150, 118, 112, 138, 139, 120, 120, 138, 120, 138, 109, 82, 154, 93, 121, 142, 114, 132, 100, 150, 129, 124, 110, 151, 106, 105, 139, 122, 153, 154, 144, 136, 103, 106, 201, 123, 140, 132, 154, 141, 112, 137, 93, 124, 146, 101, 143, 128, 161, 115, 144, 125, 120, 148, 157, 125, 105, 165, 139, 121, 140, 122, 159, 134, 143, 135, 125, 113, 161, 89, 113, 131, 129, 114, 154, 124, 115, 96, 122, 118, 136, 135, 135, 101, 113, 110, 148, 98, 134, 119, 139, 156, 110, 144, 114, 99, 159, 153, 112, 115, 105, 126, 125, 162, 144, 134, 119, 114, 109, 120], scales=[0.0368765f], zero_points=[136]) /* ty=Tensor[(1, 512, 20, 20), uint8] */
  };
  %675 = %674(%673, meta[relay.Constant][567] /* ty=Tensor[(512, 768, 1, 1), uint8] */, meta[relay.Constant][568] /* ty=Tensor[(512), int32] */, kernel_size=[1, 1], lhs_scales=[0.0171635f], lhs_zero_points=[16], rhs_scales=[… rhs_zero_points=[141, 132, 148, 123, 145, 122, 163, 136, 108, 127, 141, 164, 140, 112, 131, 137, 186, 135, 102, 147, 127, 148, 168, 143, 134, 140, 120, 114, 123, 124, 139, 134, 123, 154, 123, 111, 98, 118, 134, 181, 147, 164, 135, 114, 137, 108, 111, 96, 127, 141, 157, 108, 126, 154, 141, 121, 88, 142, 131, 136, 160, 124, 115, 98, 133, 147, 125, 151, 129, 117, 127, 129, 125, 126, 140, 153, 133, 93, 192, 100, 163, 121, 114, 140, 127, 153, 146, 129, 173, 103, 121, 121, 113, 136, 91, 146, 142, 143, 120, 106, 117, 168, 129, 138, 166, 138, 124, 95, 111, 132, 129, 84, 149, 148, 96, 159, 120, 172, 146, 117, 166, 143, 115, 127, 141, 103, 122, 134, 95, 157, 157, 122, 124, 144, 102, 192, 125, 128, 161, 130, 147, 137, 117, 112, 121, 134, 162, 125, 126, 119, 149, 119, 138, 82, 77, 134, 117, 131, 102, 132, 172, 95, 140, 126, 97, 140, 183, 136, 151, 132, 126, 134, 165, 92, 117, 110, 129, 137, 119, 114, 129, 123, 125, 154, 139, 126, 125, 112, 130, 151, 103, 116, 120, 143, 148, 115, 152, 114, 136, 129, 135, 121, 155, 168, 149, 145, 161, 114, 130, 142, 117, 119, 165, 94, 103, 130, 130, 103, 164, 123, 91, 122, 122, 123, 148, 152, 150, 138, 100, 108, 119, 127, 136, 129, 154, 85, 119, 104, 89, 119, 111, 122, 146, 126, 134, 126, 120, 148, 132, 112, 137, 98, 127, 132, 97, 155, 106, 130, 138, 126, 153, 151, 143, 115, 106, 128, 106, 147, 110, 143, 173, 141, 81, 140, 127, 107, 119, 120, 125, 130, 139, 107, 125, 139, 122, 148, 125, 109, 122, 110, 111, 153, 115, 128, 153, 96, 149, 128, 98, 186, 145, 122, 127, 166, 119, 147, 146, 135, 157, 151, 113, 118, 89, 172, 103, 158, 129, 122, 160, 110, 141, 117, 144, 154, 99, 138, 148, 153, 125, 142, 151, 141, 165, 107, 149, 123, 148, 119, 156, 122, 140, 142, 118, 120, 136, 138, 130, 144, 84, 109, 108, 96, 138, 129, 124, 135, 143, 129, 133, 146, 127, 146, 141, 116, 122, 147, 139, 117, 79, 103, 135, 160, 114, 137, 107, 106, 85, 115, 116, 120, 103, 99, 97, 129, 135, 110, 130, 83, 159, 113, 137, 137, 170, 125, 153, 113, 121, 130, 135, 143, 145, 117, 150, 118, 112, 138, 139, 120, 120, 138, 120, 138, 109, 82, 154, 93, 121, 142, 114, 132, 100, 150, 129, 124, 110, 151, 106, 105, 139, 122, 153, 154, 144, 136, 103, 106, 201, 123, 140, 132, 154, 141, 112, 137, 93, 124, 146, 101, 143, 128, 161, 115, 144, 125, 120, 148, 157, 125, 105, 165, 139, 121, 140, 122, 159, 134, 143, 135, 125, 113, 161, 89, 113, 131, 129, 114, 154, 124, 115, 96, 122, 118, 136, 135, 135, 101, 113, 110, 148, 98, 134, 119, 139, 156, 110, 144, 114, 99, 159, 153, 112, 115, 105, 126, 125, 162, 144, 134, 119, 114, 109, 120], scales=[0.0368765f], zero_points=[136], stage0=0, stage1=0, attrs_type_key="relay.attrs.TuAttrs") /* ty=Tensor[(1, 512, 20, 20), uint8] */;
  %676 = dl.dequantize(%675, input_scales=[0.0368765f], input_zero_points=[136]) /* ty=Tensor[(1, 512, 20, 20), float32] */;
  %677 = sigmoid(%676) /* /model.22/cv2/act/Sigmoid_output_0 */ /* ty=Tensor[(1, 512, 20, 20), float32] */;
  %678 = multiply(%676, %677) /* /model.22/cv2/act/Mul_output_0 */ /* ty=Tensor[(1, 512, 20, 20), float32] */;
  %679 = dl.quantize(%678, output_scales=[0.0180559f], output_zero_points=[15]) /* fake_quant_248 */ /* ty=Tensor[(1, 512, 20, 20), uint8] */;
  %680 = fn (%FunctionVar_8_01: Tensor[(1, 512, 20, 20), uint8], %FunctionVar_8_1: Tensor[(64, 512, 3, 3), uint8], %FunctionVar_8_2: Tensor[(64), int32], PartitionedFromPattern="Tuple_dl.quantized_conv2d_", Composite="ds1:0|te1:1|aso1:0|aso2:0|quantize:0", TuAttrs=relay.attrs.TuAttrs(0x55ab04bb08)) -> Tensor[(1, 64, 20, 20), uint8] {
    %598 = (%FunctionVar_8_01, %FunctionVar_8_1, %FunctionVar_8_2, meta[relay.Constant][494] /* ty=Tensor[(64), float32] */, meta[relay.Constant][495] /* ty=Tensor[(64), int32] */, meta[relay.Constant][496] /* ty=Tensor[(64), int32] */, meta[relay.Constant][497] /* ty=Tensor[(64), int32] */, meta[relay.Constant][498] /* ty=Tensor[(64), int32] */);
    dl.quantized_conv2d(%598, kernel_size=[3, 3], bias_layout="", out_layout="NCHW", out_dtype="uint8", pad_width=[[0, 0], [0, 0], [1, 1], [1, 1]], lhs_scales=[0.0180559f], lhs_zero_points=[15], rhs_scales=[… rhs_zero_points=[177, 194, 175, 181, 146, 169, 153, 129, 127, 210, 151, 144, 141, 150, 104, 173, 138, 122, 155, 100, 117, 110, 134, 129, 131, 107, 129, 163, 160, 158, 128, 121, 125, 149, 134, 159, 199, 124, 197, 106, 138, 137, 141, 111, 156, 144, 116, 139, 151, 111, 139, 149, 137, 139, 133, 200, 155, 96, 138, 183, 122, 145, 156, 112], scales=[0.0363182f], zero_points=[134]) /* ty=Tensor[(1, 64, 20, 20), uint8] */
  };
  %681 = %680(%679, meta[relay.Constant][569] /* ty=Tensor[(64, 512, 3, 3), uint8] */, meta[relay.Constant][570] /* ty=Tensor[(64), int32] */, kernel_size=[3, 3], pad_value=15f, pad_width=[[0, 0], [0, 0], [1, 1], [1, 1]], lhs_scales=[0.0180559f], lhs_zero_points=[15], rhs_scales=[… rhs_zero_points=[177, 194, 175, 181, 146, 169, 153, 129, 127, 210, 151, 144, 141, 150, 104, 173, 138, 122, 155, 100, 117, 110, 134, 129, 131, 107, 129, 163, 160, 158, 128, 121, 125, 149, 134, 159, 199, 124, 197, 106, 138, 137, 141, 111, 156, 144, 116, 139, 151, 111, 139, 149, 137, 139, 133, 200, 155, 96, 138, 183, 122, 145, 156, 112], scales=[0.0363182f], zero_points=[134], stage0=0, stage1=0, attrs_type_key="relay.attrs.TuAttrs") /* ty=Tensor[(1, 64, 20, 20), uint8] */;
  %682 = dl.dequantize(%681, input_scales=[0.0363182f], input_zero_points=[134]) /* ty=Tensor[(1, 64, 20, 20), float32] */;
  %683 = sigmoid(%682) /* /model.23/cv2.2/cv2.2.0/act/Sigmoid_output_0 */ /* ty=Tensor[(1, 64, 20, 20), float32] */;
  %684 = multiply(%682, %683) /* /model.23/cv2.2/cv2.2.0/act/Mul_output_0 */ /* ty=Tensor[(1, 64, 20, 20), float32] */;
  %685 = dl.quantize(%684, output_scales=[0.0181265f], output_zero_points=[15]) /* fake_quant_251 */ /* ty=Tensor[(1, 64, 20, 20), uint8] */;
  %686 = fn (%FunctionVar_7_01: Tensor[(1, 64, 20, 20), uint8], %FunctionVar_7_1: Tensor[(64, 64, 3, 3), uint8], %FunctionVar_7_2: Tensor[(64), int32], PartitionedFromPattern="Tuple_dl.quantized_conv2d_", Composite="ds1:0|te1:1|aso1:0|aso2:0|quantize:0", TuAttrs=relay.attrs.TuAttrs(0x55adb476c8)) -> Tensor[(1, 64, 20, 20), uint8] {
    %597 = (%FunctionVar_7_01, %FunctionVar_7_1, %FunctionVar_7_2, meta[relay.Constant][489] /* ty=Tensor[(64), float32] */, meta[relay.Constant][490] /* ty=Tensor[(64), int32] */, meta[relay.Constant][491] /* ty=Tensor[(64), int32] */, meta[relay.Constant][492] /* ty=Tensor[(64), int32] */, meta[relay.Constant][493] /* ty=Tensor[(64), int32] */);
    dl.quantized_conv2d(%597, kernel_size=[3, 3], bias_layout="", out_layout="NCHW", out_dtype="uint8", pad_width=[[0, 0], [0, 0], [1, 1], [1, 1]], lhs_scales=[0.0181265f], lhs_zero_points=[15], rhs_scales=[… rhs_zero_points=[107, 120, 79, 172, 145, 131, 181, 98, 151, 167, 149, 73, 120, 120, 130, 143, 132, 172, 72, 149, 167, 125, 155, 127, 57, 167, 120, 153, 136, 67, 147, 101, 159, 63, 58, 43, 78, 136, 122, 166, 132, 91, 141, 131, 88, 124, 56, 174, 139, 141, 150, 138, 128, 116, 130, 100, 68, 161, 164, 99, 124, 141, 106, 114], scales=[0.139617f], zero_points=[49]) /* ty=Tensor[(1, 64, 20, 20), uint8] */
  };
  %687 = %686(%685, meta[relay.Constant][571] /* ty=Tensor[(64, 64, 3, 3), uint8] */, meta[relay.Constant][572] /* ty=Tensor[(64), int32] */, kernel_size=[3, 3], pad_value=15f, pad_width=[[0, 0], [0, 0], [1, 1], [1, 1]], lhs_scales=[0.0181265f], lhs_zero_points=[15], rhs_scales=[… rhs_zero_points=[107, 120, 79, 172, 145, 131, 181, 98, 151, 167, 149, 73, 120, 120, 130, 143, 132, 172, 72, 149, 167, 125, 155, 127, 57, 167, 120, 153, 136, 67, 147, 101, 159, 63, 58, 43, 78, 136, 122, 166, 132, 91, 141, 131, 88, 124, 56, 174, 139, 141, 150, 138, 128, 116, 130, 100, 68, 161, 164, 99, 124, 141, 106, 114], scales=[0.139617f], zero_points=[49], stage0=0, stage1=0, attrs_type_key="relay.attrs.TuAttrs") /* ty=Tensor[(1, 64, 20, 20), uint8] */;
  %688 = dl.dequantize(%687, input_scales=[0.139617f], input_zero_points=[49]) /* ty=Tensor[(1, 64, 20, 20), float32] */;
  %689 = sigmoid(%688) /* /model.23/cv2.2/cv2.2.1/act/Sigmoid_output_0 */ /* ty=Tensor[(1, 64, 20, 20), float32] */;
  %690 = multiply(%688, %689) /* /model.23/cv2.2/cv2.2.1/act/Mul_output_0 */ /* ty=Tensor[(1, 64, 20, 20), float32] */;
  %691 = dl.quantize(%690, output_scales=[0.113617f], output_zero_points=[2]) /* fake_quant_254 */ /* ty=Tensor[(1, 64, 20, 20), uint8] */;
  %692 = fn (%FunctionVar_6_02: Tensor[(1, 64, 20, 20), uint8], %FunctionVar_6_1: Tensor[(64, 64, 1, 1), uint8], %FunctionVar_6_2: Tensor[(64), int32], PartitionedFromPattern="Tuple_dl.quantized_conv2d_", Composite="ds1:0|te1:1|aso1:0|aso2:0|quantize:0", TuAttrs=relay.attrs.TuAttrs(0x55aaf031c8)) -> Tensor[(1, 64, 20, 20), uint8] {
    %596 = (%FunctionVar_6_02, %FunctionVar_6_1, %FunctionVar_6_2, meta[relay.Constant][484] /* ty=Tensor[(64), float32] */, meta[relay.Constant][485] /* ty=Tensor[(64), int32] */, meta[relay.Constant][486] /* ty=Tensor[(64), int32] */, meta[relay.Constant][487] /* ty=Tensor[(64), int32] */, meta[relay.Constant][488] /* ty=Tensor[(64), int32] */);
    dl.quantized_conv2d(%596, kernel_size=[1, 1], bias_layout="", out_layout="NCHW", out_dtype="uint8", pad_width=[[0, 0], [0, 0], [0, 0], [0, 0]], lhs_scales=[0.113617f], lhs_zero_points=[2], rhs_scales=[… rhs_zero_points=[99, 98, 126, 115, 116, 91, 136, 112, 119, 92, 116, 106, 84, 74, 64, 87, 138, 97, 118, 129, 113, 113, 121, 105, 105, 81, 49, 91, 70, 69, 73, 86, 125, 101, 136, 134, 125, 112, 87, 72, 76, 77, 55, 82, 76, 57, 56, 67, 117, 108, 124, 129, 94, 142, 98, 127, 85, 120, 88, 100, 93, 88, 68, 76], scales=[0.0290487f], zero_points=[70]) /* ty=Tensor[(1, 64, 20, 20), uint8] */
  };
  %693 = %692(%691, meta[relay.Constant][573] /* ty=Tensor[(64, 64, 1, 1), uint8] */, meta[relay.Constant][574] /* ty=Tensor[(64), int32] */, kernel_size=[1, 1], lhs_scales=[0.113617f], lhs_zero_points=[2], rhs_scales=[… rhs_zero_points=[99, 98, 126, 115, 116, 91, 136, 112, 119, 92, 116, 106, 84, 74, 64, 87, 138, 97, 118, 129, 113, 113, 121, 105, 105, 81, 49, 91, 70, 69, 73, 86, 125, 101, 136, 134, 125, 112, 87, 72, 76, 77, 55, 82, 76, 57, 56, 67, 117, 108, 124, 129, 94, 142, 98, 127, 85, 120, 88, 100, 93, 88, 68, 76], scales=[0.0290487f], zero_points=[70], stage0=0, stage1=0, attrs_type_key="relay.attrs.TuAttrs") /* ty=Tensor[(1, 64, 20, 20), uint8] */;
  %699 = fn (%FunctionVar_5_01: Tensor[(1, 512, 20, 20), uint8], %FunctionVar_5_1: Tensor[(512, 1, 3, 3), uint8], %FunctionVar_5_2: Tensor[(512), int32], PartitionedFromPattern="Tuple_dl.quantized_conv2d_", Composite="ds1:0|te1:1|aso1:0|aso2:0|quantize:0", TuAttrs=relay.attrs.TuAttrs(0x55aaef4b98)) -> Tensor[(1, 512, 20, 20), uint8] {
    %698 = (%FunctionVar_5_01, %FunctionVar_5_1, %FunctionVar_5_2, meta[relay.Constant][595] /* ty=Tensor[(512), float32] */, meta[relay.Constant][596] /* ty=Tensor[(512), int32] */, meta[relay.Constant][597] /* ty=Tensor[(512), int32] */, meta[relay.Constant][598] /* ty=Tensor[(512), int32] */, meta[relay.Constant][599] /* ty=Tensor[(512), int32] */);
    dl.quantized_conv2d(%698, groups=512, kernel_size=[3, 3], bias_layout="", out_layout="NCHW", out_dtype="uint8", pad_width=[[0, 0], [0, 0], [1, 1], [1, 1]], lhs_scales=[0.0180559f], lhs_zero_points=[15], rhs_scales=[… rhs_zero_points=[77, 73, 0, 178, 255, 0, 81, 73, 88, 60, 106, 115, 86, 140, 229, 155, 83, 78, 123, 162, 157, 207, 50, 50, 255, 0, 99, 255, 71, 0, 85, 100, 0, 76, 68, 202, 82, 171, 0, 82, 207, 35, 45, 86, 125, 220, 119, 106, 255, 66, 82, 60, 52, 0, 88, 152, 183, 83, 0, 198, 78, 103, 176, 143, 137, 10, 188, 90, 194, 80, 145, 0, 0, 0, 123, 111, 122, 47, 68, 79, 29, 50, 81, 0, 0, 144, 211, 255, 142, 0, 159, 65, 0, 255, 0, 53, 54, 108, 19, 179, 255, 165, 62, 0, 221, 39, 69, 0, 144, 255, 120, 187, 24, 52, 78, 66, 0, 115, 182, 255, 62, 255, 132, 56, 154, 71, 0, 143, 0, 198, 141, 91, 0, 148, 143, 35, 164, 255, 255, 0, 255, 13, 0, 81, 255, 159, 46, 71, 89, 255, 127, 93, 123, 189, 124, 87, 16, 143, 48, 97, 101, 57, 118, 0, 89, 205, 54, 54, 176, 75, 30, 73, 192, 96, 95, 102, 155, 63, 70, 127, 117, 0, 68, 51, 0, 35, 105, 0, 0, 84, 64, 0, 220, 165, 86, 0, 118, 0, 38, 91, 161, 185, 0, 42, 243, 208, 143, 77, 183, 177, 191, 106, 154, 83, 0, 122, 163, 22, 110, 119, 85, 71, 131, 81, 147, 104, 191, 79, 207, 122, 255, 0, 0, 227, 0, 183, 89, 116, 166, 0, 103, 167, 85, 0, 0, 48, 255, 245, 42, 255, 68, 150, 111, 239, 170, 132, 0, 209, 85, 0, 102, 98, 78, 240, 45, 0, 151, 167, 255, 77, 90, 132, 128, 0, 0, 0, 0, 255, 31, 146, 105, 245, 0, 173, 95, 225, 111, 0, 0, 255, 0, 16, 73, 0, 127, 190, 120, 42, 92, 13, 189, 84, 143, 28, 0, 115, 44, 241, 92, 147, 255, 0, 0, 78, 113, 144, 0, 17, 145, 102, 141, 158, 86, 138, 41, 132, 216, 188, 63, 96, 0, 70, 219, 97, 103, 255, 78, 232, 225, 116, 0, 86, 0, 59, 103, 182, 255, 0, 237, 72, 148, 79, 155, 112, 60, 0, 219, 0, 32, 98, 31, 77, 0, 99, 128, 36, 60, 117, 68, 255, 168, 169, 137, 191, 128, 118, 120, 0, 0, 0, 0, 255, 0, 99, 95, 44, 98, 108, 215, 82, 201, 0, 243, 96, 255, 253, 32, 255, 168, 92, 109, 72, 130, 0, 108, 43, 124, 87, 0, 255, 157, 72, 130, 255, 89, 110, 77, 102, 227, 76, 90, 179, 159, 163, 96, 83, 124, 55, 38, 71, 255, 89, 0, 0, 0, 255, 52, 255, 255, 120, 110, 88, 34, 73, 0, 255, 168, 197, 119, 53, 41, 139, 255, 40, 0, 132, 172, 44, 255, 18, 44, 0, 22, 76, 66, 46, 144, 13, 0, 54, 156, 72, 156, 64, 64, 0, 255, 0, 155, 77, 0, 174, 151, 42, 131, 122, 45, 75, 94, 192, 244, 210, 255, 130, 0, 85, 94, 192, 129, 33, 44, 0, 69, 0, 209, 24, 115, 255, 107, 118, 73, 67], scales=[0.040943f], zero_points=[146]) /* ty=Tensor[(1, 512, 20, 20), uint8] */
  };
  %700 = %699(%679, meta[relay.Constant][600] /* ty=Tensor[(512, 1, 3, 3), uint8] */, meta[relay.Constant][601] /* ty=Tensor[(512), int32] */, groups=512, kernel_size=[3, 3], pad_value=15f, pad_width=[[0, 0], [0, 0], [1, 1], [1, 1]], lhs_scales=[0.0180559f], lhs_zero_points=[15], rhs_scales=[… rhs_zero_points=[77, 73, 0, 178, 255, 0, 81, 73, 88, 60, 106, 115, 86, 140, 229, 155, 83, 78, 123, 162, 157, 207, 50, 50, 255, 0, 99, 255, 71, 0, 85, 100, 0, 76, 68, 202, 82, 171, 0, 82, 207, 35, 45, 86, 125, 220, 119, 106, 255, 66, 82, 60, 52, 0, 88, 152, 183, 83, 0, 198, 78, 103, 176, 143, 137, 10, 188, 90, 194, 80, 145, 0, 0, 0, 123, 111, 122, 47, 68, 79, 29, 50, 81, 0, 0, 144, 211, 255, 142, 0, 159, 65, 0, 255, 0, 53, 54, 108, 19, 179, 255, 165, 62, 0, 221, 39, 69, 0, 144, 255, 120, 187, 24, 52, 78, 66, 0, 115, 182, 255, 62, 255, 132, 56, 154, 71, 0, 143, 0, 198, 141, 91, 0, 148, 143, 35, 164, 255, 255, 0, 255, 13, 0, 81, 255, 159, 46, 71, 89, 255, 127, 93, 123, 189, 124, 87, 16, 143, 48, 97, 101, 57, 118, 0, 89, 205, 54, 54, 176, 75, 30, 73, 192, 96, 95, 102, 155, 63, 70, 127, 117, 0, 68, 51, 0, 35, 105, 0, 0, 84, 64, 0, 220, 165, 86, 0, 118, 0, 38, 91, 161, 185, 0, 42, 243, 208, 143, 77, 183, 177, 191, 106, 154, 83, 0, 122, 163, 22, 110, 119, 85, 71, 131, 81, 147, 104, 191, 79, 207, 122, 255, 0, 0, 227, 0, 183, 89, 116, 166, 0, 103, 167, 85, 0, 0, 48, 255, 245, 42, 255, 68, 150, 111, 239, 170, 132, 0, 209, 85, 0, 102, 98, 78, 240, 45, 0, 151, 167, 255, 77, 90, 132, 128, 0, 0, 0, 0, 255, 31, 146, 105, 245, 0, 173, 95, 225, 111, 0, 0, 255, 0, 16, 73, 0, 127, 190, 120, 42, 92, 13, 189, 84, 143, 28, 0, 115, 44, 241, 92, 147, 255, 0, 0, 78, 113, 144, 0, 17, 145, 102, 141, 158, 86, 138, 41, 132, 216, 188, 63, 96, 0, 70, 219, 97, 103, 255, 78, 232, 225, 116, 0, 86, 0, 59, 103, 182, 255, 0, 237, 72, 148, 79, 155, 112, 60, 0, 219, 0, 32, 98, 31, 77, 0, 99, 128, 36, 60, 117, 68, 255, 168, 169, 137, 191, 128, 118, 120, 0, 0, 0, 0, 255, 0, 99, 95, 44, 98, 108, 215, 82, 201, 0, 243, 96, 255, 253, 32, 255, 168, 92, 109, 72, 130, 0, 108, 43, 124, 87, 0, 255, 157, 72, 130, 255, 89, 110, 77, 102, 227, 76, 90, 179, 159, 163, 96, 83, 124, 55, 38, 71, 255, 89, 0, 0, 0, 255, 52, 255, 255, 120, 110, 88, 34, 73, 0, 255, 168, 197, 119, 53, 41, 139, 255, 40, 0, 132, 172, 44, 255, 18, 44, 0, 22, 76, 66, 46, 144, 13, 0, 54, 156, 72, 156, 64, 64, 0, 255, 0, 155, 77, 0, 174, 151, 42, 131, 122, 45, 75, 94, 192, 244, 210, 255, 130, 0, 85, 94, 192, 129, 33, 44, 0, 69, 0, 209, 24, 115, 255, 107, 118, 73, 67], scales=[0.040943f], zero_points=[146], stage0=0, stage1=0, attrs_type_key="relay.attrs.TuAttrs") /* ty=Tensor[(1, 512, 20, 20), uint8] */;
  %701 = dl.dequantize(%700, input_scales=[0.040943f], input_zero_points=[146]) /* ty=Tensor[(1, 512, 20, 20), float32] */;
  %702 = sigmoid(%701) /* /model.23/cv3.2/cv3.2.0/cv3.2.0.0/act/Sigmoid_output_0 */ /* ty=Tensor[(1, 512, 20, 20), float32] */;
  %703 = multiply(%701, %702) /* /model.23/cv3.2/cv3.2.0/cv3.2.0.0/act/Mul_output_0 */ /* ty=Tensor[(1, 512, 20, 20), float32] */;
  %704 = dl.quantize(%703, output_scales=[0.0184333f], output_zero_points=[15]) /* fake_quant_260 */ /* ty=Tensor[(1, 512, 20, 20), uint8] */;
  %705 = fn (%FunctionVar_4_02: Tensor[(1, 512, 20, 20), uint8], %FunctionVar_4_1: Tensor[(128, 512, 1, 1), uint8], %FunctionVar_4_2: Tensor[(128), int32], PartitionedFromPattern="Tuple_dl.quantized_conv2d_", Composite="ds1:0|te1:1|aso1:0|aso2:0|quantize:0", TuAttrs=relay.attrs.TuAttrs(0x55adc39d08)) -> Tensor[(1, 128, 20, 20), uint8] {
    %697 = (%FunctionVar_4_02, %FunctionVar_4_1, %FunctionVar_4_2, meta[relay.Constant][590] /* ty=Tensor[(128), float32] */, meta[relay.Constant][591] /* ty=Tensor[(128), int32] */, meta[relay.Constant][592] /* ty=Tensor[(128), int32] */, meta[relay.Constant][593] /* ty=Tensor[(128), int32] */, meta[relay.Constant][594] /* ty=Tensor[(128), int32] */);
    dl.quantized_conv2d(%697, kernel_size=[1, 1], bias_layout="", out_layout="NCHW", out_dtype="uint8", pad_width=[[0, 0], [0, 0], [0, 0], [0, 0]], lhs_scales=[0.0184333f], lhs_zero_points=[15], rhs_scales=[… rhs_zero_points=[138, 159, 147, 139, 101, 147, 133, 93, 135, 140, 136, 138, 131, 153, 140, 110, 137, 141, 96, 154, 123, 171, 91, 141, 110, 162, 149, 120, 96, 142, 151, 154, 131, 146, 125, 162, 172, 118, 82, 141, 137, 152, 119, 156, 108, 111, 172, 118, 167, 144, 162, 114, 139, 139, 148, 123, 141, 140, 120, 123, 123, 132, 141, 101, 122, 104, 136, 149, 116, 128, 113, 190, 133, 153, 152, 144, 164, 148, 120, 121, 123, 104, 170, 121, 138, 124, 114, 127, 116, 149, 96, 108, 141, 93, 111, 167, 149, 156, 124, 161, 153, 81, 153, 117, 144, 148, 177, 147, 146, 163, 141, 108, 129, 140, 152, 150, 140, 120, 133, 166, 169, 173, 130, 135, 139, 147, 108, 145], scales=[0.0221805f], zero_points=[151]) /* ty=Tensor[(1, 128, 20, 20), uint8] */
  };
  %706 = %705(%704, meta[relay.Constant][602] /* ty=Tensor[(128, 512, 1, 1), uint8] */, meta[relay.Constant][603] /* ty=Tensor[(128), int32] */, kernel_size=[1, 1], lhs_scales=[0.0184333f], lhs_zero_points=[15], rhs_scales=[… rhs_zero_points=[138, 159, 147, 139, 101, 147, 133, 93, 135, 140, 136, 138, 131, 153, 140, 110, 137, 141, 96, 154, 123, 171, 91, 141, 110, 162, 149, 120, 96, 142, 151, 154, 131, 146, 125, 162, 172, 118, 82, 141, 137, 152, 119, 156, 108, 111, 172, 118, 167, 144, 162, 114, 139, 139, 148, 123, 141, 140, 120, 123, 123, 132, 141, 101, 122, 104, 136, 149, 116, 128, 113, 190, 133, 153, 152, 144, 164, 148, 120, 121, 123, 104, 170, 121, 138, 124, 114, 127, 116, 149, 96, 108, 141, 93, 111, 167, 149, 156, 124, 161, 153, 81, 153, 117, 144, 148, 177, 147, 146, 163, 141, 108, 129, 140, 152, 150, 140, 120, 133, 166, 169, 173, 130, 135, 139, 147, 108, 145], scales=[0.0221805f], zero_points=[151], stage0=0, stage1=0, attrs_type_key="relay.attrs.TuAttrs") /* ty=Tensor[(1, 128, 20, 20), uint8] */;
  %707 = dl.dequantize(%706, input_scales=[0.0221805f], input_zero_points=[151]) /* ty=Tensor[(1, 128, 20, 20), float32] */;
  %708 = sigmoid(%707) /* /model.23/cv3.2/cv3.2.0/cv3.2.0.1/act/Sigmoid_output_0 */ /* ty=Tensor[(1, 128, 20, 20), float32] */;
  %709 = multiply(%707, %708) /* /model.23/cv3.2/cv3.2.0/cv3.2.0.1/act/Mul_output_0 */ /* ty=Tensor[(1, 128, 20, 20), float32] */;
  %710 = dl.quantize(%709, output_scales=[0.00934115f], output_zero_points=[30]) /* fake_quant_263 */ /* ty=Tensor[(1, 128, 20, 20), uint8] */;
  %711 = fn (%FunctionVar_3_02: Tensor[(1, 128, 20, 20), uint8], %FunctionVar_3_1: Tensor[(128, 1, 3, 3), uint8], %FunctionVar_3_2: Tensor[(128), int32], PartitionedFromPattern="Tuple_dl.quantized_conv2d_", Composite="ds1:0|te1:1|aso1:0|aso2:0|quantize:0", TuAttrs=relay.attrs.TuAttrs(0x55a9c1e918)) -> Tensor[(1, 128, 20, 20), uint8] {
    %696 = (%FunctionVar_3_02, %FunctionVar_3_1, %FunctionVar_3_2, meta[relay.Constant][585] /* ty=Tensor[(128), float32] */, meta[relay.Constant][586] /* ty=Tensor[(128), int32] */, meta[relay.Constant][587] /* ty=Tensor[(128), int32] */, meta[relay.Constant][588] /* ty=Tensor[(128), int32] */, meta[relay.Constant][589] /* ty=Tensor[(128), int32] */);
    dl.quantized_conv2d(%696, groups=128, kernel_size=[3, 3], bias_layout="", out_layout="NCHW", out_dtype="uint8", pad_width=[[0, 0], [0, 0], [1, 1], [1, 1]], lhs_scales=[0.00934115f], lhs_zero_points=[30], rhs_scales=[… rhs_zero_points=[254, 0, 0, 0, 255, 24, 0, 14, 50, 0, 0, 235, 217, 2, 59, 255, 231, 162, 255, 0, 160, 99, 127, 0, 0, 38, 51, 255, 22, 238, 0, 247, 242, 0, 255, 255, 181, 255, 14, 249, 223, 213, 223, 0, 67, 0, 9, 177, 236, 14, 180, 255, 255, 6, 225, 0, 71, 0, 255, 255, 249, 255, 222, 9, 0, 255, 0, 2, 255, 255, 255, 16, 28, 242, 0, 237, 50, 255, 252, 60, 191, 250, 30, 79, 43, 65, 18, 216, 0, 0, 255, 255, 194, 83, 192, 0, 0, 0, 30, 247, 0, 117, 255, 118, 228, 210, 34, 0, 0, 40, 0, 255, 0, 248, 0, 0, 206, 18, 54, 26, 4, 255, 57, 0, 44, 0, 250, 0], scales=[0.0260525f], zero_points=[119]) /* ty=Tensor[(1, 128, 20, 20), uint8] */
  };
  %712 = %711(%710, meta[relay.Constant][604] /* ty=Tensor[(128, 1, 3, 3), uint8] */, meta[relay.Constant][605] /* ty=Tensor[(128), int32] */, groups=128, kernel_size=[3, 3], pad_value=30f, pad_width=[[0, 0], [0, 0], [1, 1], [1, 1]], lhs_scales=[0.00934115f], lhs_zero_points=[30], rhs_scales=[… rhs_zero_points=[254, 0, 0, 0, 255, 24, 0, 14, 50, 0, 0, 235, 217, 2, 59, 255, 231, 162, 255, 0, 160, 99, 127, 0, 0, 38, 51, 255, 22, 238, 0, 247, 242, 0, 255, 255, 181, 255, 14, 249, 223, 213, 223, 0, 67, 0, 9, 177, 236, 14, 180, 255, 255, 6, 225, 0, 71, 0, 255, 255, 249, 255, 222, 9, 0, 255, 0, 2, 255, 255, 255, 16, 28, 242, 0, 237, 50, 255, 252, 60, 191, 250, 30, 79, 43, 65, 18, 216, 0, 0, 255, 255, 194, 83, 192, 0, 0, 0, 30, 247, 0, 117, 255, 118, 228, 210, 34, 0, 0, 40, 0, 255, 0, 248, 0, 0, 206, 18, 54, 26, 4, 255, 57, 0, 44, 0, 250, 0], scales=[0.0260525f], zero_points=[119], stage0=0, stage1=0, attrs_type_key="relay.attrs.TuAttrs") /* ty=Tensor[(1, 128, 20, 20), uint8] */;
  %713 = dl.dequantize(%712, input_scales=[0.0260525f], input_zero_points=[119]) /* ty=Tensor[(1, 128, 20, 20), float32] */;
  %714 = sigmoid(%713) /* /model.23/cv3.2/cv3.2.1/cv3.2.1.0/act/Sigmoid_output_0 */ /* ty=Tensor[(1, 128, 20, 20), float32] */;
  %715 = multiply(%713, %714) /* /model.23/cv3.2/cv3.2.1/cv3.2.1.0/act/Mul_output_0 */ /* ty=Tensor[(1, 128, 20, 20), float32] */;
  %716 = dl.quantize(%715, output_scales=[0.0146402f], output_zero_points=[19]) /* fake_quant_266 */ /* ty=Tensor[(1, 128, 20, 20), uint8] */;
  %717 = fn (%FunctionVar_2_03: Tensor[(1, 128, 20, 20), uint8], %FunctionVar_2_1: Tensor[(128, 128, 1, 1), uint8], %FunctionVar_2_2: Tensor[(128), int32], PartitionedFromPattern="Tuple_dl.quantized_conv2d_", Composite="ds1:0|te1:1|aso1:0|aso2:0|quantize:0", TuAttrs=relay.attrs.TuAttrs(0x55aafbf828)) -> Tensor[(1, 128, 20, 20), uint8] {
    %695 = (%FunctionVar_2_03, %FunctionVar_2_1, %FunctionVar_2_2, meta[relay.Constant][580] /* ty=Tensor[(128), float32] */, meta[relay.Constant][581] /* ty=Tensor[(128), int32] */, meta[relay.Constant][582] /* ty=Tensor[(128), int32] */, meta[relay.Constant][583] /* ty=Tensor[(128), int32] */, meta[relay.Constant][584] /* ty=Tensor[(128), int32] */);
    dl.quantized_conv2d(%695, kernel_size=[1, 1], bias_layout="", out_layout="NCHW", out_dtype="uint8", pad_width=[[0, 0], [0, 0], [0, 0], [0, 0]], lhs_scales=[0.0146402f], lhs_zero_points=[19], rhs_scales=[… rhs_zero_points=[120, 143, 100, 185, 113, 142, 124, 147, 112, 114, 134, 142, 124, 138, 133, 121, 152, 150, 126, 161, 134, 170, 123, 143, 142, 123, 122, 104, 149, 133, 120, 124, 108, 109, 141, 130, 114, 146, 125, 123, 127, 118, 117, 118, 80, 100, 107, 135, 140, 99, 117, 106, 120, 125, 125, 120, 131, 120, 112, 116, 110, 135, 106, 117, 139, 145, 145, 157, 115, 109, 138, 130, 145, 117, 131, 124, 149, 168, 120, 127, 130, 112, 117, 108, 117, 136, 148, 141, 137, 144, 97, 118, 120, 142, 111, 132, 134, 120, 157, 122, 94, 110, 142, 154, 133, 129, 141, 134, 107, 121, 148, 100, 110, 110, 108, 143, 105, 99, 126, 131, 137, 152, 141, 151, 167, 138, 155, 160], scales=[0.0640012f], zero_points=[78]) /* ty=Tensor[(1, 128, 20, 20), uint8] */
  };
  %718 = %717(%716, meta[relay.Constant][606] /* ty=Tensor[(128, 128, 1, 1), uint8] */, meta[relay.Constant][607] /* ty=Tensor[(128), int32] */, kernel_size=[1, 1], lhs_scales=[0.0146402f], lhs_zero_points=[19], rhs_scales=[… rhs_zero_points=[120, 143, 100, 185, 113, 142, 124, 147, 112, 114, 134, 142, 124, 138, 133, 121, 152, 150, 126, 161, 134, 170, 123, 143, 142, 123, 122, 104, 149, 133, 120, 124, 108, 109, 141, 130, 114, 146, 125, 123, 127, 118, 117, 118, 80, 100, 107, 135, 140, 99, 117, 106, 120, 125, 125, 120, 131, 120, 112, 116, 110, 135, 106, 117, 139, 145, 145, 157, 115, 109, 138, 130, 145, 117, 131, 124, 149, 168, 120, 127, 130, 112, 117, 108, 117, 136, 148, 141, 137, 144, 97, 118, 120, 142, 111, 132, 134, 120, 157, 122, 94, 110, 142, 154, 133, 129, 141, 134, 107, 121, 148, 100, 110, 110, 108, 143, 105, 99, 126, 131, 137, 152, 141, 151, 167, 138, 155, 160], scales=[0.0640012f], zero_points=[78], stage0=0, stage1=0, attrs_type_key="relay.attrs.TuAttrs") /* ty=Tensor[(1, 128, 20, 20), uint8] */;
  %719 = dl.dequantize(%718, input_scales=[0.0640012f], input_zero_points=[78]) /* ty=Tensor[(1, 128, 20, 20), float32] */;
  %720 = sigmoid(%719) /* /model.23/cv3.2/cv3.2.1/cv3.2.1.1/act/Sigmoid_output_0 */ /* ty=Tensor[(1, 128, 20, 20), float32] */;
  %721 = multiply(%719, %720) /* /model.23/cv3.2/cv3.2.1/cv3.2.1.1/act/Mul_output_0 */ /* ty=Tensor[(1, 128, 20, 20), float32] */;
  %722 = dl.quantize(%721, output_scales=[0.0455251f], output_zero_points=[6]) /* fake_quant_269 */ /* ty=Tensor[(1, 128, 20, 20), uint8] */;
  %723 = fn (%FunctionVar_1_05: Tensor[(1, 128, 20, 20), uint8], %FunctionVar_1_11: Tensor[(80, 128, 1, 1), uint8], %FunctionVar_1_2: Tensor[(80), int32], PartitionedFromPattern="Tuple_dl.quantized_conv2d_", Composite="ds1:0|te1:1|aso1:0|aso2:0|quantize:0", TuAttrs=relay.attrs.TuAttrs(0x55ab067a08)) -> Tensor[(1, 80, 20, 20), uint8] {
    %694 = (%FunctionVar_1_05, %FunctionVar_1_11, %FunctionVar_1_2, meta[relay.Constant][575] /* ty=Tensor[(80), float32] */, meta[relay.Constant][576] /* ty=Tensor[(80), int32] */, meta[relay.Constant][577] /* ty=Tensor[(80), int32] */, meta[relay.Constant][578] /* ty=Tensor[(80), int32] */, meta[relay.Constant][579] /* ty=Tensor[(80), int32] */);
    dl.quantized_conv2d(%694, kernel_size=[1, 1], bias_layout="", out_layout="NCHW", out_dtype="uint8", pad_width=[[0, 0], [0, 0], [0, 0], [0, 0]], lhs_scales=[0.0455251f], lhs_zero_points=[6], rhs_scales=[… rhs_zero_points=[143, 111, 129, 127, 106, 121, 121, 121, 108, 89, 94, 99, 92, 98, 102, 130, 120, 117, 102, 119, 130, 107, 134, 118, 91, 107, 71, 85, 121, 90, 108, 97, 87, 117, 86, 72, 91, 102, 87, 81, 103, 93, 92, 89, 93, 152, 109, 97, 112, 111, 121, 95, 102, 117, 118, 94, 102, 130, 99, 127, 124, 98, 109, 131, 85, 100, 110, 99, 108, 132, 103, 110, 100, 108, 101, 96, 73, 106, 104, 83], scales=[0.0626569f], zero_points=[255]) /* ty=Tensor[(1, 80, 20, 20), uint8] */
  };
  %724 = %723(%722, meta[relay.Constant][608] /* ty=Tensor[(80, 128, 1, 1), uint8] */, meta[relay.Constant][609] /* ty=Tensor[(80), int32] */, kernel_size=[1, 1], lhs_scales=[0.0455251f], lhs_zero_points=[6], rhs_scales=[… rhs_zero_points=[143, 111, 129, 127, 106, 121, 121, 121, 108, 89, 94, 99, 92, 98, 102, 130, 120, 117, 102, 119, 130, 107, 134, 118, 91, 107, 71, 85, 121, 90, 108, 97, 87, 117, 86, 72, 91, 102, 87, 81, 103, 93, 92, 89, 93, 152, 109, 97, 112, 111, 121, 95, 102, 117, 118, 94, 102, 130, 99, 127, 124, 98, 109, 131, 85, 100, 110, 99, 108, 132, 103, 110, 100, 108, 101, 96, 73, 106, 104, 83], scales=[0.0626569f], zero_points=[255], stage0=0, stage1=0, attrs_type_key="relay.attrs.TuAttrs") /* ty=Tensor[(1, 80, 20, 20), uint8] */;
  %725 = dl.dequantize(%693, input_scales=[0.0290487f], input_zero_points=[70]) /* ty=Tensor[(1, 64, 20, 20), float32] */;
  %726 = dl.dequantize(%724, input_scales=[0.0626569f], input_zero_points=[255]) /* ty=Tensor[(1, 80, 20, 20), float32] */;
  %727 = (%725, %726);
  %728 = concatenate(%727, axis=1) /* /model.23/Concat_2_output_0 */ /* ty=Tensor[(1, 144, 20, 20), float32] */;
  %729 = reshape(%499, newshape=[1, 144, -1]) /* /model.23/Reshape_output_0 */ /* ty=Tensor[(1, 144, 6400), float32] */;
  %730 = reshape(%595, newshape=[1, 144, -1]) /* /model.23/Reshape_1_output_0 */ /* ty=Tensor[(1, 144, 1600), float32] */;
  %731 = reshape(%728, newshape=[1, 144, -1]) /* /model.23/Reshape_2_output_0 */ /* ty=Tensor[(1, 144, 400), float32] */;
  %732 = (%729, %730, %731);
  %733 = concatenate(%732, axis=2) /* /model.23/Concat_3_output_0 */ /* ty=Tensor[(1, 144, 8400), float32] */;
  %734 = split(%733, indices_or_sections=[64], axis=1) /* /model.23/Split_output_0 */ /* ty=(Tensor[(1, 64, 8400), float32], Tensor[(1, 80, 8400), float32]) */;
  %735 = %734.0;
  %736 = reshape(%735, newshape=[1, 4, 16, 8400]) /* /model.23/dfl/Reshape_output_0 */ /* ty=Tensor[(1, 4, 16, 8400), float32] */;
  %737 = fn (%FunctionVar_2_0: Tensor[(1, 4, 16, 8400), float32], PartitionedFromPattern="transpose_", Composite="ds1:0|te1:0|aso1:0|aso2:0|quantize:0", TuAttrs=relay.attrs.TuAttrs(0x55aaf4ce58)) -> Tensor[(1, 8400, 4, 16), float32] {
    transpose(%FunctionVar_2_0, axes=[0, 3, 1, 2]) /* /model.23/dfl/Transpose_output_0 */ /* ty=Tensor[(1, 8400, 4, 16), float32] */
  };
  %738 = %737(%736, axes=[0, 3, 1, 2], stage4=0, attrs_type_key="relay.attrs.TuAttrs") /* ty=Tensor[(1, 8400, 4, 16), float32] */;
  %739 = max(%738, axis=[3], keepdims=True) /* ty=Tensor[(1, 8400, 4, 1), float32] */;
  %740 = subtract(%738, %739) /* ty=Tensor[(1, 8400, 4, 16), float32] */;
  %741 = exp(%740) /* ty=Tensor[(1, 8400, 4, 16), float32] */;
  %742 = sum(%741, axis=[3], keepdims=True) /* ty=Tensor[(1, 8400, 4, 1), float32] */;
  %743 = divide(%741, %742) /* /model.23/dfl/Softmax_output_0 */ /* ty=Tensor[(1, 8400, 4, 16), float32] */;
  %744 = fn (%FunctionVar_1_0: Tensor[(1, 8400, 4, 16), float32], PartitionedFromPattern="transpose_", Composite="ds1:0|te1:0|aso1:0|aso2:0|quantize:0", TuAttrs=relay.attrs.TuAttrs(0x55ab0ce418)) -> Tensor[(1, 16, 4, 8400), float32] {
    transpose(%FunctionVar_1_0, axes=[0, 3, 2, 1]) /* /model.23/dfl/Transpose_1_output_0 */ /* ty=Tensor[(1, 16, 4, 8400), float32] */
  };
  %745 = %744(%743, axes=[0, 3, 2, 1], stage4=0, attrs_type_key="relay.attrs.TuAttrs") /* ty=Tensor[(1, 16, 4, 8400), float32] */;
  %746 = dl.quantize(%745, output_scales=[0.00243804f], output_zero_points=[0]) /* fake_quant_272 */ /* ty=Tensor[(1, 16, 4, 8400), uint8] */;
  %747 = fn (%FunctionVar_0_01: Tensor[(1, 16, 4, 8400), uint8], %FunctionVar_0_1: Tensor[(1, 16, 1, 1), uint8], PartitionedFromPattern="Tuple_dl.quantized_conv2d_", Composite="ds1:0|te1:1|aso1:0|aso2:0|quantize:0", TuAttrs=relay.attrs.TuAttrs(0x55aae238d8)) -> Tensor[(1, 1, 4, 8400), float16] {
    %0 = (%FunctionVar_0_01, %FunctionVar_0_1);
    dl.quantized_conv2d(%0, kernel_size=[1, 1], bias_layout="", out_layout="NCHW", out_dtype="float16", pad_width=[[0, 0], [0, 0], [0, 0], [0, 0]], lhs_scales=[0.00243804f], lhs_zero_points=[0], rhs_scales=[0.0588235f], rhs_zero_points=[0]) /* /model.23/dfl/conv/Conv_output_0 */ /* ty=Tensor[(1, 1, 4, 8400), float16] */
  };
  %748 = %747(%746, meta[relay.Constant][610] /* ty=Tensor[(1, 16, 1, 1), uint8] */, kernel_size=[1, 1], lhs_scales=[0.00243804f], lhs_zero_points=[0], rhs_scales=[0.0588235f], rhs_zero_points=[0], stage0=0, attrs_type_key="relay.attrs.TuAttrs") /* ty=Tensor[(1, 1, 4, 8400), float16] */;
  %749 = reshape(%748, newshape=[1, 4, 8400]) /* /model.23/dfl/Reshape_1_output_0 */ /* ty=Tensor[(1, 4, 8400), float16] */;
  %750 = cast(%749, dtype="float32") /* ty=Tensor[(1, 4, 8400), float32] */;
  %751 = strided_slice(%750, begin=[0], end=[2], strides=[1], axes=[1]) /* /model.23/Slice_output_0 */ /* ty=Tensor[(1, 2, 8400), float32] */;
  %752 = strided_slice(%750, begin=[2], end=[4], strides=[1], axes=[1]) /* /model.23/Slice_1_output_0 */ /* ty=Tensor[(1, 2, 8400), float32] */;
  %753 = subtract(meta[relay.Constant][0] /* ty=Tensor[(1, 2, 8400), float32] */, %751) /* /model.23/Sub_output_0 */ /* ty=Tensor[(1, 2, 8400), float32] */;
  %754 = add(meta[relay.Constant][611] /* ty=Tensor[(1, 2, 8400), float32] */, %752) /* /model.23/Add_1_output_0 */ /* ty=Tensor[(1, 2, 8400), float32] */;
  %755 = add(%753, %754) /* /model.23/Add_2_output_0 */ /* ty=Tensor[(1, 2, 8400), float32] */;
  %756 = divide(%755, 2f /* ty=float32 */) /* /model.23/Div_1_output_0 */ /* ty=Tensor[(1, 2, 8400), float32] */;
  %757 = subtract(%754, %753) /* /model.23/Sub_1_output_0 */ /* ty=Tensor[(1, 2, 8400), float32] */;
  %758 = (%756, %757);
  %759 = concatenate(%758, axis=1) /* /model.23/Concat_4_output_0 */ /* ty=Tensor[(1, 4, 8400), float32] */;
  %760 = %734.1;
  %761 = multiply(%759, meta[relay.Constant][612] /* ty=Tensor[(1, 8400), float32] */) /* /model.23/Mul_2_output_0 */ /* ty=Tensor[(1, 4, 8400), float32] */;
  %762 = sigmoid(%760) /* /model.23/Sigmoid_output_0 */ /* ty=Tensor[(1, 80, 8400), float32] */;
  %763 = (%761, %762);
  %764 = concatenate(%763, axis=1) /*  /model.23/Concat_5_output_0 */ /* ty=Tensor[(1, 84, 8400), float32] */;
  %765 = fn (%FunctionVar_0_0: Tensor[(1, 84, 8400), float32], PartitionedFromPattern="transpose_", Composite="ds1:0|te1:0|aso1:0|aso2:0|quantize:0", TuAttrs=relay.attrs.TuAttrs(0x55aadfa918)) -> Tensor[(1, 8400, 84), float32] {
    transpose(%FunctionVar_0_0, axes=[0, 2, 1]) /* output0 */ /* ty=Tensor[(1, 8400, 84), float32] */
  };
  %765(%764, axes=[0, 2, 1], stage4=0, attrs_type_key="relay.attrs.TuAttrs") /* ty=Tensor[(1, 8400, 84), float32] */
}

/* For debugging purposes the metadata section has been omitted.
 * If you would like to see the full metadata section you can set the 
 * option to `True` when invoking `astext`. 
 */